examples/NN_crysx_mnist_plus_98.11_weights.npz (npz, 813562 bytes, 2 tensors)

arr_0 f4 [256, 784]
0	0xbb5a01fc	-0.0033265343
1	0x3c40ab21	0.01175955
2	0x3d0f64e4	0.035008326
3	0x3bc19696	0.005907844
4	0xbc994b4e	-0.018712666
5	0x3c48d6c5	0.012258236
6	0x3ce5e3ea	0.02806278
7	0xbcb0e1d2	-0.021592055
8	0xbc50347f	-0.012707829
9	0xbca0e9b2	-0.019642685
10	0x3bc57016	0.0060253246
11	0xbc3de271	-0.011589632
12	0x3cc8c92b	0.024509987
13	0x3cfcd77d	0.030864472
14	0xbcca2289	-0.02467467
15	0x3d1b9b48	0.037989885
16	0xb68ac2ec	-4.1354124e-06
17	0x3d02d390	0.031940043
18	0x3ccebae8	0.025235608
19	0x3cddc70c	0.027072452
20	0xbcf90414	-0.030397452
21	0xbbc2d1de	-0.0059454283
22	0x3cdd46fe	0.02701139
23	0xbca24e48	-0.019812718
24	0x3ccaeb40	0.024770379
25	0xbccc8762	-0.0249669
26	0xbcd1d81e	-0.025615748
27	0xbbb0f63a	-0.0054004462
28	0x3d0e7e6c	0.034788534
29	0x3c931180	0.01795268
30	0x3c70be15	0.014693757
31	0xbc7e339f	-0.015515237
32	0x3c6d41a1	0.014480979
33	0x38b6cb10	8.7162596e-05
34	0xbcb3565d	-0.021891767
35	0xbba08f6a	-0.004899909
36	0xbce82ed6	-0.028342646
37	0x3c91e7c5	0.017810712
38	0xbb57ff9f	-0.0032958759
39	0x3c9aceaa	0.018897373
40	0xbc824e77	-0.015906556
41	0x3d00a248	0.031404763
42	0xba9bc8fa	-0.0011885457
43	0x3c6b2e64	0.014354322
44	0x3b5fbdef	0.003414031
45	0xbb852270	-0.004062943
46	0xbb68f629	-0.0035547114
47	0x3ce02839	0.02736293
48	0x3c93b270	0.018029422
49	0xbbb4ab80	-0.0055136085
50	0x3c9fe0c2	0.019516353
51	0xbb3c2dee	-0.00287139
52	0x3c5a9375	0.013340821
53	0x3ba126d6	0.0049179597
54	0xbc5f4391	-0.013626949
55	0xbce1c4e0	-0.027559698
56	0x3c824bb3	0.015905237
57	0xbceed542	-0.029154424
58	0x3c8c9266	0.017159652
59	0x3c2971fb	0.0103421165
60	0xbcb56a7d	-0.022145504
61	0xbcd357b1	-0.02579865
62	0xbc2f1ec3	-0.0106884865
63	0xbc02188b	-0.007940422
64	0x3b9a88f3	0.0047160327
65	0x3bd17f18	0.0063933246
66	0xbbef3052	-0.0072994614
67	0x3c078157	0.008270583
68	0x3c50f5ad	0.012753886
69	0xbcfba187	-0.03071667
70	0x3bcd8fea	0.0062732594
71	0x3c49622e	0.012291474
72	0xbb9641a1	-0.0045854603
73	0x3cf48e40	0.029852986
74	0x3d0fa727	0.03507152
75	0xbc9c1429	-0.019052582
76	0xbcafa3fb	-0.021440497
77	0xbb24dcd1	-0.002515603
78	0xbc91f6c4	-0.017817862
79	0x3d173979	0.036920045
80	0xbcdfd8b4	-0.027325012
81	0x3cec71a7	0.028862787
82	0xbc0acff6	-0.008472433
83	0xbcd39fb8	-0.025832996
84	0xbc0042a0	-0.007828385
85	0xb8cf670c	-9.889723e-05
86	0xbc153029	-0.009105721
87	0x3c111ae1	0.008856506
88	0xbcb1c23d	-0.021699065
89	0x3d10e11b	0.035370927
90	0xbc436755	-0.011926492
91	0x3c94e5ef	0.018176047
92	0xbcab115d	-0.020882303
93	0x3c4feec2	0.012691202
94	0xbb76e9cc	-0.0037675975
95	0x3c90e75f	0.017688451
96	0x3c1432aa	0.009045282
97	0xba9e9076	-0.0012097496
98	0xbcd0f41b	-0.025507024
99	0xbd5034be	-0.05083155
100	0xbd831707	-0.064008765
101	0xbce069e7	-0.027394248
102	0xbd367fa3	-0.044555318
103	0x3c495a05	0.012289529
104	0x3d2c592d	0.042077232
105	0xbcbc9451	-0.023019942
106	0xbbccfb34	-0.0062555317
107	0x3d114adb	0.03547178
108	0xbcdd229c	-0.026994042
109	0x3b9eeb16	0.004849802
110	0x3c8f937a	0.017526377
111	0x3c195de7	0.009360767
112	0xbc5b2cfb	-0.013377423
113	0x3d064d2a	0.032788433
114	0xbc9db560	-0.019251525
115	0x3cdaa930	0.026692003
116	0xbb7a181e	-0.0038161348
117	0xbd02fbea	-0.031978525
118	0xb948415b	-0.00019097833
119	0xbc247269	-0.010037043
120	0x3ce4da11	0.027936013
121	0x3c5fe6b6	0.013665846
122	0xbcb69d0e	-0.022291686
123	0x3c71ea57	0.014765344
124	0xbcddba0d	-0.027066255
125	0xbd187a5a	-0.03722606
126	0xbd43065f	-0.047613498
127	0x3c0600cf	0.008178904
128	0xbcbf2cf0	-0.023336858
129	0xbd2a4149	-0.041566167
130	0xbce76cc6	-0.02825011
131	0xbc62bca4	-0.013838921
132	0xbbc281f9	-0.005935904
133	0x3d480e88	0.048841983
134	0x3d7f238e	0.062289767
135	0x3c8b6055	0.017013708
136	0xbc81c48f	-0.015840797
137	0xbcba4a8c	-0.022740625
138	0x3ce27b87	0.027646793
139	0x3c7995fa	0.015233511
140	0x3ca44978	0.020054564
141	0xbbdaa26a	-0.0066721933
142	0xbb8afa3a	-0.004241255
143	0x3ad561a2	0.0016279707
144	0x3d0bbb84	0.034114376
145	0xbc1c734c	-0.009548973
146	0x3d30b727	0.043143418
147	0xbbc1daaa	-0.0059159594
148	0x3d038b38	0.03211519
149	0xbcc96380	-0.024583578
150	0xbcc61d46	-0.02418388
151	0xbda2a888	-0.07942301
152	0x3b005acd	0.0019585371
153	0x3cce1f1b	0.025161317
154	0xbd41a6d6	-0.047278248
155	0x3c9b9f28	0.01899679
156	0xbd29188f	-0.041283187
157	0xbd21bd0b	-0.039486926
158	0xbd6b62cf	-0.057467278
159	0xbd41ff65	-0.047362704
160	0xbd003978	-0.031304806
161	0xbaed8772	-0.0018122031
162	0x3cd95f35	0.026534656
163	0xbbc12c89	-0.0058952016
164	0x3cb583f5	0.022157649
165	0x3cbf96db	0.023387363
166	0xbcee0459	-0.029054807
167	0xbcb02fac	-0.021507107
168	0xbcd7b478	-0.026331171
169	0x3c24137d	0.010014412
170	0x3cde75b5	0.027155736
171	0x3b699d4f	0.0035646742
172	0x3cb7eaaa	0.022450764
173	0x3ce91091	0.028450282
174	0x3d73d193	0.059526037
175	0x3cc51a50	0.024060398
176	0x3bde5c28	0.006785888
177	0xba917423	-0.0011097234
178	0x3c5f6970	0.013635978
179	0x3d28a48a	0.04117254
180	0x3cf1ec53	0.029531633
181	0xbcab107b	-0.020881882
182	0xbccf19b9	-0.02528082
183	0xbd037563	-0.03209437
184	0xbc2248f2	-0.009905087
185	0x3c9942cb	0.018708607
186	0xbcc2aef2	-0.023765061
187	0xbd0f1b9d	-0.034938443
188	0xbd2a58dd	-0.041588653
189	0xbd26e02a	-0.040741123
190	0x3c189069	0.009311774
191	0x3c975272	0.01847193
192	0xbd44319e	-0.04789888
193	0xbd049f68	-0.032378584
194	0x3cdca243	0.026932841
195	0x3c3bb8ad	0.011457604
196	0xbcd00080	-0.025390863
197	0xbc3f0096	-0.011657855
198	0x3c9e936c	0.019357406
199	0x3a45cff9	0.0007545944
200	0xbb192397	-0.002336716
201	0x3d4bcffc	0.049758896
202	0x3d66d64a	0.056356706
203	0xbbcefbe2	-0.006316648
204	0xbc6a3541	-0.014294923
205	0xbb8210cb	-0.003969287
206	0x392566cb	0.0001577392
207	0xbce67b56	-0.028134983
208	0xbc91658e	-0.01774862
209	0xbd8dca10	-0.06923306
210	0xbcd7d6a3	-0.026347464
211	0xbcb84058	-0.022491619
212	0xbc831cea	-0.016004998
213	0x3d330940	0.043709993
214	0xbcb427b5	-0.02199159
215	0x3be7b344	0.0070709307
216	0xbd658df2	-0.056043573
217	0x3b86f257	0.0041182446
218	0xb9042581	-0.00012602472
219	0x3cb54501	0.02212763
220	0xbc8c5a67	-0.017132951
221	0xbcb1692c	-0.021656595
222	0x3cf3478a	0.029697198
223	0xbcc8ba31	-0.024502845
224	0x3ceaecea	0.028677423
225	0x3cc82c2b	0.024435123
226	0xbc97770e	-0.018489387
227	0xbbe4b157	-0.0069791484
228	0x3d5f798b	0.05455927
229	0x3c1effbd	0.009704527
230	0x3b0507ea	0.0020298907
231	0xbc70cd51	-0.014697389
232	0xbc2c4bde	-0.010516135
233	0x3c952b46	0.018209111
234	0x3d19698a	0.037454166
235	0x3d011ec9	0.0315235
236	0xbd17deee	-0.037077837
237	0xbd97cb0d	-0.07411776
238	0xbb2c1435	-0.0026257162
239	0x3d2dcfdd	0.042434562
240	0xbca5cb82	-0.020238642
241	0xbd2338a5	-0.039848942
242	0x3d4e6558	0.050389618
243	0xbd0a95f8	-0.033834428
244	0xbce26a81	-0.027638676
245	0xbc448755	-0.011995156
246	0xbd869c62	-0.065727964
247	0xbd393afb	-0.045222264
248	0x3c589ac4	0.013220493
249	0x3d11a292	0.03555543
250	0xbc43d329	-0.0119522
251	0xbc4fd081	-0.012683989
252	0x3c6b1a67	0.0143495565
253	0xbb8ed95f	-0.0043594087
254	0xbbaea7f7	-0.0053300816
255	0x3d43aaee	0.047770433

arr_1 f4 [10, 256]
0	0x3e5bbbbf	0.21458338
1	0xbe6cd9fb	-0.23130028
2	0x3d8804b8	0.06641525
3	0xbdd4d734	-0.10392609
4	0x3eb3b081	0.350956
5	0xbd9fa5ac	-0.07795271
6	0xbde25425	-0.110512055
7	0x3e7f2337	0.24915777
8	0xbcafe142	-0.021469716
9	0xbdb4f9d9	-0.08836717
10	0x3da42d04	0.080163985
11	0x3d9c660f	0.07636654
12	0xbd29de73	-0.04147191
13	0xbe67a500	-0.22621536
14	0x3c8f3d7d	0.017485375
15	0xbe2c169a	-0.16805497
16	0xbc27436f	-0.0102089485
17	0xbcd5eca7	-0.026113821
18	0xbe8854c6	-0.26627177
19	0xbcfd8d87	-0.030951275
20	0xbe1c4e28	-0.15264189
21	0xbcdb42a6	-0.026765179
22	0xbe5ec684	-0.21755415
23	0xbdd34442	-0.103157535
24	0xbdab5dac	-0.08367476
25	0x3e0d7edb	0.13817923
26	0x3e1dff41	0.15429403
27	0x3e720410	0.23634362
28	0xbea4a883	-0.32159814
29	0xbbdf8467	-0.0068212035
30	0xbe836ecf	-0.25670478
31	0x3e29afa7	0.16570912
32	0xbe5e9a8b	-0.21738641
33	0xbd3b41e6	-0.045717143
34	0xbe6c6b2f	-0.23087762
35	0xbeb45a45	-0.3522512
36	0xbdaa7649	-0.08323342
37	0xbddda665	-0.10822753
38	0xbde46449	-0.111519404
39	0xbe4b8e76	-0.19878563
40	0xbe75fc1a	-0.2402195
41	0x3e50602b	0.20349185
42	0xbd1f7ab1	-0.038935367
43	0x3dd890f2	0.10574521
44	0xbea292e6	-0.317527
45	0xbdb6a332	-0.08917846
46	0x3e27d2d6	0.16389021
47	0xbe056d2c	-0.13029927
48	0x3e247fe6	0.16064414
49	0x3df2491a	0.11830349
50	0x3e51d536	0.2049149
51	0x3d6a703b	0.057235938
52	0xbc07406b	-0.0082551045
53	0x3dae83eb	0.08521255
54	0x3e5c7ccd	0.21531983
55	0xbe120801	-0.14260866
56	0x3e8ab032	0.2708755
57	0xbe826ce2	-0.25473696
58	0xbb6da7fc	-0.0036263457
59	0x3e42ed4a	0.19035831
60	0xbdb5ace0	-0.08870864
61	0xbd540e43	-0.051771414
62	0xbea4b379	-0.32168177
63	0x3e05ee96	0.13079295
64	0x3e4293b4	0.19001657
65	0x3d196e35	0.037458617
66	0xbd994e09	-0.07485587
67	0x3dd9a885	0.10627846
68	0x3ddf0d05	0.10891155
69	0xbe433eed	-0.19066973
70	0xbe34fea4	-0.17675263
71	0xbdff677e	-0.124709114
72	0xbe77c0b0	-0.24194598
73	0xbd562838	-0.05228445
74	0xbe789720	-0.242764
75	0xbdbbfb33	-0.09178772
76	0x3e80884b	0.25103983
77	0xbdecf2db	-0.115697585
78	0x3daf24ca	0.08551939
79	0xbd354940	-0.04425931
80	0xbe53f346	-0.2069827
81	0x3bb3036c	0.0054630544
82	0xbdfd8d36	-0.123804495
83	0xbe666284	-0.22498518
84	0x3d37e538	0.044896334
85	0xbd9544d7	-0.07288521
86	0x3e7972e3	0.24360232
87	0x3ccb53cf	0.024820236
88	0xbdd49eed	-0.10381875
89	0x3d03d583	0.032186043
90	0xbdbf189f	-0.09330868
91	0x3ca382a7	0.01995976
92	0xbe40d0f4	-0.1882971
93	0x3c627bfa	0.013823504
94	0x3eaab467	0.3334076
95	0x3d9e61e8	0.07733518
96	0xbe358df2	-0.17729929
97	0x3e2b1b80	0.16709709
98	0xbba60af0	-0.005067222
99	0xbe8265d3	-0.2546831
100	0xbe4da2c6	-0.20081624
101	0xbe69ddbf	-0.22838496
102	0xbe8eff59	-0.2792919
103	0x3ca50ddf	0.020148216
104	0xbddf616c	-0.109072536
105	0x3bdd7af6	0.006759043
106	0xbe223d6d	-0.15843745
107	0xbda9f434	-0.08298531
108	0xbe139412	-0.14411953
109	0x3dd33f00	0.10314751
110	0x3e679c14	0.22618133
111	0xbd5dbf91	-0.05413777
112	0xbe1d6299	-0.15369643
113	0xbe09a9c7	-0.13443671
114	0xbd87f4bc	-0.06638476
115	0xbde1fe36	-0.11034815
116	0xbcf9b72d	-0.030482853
117	0x3d4857df	0.048911925
118	0xbd98cefa	-0.07461353
119	0xbd800bfc	-0.06252286
120	0x3dddb49f	0.10825466
121	0xbe28d20c	-0.16486377
122	0xbda69ecc	-0.08135757
123	0x3d7de6fa	0.061987855
124	0xbda08ecb	-0.078397356
125	0xbe20b44d	-0.1569378
126	0x3c4de136	0.0125659015
127	0x3d7eced9	0.062208984
128	0x3e28ef7b	0.16497605
129	0x3e18d34c	0.14924353
130	0xbd79311a	-0.060837843
131	0x3e08608d	0.13318081
132	0x3c489e85	0.012244825
133	0x3e280f92	0.1641219
134	0x3de26955	0.11055247
135	0x3c62ac4c	0.013835024
136	0x3e074d26	0.13213024
137	0xbdf57968	-0.11986047
138	0xbe5c0f01	-0.21490099
139	0x3d613cd2	0.054989643
140	0x3d4b7393	0.049670767
141	0x3ea93b02	0.33052832
142	0x3d753718	0.059866995
143	0xbc8d095b	-0.017216375
144	0xbe052069	-0.13000645
145	0xbd8f4ec1	-0.06997443
146	0xbe6151a8	-0.22003806
147	0xbdc144d9	-0.0943696
148	0xbcb4b770	-0.022060126
149	0xbd64fa8d	-0.055903006
150	0xbe5b0b8e	-0.21391127
151	0xbbb2b1b1	-0.0054533114
152	0xbe0d4207	-0.13794719
153	0x3e4f52c8	0.20246422
154	0xbe3879da	-0.18015233
155	0xbe2a204f	-0.16613887
156	0xbbe55311	-0.0069984277
157	0x3e329f2e	0.17443535
158	0x3e43950b	0.19099824
159	0x3da98cd1	0.08278812
160	0xbbd3cfc8	-0.0064639784
161	0x3d77f21b	0.060533624
162	0x3e96d174	0.29456675
163	0xbe8a4f9b	-0.2701386
164	0x3e543d0a	0.2072641
165	0xbd9420b6	-0.072328016
166	0x3e3ad9c4	0.18247133
167	0xbe03ffd8	-0.12890565
168	0xbebaadb1	-0.3646064
169	0xbda43441	-0.08017779
170	0xbe75f410	-0.24018884
171	0xbe142abd	-0.14469428
172	0xbeb6c8fd	-0.35700217
173	0x3d2f7d33	0.04284401
174	0xbe161cde	-0.1465945
175	0x3e8d3f7d	0.275875
176	0x3e55a760	0.2086463
177	0xbe1b6e49	-0.15178789
178	0xbd6b93e1	-0.057514075
179	0x3ccd59f6	0.02506731
180	0xbc1d13ab	-0.009587209
181	0x3e3104ff	0.17287062
182	0xbd6c3910	-0.057671607
183	0x3d536556	0.051610313
184	0x3e445acc	0.19175261
185	0xbcf11b24	-0.029431887
186	0xbda2fbfb	-0.07958218
187	0x3e31b11c	0.17352718
188	0xbd13681f	-0.03598797
189	0x3c414bd3	0.011797863
190	0x3d1999a6	0.037500046
191	0x3e0dac5c	0.13835281
192	0x3e39fab2	0.18162039
193	0x3d35c483	0.04437686
194	0xbe0a508c	-0.13507289
195	0x3d6bc8fd	0.057564724
196	0x3d9e335b	0.07724639
197	0x3e75a097	0.23987041
198	0xbca676c0	-0.020320296
199	0x3e558360	0.20850897
200	0xbe588675	-0.21145041
201	0xbda6dbf5	-0.08147422
202	0x3e8626f2	0.26201588
203	0x3da747bb	0.081679784
204	0x3e3a39f7	0.18186174
205	0x3cf50955	0.029911676
206	0x3daaada5	0.08333901
207	0xbe0df0bd	-0.13861366
208	0x3e868284	0.2627145
209	0x3cb9ceff	0.022681711
210	0x3d98d060	0.074616194
211	0x3e06d89b	0.13168566
212	0x3db143d0	0.08655512
213	0x3e80e2b4	0.2517296
214	0xbdcae4c4	-0.09906915
215	0x3da7b523	0.08188846
216	0x3e9b2db1	0.30308297
217	0xbdaa1e87	-0.08306604
218	0x3e09f101	0.13470842
219	0xbe3d407e	-0.18481633
220	0xbd728820	-0.05921185
221	0x3dd2a572	0.102854624
222	0x3d156b18	0.036479086
223	0x3e59ed5d	0.21281953
224	0x3d1b9743	0.03798605
225	0x3e07175b	0.13192503
226	0xbe4ce6d0	-0.20009923
227	0x3d36c16a	0.044618048
228	0x3e3272b2	0.17426565
229	0x3e1cc556	0.15309653
230	0x3c4fa672	0.012673961
231	0xbd653ec0	-0.055968046
232	0xbe7cc2c3	-0.2468367
233	0x3db86141	0.09002925
234	0x3e03a85d	0.12857194
235	0xbe75ef55	-0.24017079
236	0xbe990fef	-0.2989497
237	0xbe3dfd00	-0.18553543
238	0xbdc192e8	-0.09451848
239	0x3d6d016d	0.057862688
240	0x3b862082	0.0040932307
241	0x3e0cc0f0	0.13745475
242	0x3e6df6ee	0.23238727
243	0x3e06a58f	0.13149093
244	0xbe146e74	-0.1449526
245	0xbe8a4c8d	-0.2701153
246	0x3d9f2a2f	0.07771718
247	0x3e4404a1	0.19142391
248	0x3cc6619c	0.024216466
249	0xbe494071	-0.19653489
250	0x3d06384e	0.03276854
251	0x3e9cadad	0.30601254
252	0xbe4445e3	-0.19167285
253	0x3e6381f1	0.22217537
254	0xbe30b143	-0.1725512
255	0xbe01560c	-0.1263048
