examples/NN_crysx_mnist_98.11_biases.npz (npz, 1570 bytes, 2 tensors)

arr_0 f4 [256]
-0.007017527 -0.002973683 0.007886407 -0.009794814 0.011515707 0.0015368124 -0.008686775 0.0057523903
0.004566673 -0.013400892 -0.007536074 0.0013706514 0.0043672197 -0.009089622 0.0020364944 -0.0042073024
0.0041795704 0.003988366 0.0014336898 -0.0059307395 -0.008228408 0.0004205249 -0.0020408744 -0.01962171
-0.007288012 0.004948237 -0.004282949 0.0005950356 0.0011836559 -0.0145229995 0.0013821665 -0.0030156071
-0.006902653 -0.01607632 -0.0024120007 0.010357052 0.0013442311 -0.011098396 -0.01356144 -0.0010234675
-0.008059169 -0.009422057 0.0023441666 0.0023409359 0.003127543 -0.0020864748 -0.003293665 -0.010970678
-0.0041337986 -0.009738494 0.008539571 -0.009138315 -0.005654161 -0.005745624 -0.008382104 0.012723759
0.0065556825 -0.011906791 -0.00040918525 0.0039893133 -0.010245028 0.008035766 -0.026115311 -0.00397499
-0.010077505 -0.00861224 -0.0032438908 0.0052688583 -0.0010821887 -0.023418102 0.002517896 -0.007122971
-0.0060761184 -0.003034187 0.0010767541 -0.0018369602 -0.007951522 0.0034484603 0.0017691121 0.003310148
-0.0073727425 -0.005043701 0.014416066 0.0044586873 -0.0071096006 0.007840291 -0.0013774979 -0.009034123
-0.0019728222 -0.004867482 0.0016708177 -0.0068072965 -0.015780892 0.006845786 0.0060748863 -0.0067124953
-0.0074561182 0.002938271 0.0037213964 -0.01636833 0.0044664945 0.004599005 -0.006396568 0.0099264765
0.0069570644 0.0002486525 -0.010360498 0.0031440821 0.0063934955 -0.0052086054 0.0032356677 0.003287385
0.0070887543 0.0041445484 -0.002148293 -0.0011287022 -0.006646583 -0.0057436693 -0.0039849766 -0.0118982
-0.0018732443 0.0017093621 0.014739039 -0.00016936396 -0.01147408 -0.016139109 0.003562835 -0.013953938
0.001287469 0.020173745 -0.0030834926 -0.0023046185 -0.0045367363 0.0076710833 -0.0018676766 0.005308384
-0.001932788 0.011940044 -0.007208017 -0.00042239035 0.0001933333 -0.0075950134 0.0067924396 -0.0004192866
-0.013782842 0.007707726 -0.012967641 0.00233961 -7.2147115e-05 0.0076817675 -0.010372011 0.010740576
-0.01888623 -0.015462244 -0.0075280275 -0.0017434012 -0.00039792902 0.00030638807 -0.014070391 -0.003800366
-0.018308295 -0.013338454 0.00655635 0.007357282 -0.010835256 -0.013158264 0.0005242783 0.0014298777
0.0005002471 0.011666992 -8.802574e-05 -0.0016516414 -0.0056047714 0.006783038 -0.0007845862 -0.008043013
0.0058654393 0.0008101362 -0.0058751893 0.0029420047 0.004699375 -0.0026543846 -0.0032290781 0.0050867316
0.006710528 0.003950699 -0.0003977349 0.007945883 -0.0046875477 -0.012357368 -0.008807514 -0.0022717775
0.0053012306 -0.008882574 0.001571018 -0.004347568 -0.01346334 0.0063870507 -0.004183357 -0.007945612
0.011746844 -0.0011259754 -0.0068623936 -0.0004400665 -0.017120538 0.0006814699 -0.015023623 -0.0052458025
0.008015092 0.006984272 0.0027559705 -0.0019252145 0.0058447653 -0.004959976 0.002865256 0.005634852
0.005079485 -0.006712123 0.011733125 -0.008931343 -0.00044416942 0.00412848 0.002574835 -0.0030087056
-0.004878737 0.00071509596 -0.001971831 -0.010203999 -0.0064626564 0.0069054402 0.0061026784 -0.015130053
0.002847844 0.004050698 0.009834853 0.003228552 -0.004533528 0.01178624 -0.012817939 -0.006837595
-0.004419692 -0.018382221 0.0014738743 0.0074698874 0.0022953148 6.277402e-05 -0.0064788703 -0.0074316086
-0.0037921513 -0.0002057917 -0.010679216 -0.00072500785 -0.0051792865 0.0054890215 -0.008534952 0.005144687
00000000: 48f3 e5bb 1fe2 42bb fd35 013c 6d7a 20bc
00000010: 60ac 3c3c de6e c93a fa52 0ebc 8c7e bc3b
00000020: 08a4 953b 6a8f 5bbc 2cf1 f6bb 6ea7 b33a
00000030: e51a 8f3b a3ec 14bc b576 053b 69dd 89bb
00000040: c7f4 883b d7b0 823b a6ea bb3a a656 c2bb
00000050: 72d0 06bc e679 dc39 31c0 05bb b5bd a0bc
00000060: 47d0 eebb d224 a23b fb57 8cbb 2afc 1b3a
00000070: e724 9b3a e0f1 6dbc d029 b53a 7ea1 45bb
00000080: a62f e2bb 7db2 83bc a812 1ebb a0b0 293c
00000090: e930 b03a 0cd6 35bc cd30 5ebc df25 86ba
000000a0: 9b0a 04bc f95e 1abc 97a0 193b 636a 193b
000000b0: 77f7 4c3b 3dbd 08bb 87da 57bb 5cbe 33bc
000000c0: d174 87bb 348e 1fbc 8fe9 0b3c dfb8 15bc
000000d0: 8a46 b9bb ca45 bcbb 1855 09bc 5077 503c
000000e0: 0dd1 d63b b314 43bc ea87 d6b9 c9b8 823b
000000f0: c3da 27bc 72a8 033c c7ef d5bc a240 82bb
00000100: 1f1c 25bc 5a1a 0dbc 7597 54bb 63a6 ac3b
00000110: 3ad8 8dba 52d7 bfbc 4903 253b d067 e9bb
00000120: 2d1a c7bb 36d9 46bb df21 8d3a 28c6 f0ba
00000130: 1a47 02bc 90ff 613b 8de1 e73a 11ef 583b
00000140: 0c97 f1bb a145 a5bb 5d31 6c3c 2e1a 923b
00000150: a7f7 e8bb 9074 003c 298d b4ba dc03 14bc
00000160: 774a 01bb 667f 9fbb 57ff da3a be0f dfbb
00000170: ee46 81bc 9d52 e03b d70f c73b 7ef4 dbbb
00000180: 7452 f4bb 0290 403b ace2 733b e016 86bc
00000190: ac5b 923b 40b3 963b 4d9a d1bb a9a2 223c
000001a0: 16f8 e33b 935d 8239 14bf 29bc f20c 4e3b
000001b0: 8780 d13b f3ac aabb 7f0d 543b 2b71 573b
000001c0: c848 e83b fece 873b 60ca 0cbb f6f0 93ba
000001d0: 94cb d9bb 6435 bcbb 6894 82bb abf0 42bc
000001e0: a687 f5ba ad0c e03a 037c 713c 4b97 31b9
000001f0: c8fd 3bbc 2a36 84bc 747e 693b 0f9f 64bc
00000200: 4ac0 a83a 6943 a53c 6c14 4abb 1509 17bb
00000210: e7a8 94bb b65d fb3b d4cc f4ba f4f1 ad3b
00000220: 9b55 fdba 2da0 433c 3b31 ecbb 4674 ddb9
00000230: 83b9 4a39 97df f8bb 1d93 de3b b2d3 dbb9
00000240: 6ed1 61bc 1891 fc3b 3b76 54bc 2454 193b
00000250: b04d 97b8 56b7 fb3b 5eef 29bc 3ef9 2f3c
00000260: 4cb7 9abc 5a55 7dbc acad f6bb d682 e4ba
00000270: 21a1 d0b9 b6a2 a039 7f87 66bc 900f 79bb
00000280: 47fb 95bc 8889 5abc a6d6 d63b 5b15 f13b
00000290: 5c86 31bc c295 57bc b96f 093a bc6a bb3a
000002a0: 0423 033a e926 3f3c 769a b8b8 e47b d8ba
000002b0: 3ba8 b7bb 3f44 de3b b0ac 4dba d7c6 03bc
000002c0: df32 c03b 525f 543a a984 c0bb a6ce 403b
000002d0: 37fd 993b 2ff5 2dbb f19e 53bb 99ae a63b
000002e0: fde3 db3b de74 813b 1387 d0b9 732f 023c
000002f0: 009a 99bb 8f76 4abc 644d 10bc 1ae2 14bb
00000300: f2b5 ad3b 3788 11bc 9eea cd3a 0b76 8ebb
00000310: 5795 5cbc 774a d13b 8b14 89bb 502e 02bc
00000320: d675 403c 7795 93ba eedd e0bb bab8 e6b9
00000330: 5f40 8cbc aca4 323a a425 76bc fbe4 abbb
00000340: bc51 033c 52dc e43b 839d 343b 7b57 fcba
00000350: 7285 bf3b 4b87 a2bb 05c7 3b3b 91a4 b83b
00000360: cf71 a63b 5ef1 dbbb 4b3c 403c c554 12bc
00000370: 69df e8b9 3348 873b 90be 283b b42d 45bb
00000380: d0dd 9fbb 4775 3b3a d639 01bb ac2e 27bc
00000390: b1c4 d3bb 0847 e23b faf8 c73b 0be4 77bc
000003a0: e5a2 3a3b b8bb 843b 5d22 213c 1d96 533b
000003b0: fd8d 94bb 131b 413c 5502 52bc e70d e0bb
000003c0: 10d3 90bb 5096 96bc 042f c13a f5c5 f43b
000003d0: fe6c 163b 8ca5 8338 b44c d4bb da84 f3bb
000003e0: be85 78bb cac9 57b9 e1f7 2ebc 740e 3eba
000003f0: 01b7 a9bb 40dd b33b 2fd6 0bbc c394 a83b

arr_1 f4 [10]
-0.043548714 -0.08704932 -0.026679901 0.01966187 0.011908677 -0.021970378 -0.052986562 -0.08839176
0.26573545 0.023317851
00000000: 2360 32bd ea46 b2bd cf8f dabc ee11 a13c
00000010: 9d1c 433c 39fb b3bc 7008 59bd bd06 b5bd
00000020: 7a0e 883e 1405 bf3c
