examples/NN_crysx_mnist_plus_98.11_weights.npz (npz, 813562 bytes, 2 tensors)

arr_0 f4 [256, 784]
0	0x3cb89e98	0.02253656
1	0xbc9657a8	-0.018352345
2	0x3c25cf1b	0.010120179
3	0xbb96b212	-0.0045988644
4	0x3ce68300	0.028138638
5	0xbc9263ec	-0.017869912
6	0x3d1cb399	0.038257215
7	0xbbe9b558	-0.0071322136
8	0x3c0f2c55	0.008738597
9	0x3d144afb	0.03620432
10	0xbc8f4c78	-0.017492518
11	0x3c0eb2ff	0.008709668
12	0x3c6a11df	0.014286487
13	0x3c90d921	0.01768166
14	0x3d018653	0.031622242
15	0x3cb08a98	0.021550462
16	0xbcb227a2	-0.021747414
17	0x3d04cfcb	0.03242473
18	0xbc936274	-0.017991282
19	0x3c28472f	0.010270878
20	0x3c5bf52b	0.013425152
21	0x3d13b063	0.036056887
22	0xbb177b22	-0.0023114164
23	0x3b9dd2ae	0.0048163747
24	0xbc943150	-0.01808992
25	0x3c64ae13	0.013957518
26	0x3b09c5c5	0.002102242
27	0xbc943ed6	-0.018096369
28	0xbd0699b3	-0.032861423
29	0xbc421b8f	-0.011847391
30	0x3c1d8b39	0.009615713
31	0x3c057054	0.008144457
32	0xbc5658df	-0.013082712
33	0xbcb98c9f	-0.022650061
34	0xbcebe58b	-0.028795978
35	0xbc7da69d	-0.015481618
36	0x3ca15026	0.019691538
37	0xbbf4432b	-0.007454296
38	0xbca3fd9f	-0.020018397
39	0xbbaca9bc	-0.0052692574
40	0xbcb4373c	-0.021998994
41	0x3ce52f44	0.02797664
42	0xbcfb2e6e	-0.030661788
43	0xbd09ba77	-0.033625092
44	0x3c12643d	0.0089350315
45	0xbcfcb7df	-0.030849395
46	0x3d05e41d	0.03268825
47	0x3cc14840	0.023594022
48	0xbd02bc77	-0.031918015
49	0xbc1833d1	-0.009289698
50	0xbcbdf050	-0.023185879
51	0xbce645e2	-0.028109495
52	0xbc3e97c5	-0.011632864
53	0xbc6b3159	-0.014355027
54	0xbcc9db2a	-0.024640638
55	0x3d09bf51	0.03362972
56	0xbcf6a76c	-0.03010913
57	0xbc4563cd	-0.01204772
58	0xbc2768fd	-0.010217902
59	0x3cb9b8ac	0.022671066
60	0x3d00402c	0.0313112
61	0x3cc35d23	0.023848122
62	0x3c8f8882	0.017521147
63	0xbab1e4b0	-0.0013572183
64	0x3c72c2e1	0.014816971
65	0x3d02b906	0.031914733
66	0xbc51466b	-0.012773137
67	0xbce12df3	-0.02748773
68	0xbc0774f0	-0.008267626
69	0x3c5501a1	0.013000877
70	0xbc0c361a	-0.008557821
71	0xbcd3fb04	-0.02587653
72	0x3c80e60a	0.015734691
73	0xbc72330d	-0.014782679
74	0x3cf6e95f	0.030140577
75	0x3ca495f5	0.020091036
76	0xbc197e8f	-0.009368553
77	0xbc9e7f81	-0.019347908
78	0x3c1210ac	0.008915108
79	0xbcdc7cff	-0.026915072
80	0xbc8bb15e	-0.017052349
81	0xbbb6e939	-0.0055820015
82	0x39b3b070	0.00034272997
83	0xbbc8e404	-0.006130697
84	0xbcd5e334	-0.026109315
85	0x3d0c3e75	0.03423925
86	0xbcd4568a	-0.025920171
87	0x3cfae9a8	0.030628994
88	0xbca12888	-0.019672647
89	0xbc56ddd1	-0.013114409
90	0x3bb01ff3	0.0053749024
91	0x3cdbbe81	0.026824238
92	0x3cc44cfb	0.023962488
93	0xbbc5cdb4	-0.0060364846
94	0xbc88fb01	-0.01672125
95	0xbcf069ce	-0.029347327
96	0xbd18680e	-0.03720861
97	0xbd4fe9f1	-0.050760213
98	0xbd43f7ee	-0.047843866
99	0xbb66e1c8	-0.003522979
100	0x3c13e25f	0.009026139
101	0x3d5d343f	0.054004904
102	0x3d562089	0.05227712
103	0x3c4e9bf3	0.012610423
104	0x3d497cd4	0.04919131
105	0x3c426b31	0.011866377
106	0xbca722ff	-0.02040243
107	0xbb94cb26	-0.0045408187
108	0x3c2bbf64	0.010482643
109	0x3beafff9	0.0071716276
110	0xbc4e3746	-0.01258642
111	0xbc1a47b1	-0.009416507
112	0x3cf1dc50	0.029523998
113	0x3c246917	0.010034821
114	0xbc43dea4	-0.011954937
115	0xbc07d8ea	-0.008291462
116	0x3d055a3a	0.03255675
117	0x3a560962	0.00081648503
118	0x3c8a8128	0.01690729
119	0xbcbc7758	-0.023006126
120	0x3b461e48	0.0030230451
121	0xbccccc89	-0.024999874
122	0xbc776a8d	-0.015101087
123	0xbd54c2c0	-0.05194354
124	0xbd44aae8	-0.04801455
125	0xbd159e9f	-0.036528226
126	0xbd4170fe	-0.0472269
127	0xbc7bd1c6	-0.015369838
128	0xbcb4800f	-0.02203372
129	0x3c1d158d	0.009587658
130	0x3cb51b2e	0.022107687
131	0x3c90b140	0.017662644
132	0x3c45b598	0.012067221
133	0xbba3a8ff	-0.004994511
134	0xbc18b47d	-0.0093203755
135	0x3d376b47	0.044780042
136	0x3d42479a	0.047431566
137	0xbc993574	-0.018702246
138	0xba7cf000	-0.00096488
139	0x3cfc89c1	0.030827405
140	0x3d1a10f3	0.03761382
141	0x3a605fa1	0.00085591717
142	0x3c027bf9	0.007964128
143	0x3c870a4b	0.0164844
144	0x3bd3fc02	0.0064692507
145	0xbcdefd68	-0.027220443
146	0x3b1d8539	0.0024035706
147	0x3c29562f	0.010335489
148	0xbc6d7632	-0.014493512
149	0xbd0cb17f	-0.03434896
150	0x3c5018f2	0.01270126
151	0xbcf70772	-0.030154917
152	0x3b01c7de	0.0019802968
153	0xbd73accc	-0.059490964
154	0xbd682eb5	-0.05668517
155	0xbdb4d7ca	-0.08830221
156	0xbdc2c5f5	-0.095104136
157	0xbd77605b	-0.060394626
158	0xbbfbcf70	-0.0076846406
159	0xbcaaf8f2	-0.02087066
160	0xbc87f97c	-0.016598456
161	0xbc714d9c	-0.014727976
162	0x3c135dc7	0.008994526
163	0x3bea56ba	0.007151452
164	0xbb9c0f26	-0.004762548
165	0x3ca6e409	0.020372408
166	0x3d0806e3	0.033209693
167	0x3ce78b7d	0.028264755
168	0xbcd81044	-0.026374944
169	0x3b89b460	0.0042024106
170	0xbc1da59f	-0.009622007
171	0x3c2a8748	0.01040823
172	0xbb9c5ad5	-0.00477157
173	0xba231bd6	-0.00062221044
174	0x3a9cd8cf	0.001196647
175	0xbb77d59f	-0.0037816537
176	0xbd4869f7	-0.04892918
177	0xbd0402ac	-0.03222911
178	0xbc866644	-0.016406186
179	0x3d04b1c1	0.03239608
180	0xbc64786d	-0.013944727
181	0xbca77264	-0.020440288
182	0x3d8c926a	0.06863864
183	0x3cdfe1c9	0.027329342
184	0xbafdcfaa	-0.0019364257
185	0x3d3e0ead	0.046400715
186	0xbb465240	-0.0030261427
187	0xbc9d2f0e	-0.019187476
188	0x3cf08389	0.029359596
189	0x3c94930d	0.018136526
190	0xbc8730e0	-0.016502798
191	0x3c022095	0.0079423385
192	0xbc540273	-0.012940037
193	0xbb7e7033	-0.00388242
194	0xbce012c2	-0.027352694
195	0x3cba66cc	0.022754095
196	0xbcd56d3a	-0.02605306
197	0xbcc6741c	-0.024225287
198	0x3cd0a803	0.02547074
199	0xbce88cf3	-0.028387522
200	0xbcf7ec1e	-0.030263957
201	0xbca5438a	-0.020173807
202	0xbd4e761c	-0.050405607
203	0xbd944e9c	-0.07241556
204	0x3c197ff7	0.009368888
205	0xbd3e782a	-0.046501316
206	0x3c38293d	0.011240301
207	0x3c6abab0	0.014326736
208	0x3ba8bd02	0.0051494846
209	0x3ca4d792	0.020122323
210	0x3d8b264d	0.06794415
211	0x3ddebc6f	0.108757846
212	0x3dc6f1b6	0.097140715
213	0x3c9f4006	0.019439708
214	0x3b816045	0.003948244
215	0xb98662dc	-0.00025632128
216	0xbbfc4741	-0.007698924
217	0xbcbbfb3d	-0.022946948
218	0xbc835dda	-0.016035963
219	0xbd84528b	-0.06461056
220	0xbce0d3b7	-0.027444704
221	0xbc79165e	-0.015203087
222	0x3bab6eab	0.0052316985
223	0x3cdfe868	0.0273325
224	0xbc08ab04	-0.008341555
225	0xbcaa815d	-0.020813638
226	0xbcff3626	-0.03115375
227	0xbcbe4aab	-0.023228964
228	0x3ba9d1cb	0.00518248
229	0xbd16abef	-0.036785062
230	0xbd4349d6	-0.047677837
231	0xbd951356	-0.07279079
232	0x3a652852	0.0008741665
233	0xbcde6465	-0.027147481
234	0xbd1f6426	-0.03891387
235	0x3d00b179	0.03141925
236	0xbcc9e227	-0.02464397
237	0xbb85d299	-0.004083943
238	0x3cf6fa50	0.030148655
239	0x3d224a6f	0.039621767
240	0x3ce145f7	0.027499182
241	0x3c6a7cbe	0.014311967
242	0xbd1702ac	-0.036867782
243	0xbc8bef9b	-0.017082026
244	0xbd88dddf	-0.066829436
245	0x39e1c95c	0.0004306537
246	0xbd1042ee	-0.03522008
247	0xbc75d415	-0.015004178
248	0xbd3535d0	-0.044240773
249	0xbbc7abd0	-0.0060934797
250	0xbc4c2c74	-0.01246177
251	0x3bf82aac	0.0075734463
252	0x3cac847e	0.021059271
253	0xbc02371a	-0.007947708
254	0xbc503675	-0.012708296
255	0x3b9a20a4	0.004703598

arr_1 f4 [10, 256]
0	0xbc9622d6	-0.018327158
1	0x3d30a426	0.043125294
2	0x3d4b4a73	0.049631547
3	0xbea7556f	-0.32682368
4	0x3d04f9ec	0.032464907
5	0xbe7f2e4b	-0.24920003
6	0x3e33769a	0.17525712
7	0x3ed01dbf	0.40647694
8	0x3da1a26e	0.07892309
9	0x3e38f30b	0.18061464
10	0xbe3bac39	-0.18327416
11	0xbd344962	-0.044015296
12	0x3e8b8d0f	0.27256057
13	0x3e3b87f9	0.18313588
14	0xbd419874	-0.04726453
15	0xbe203f0f	-0.15649055
16	0x3e46bb9f	0.1940751
17	0xbdae7ac4	-0.085195094
18	0x3da2abe6	0.07942943
19	0xbd0f3330	-0.034960926
20	0x3da1a3b7	0.07892554
21	0x3e2684cf	0.162616
22	0xbe55eda2	-0.20891431
23	0xbe613ab0	-0.21995044
24	0xbe300c0d	-0.17192097
25	0xbdbb71a4	-0.091525346
26	0x3e345e03	0.17613988
27	0xbbf55237	-0.0074866074
28	0xbe0a9a30	-0.1353538
29	0xbde85908	-0.11345106
30	0x3e7e2050	0.24817014
31	0x3d82c4b6	0.06385176
32	0xbd8988b1	-0.06715525
33	0xbd79d7b4	-0.060996726
34	0xbdadc926	-0.08485632
35	0x3e8c7602	0.27433783
36	0x3eabd4b0	0.33560705
37	0x3e5b589a	0.21420518
38	0xbda08901	-0.078386314
39	0xbdb6bf90	-0.089232564
40	0x3dae02b0	0.08496606
41	0xbc9f3050	-0.019432217
42	0x3e465cda	0.19371358
43	0xbe08550c	-0.13313693
44	0xbdcd9bdf	-0.10039496
45	0xbb9df186	-0.0048200516
46	0xbe919388	-0.2843287
47	0x3c16063e	0.009156762
48	0xbdf6f8ef	-0.12059199
49	0x3e362d4c	0.17790717
50	0x3dba1ec4	0.09087899
51	0xbe69387d	-0.22775455
52	0xbd9443da	-0.07239504
53	0x3d0c1320	0.034197927
54	0x3e909664	0.2823974
55	0xbe81f613	-0.25383052
56	0xbdc089a4	-0.09401253
57	0x3e002265	0.1251312
58	0xbdbbd109	-0.0917073
59	0xbe4ed6a4	-0.20199066
60	0xbe27d3a2	-0.16389325
61	0x3d38eb87	0.04514649
62	0xbd7676e2	-0.06017197
63	0xbbc0091f	-0.0058604623
64	0x3decb596	0.11558072
65	0xbda84e08	-0.08218008
66	0xbe09d6b0	-0.13460803
67	0xbc6c3deb	-0.014419059
68	0x3e00edb6	0.1259068
69	0x3ded22e0	0.115789175
70	0x3e0a9477	0.13533197
71	0xbd10d85d	-0.03536259
72	0x3e14174f	0.14462017
73	0xbeb1280b	-0.34600863
74	0x3c719568	0.014745094
75	0xbd3c47b4	-0.04596682
76	0x3d9cb3df	0.07651495
77	0x3d56d617	0.052450266
78	0x3c836590	0.01603964
79	0x3de07bb4	0.109610945
80	0x3ec59e31	0.38597253
81	0xbe38981b	-0.18026774
82	0xbdf543a8	-0.11975795
83	0x3d309b1e	0.04311668
84	0xbbce5d88	-0.006297771
85	0x3d6d27cf	0.057899293
86	0xbe36a619	-0.17836799
87	0x3e672855	0.22573979
88	0x3d9d2606	0.07673268
89	0xbd5b1fb9	-0.05349705
90	0xbe01ce1f	-0.12676285
91	0xbd374848	-0.044746667
92	0xbe5e2321	-0.21693088
93	0xbe3101a4	-0.17285782
94	0x3e0e485b	0.13894789
95	0x3afd0bed	0.0019305922
96	0xbd1203a6	-0.03564801
97	0xbe3b218e	-0.18274519
98	0xbdb0882d	-0.086197235
99	0xbe5cd8fe	-0.21567151
100	0x3dc58d0a	0.09646042
101	0xbe12ea90	-0.14347291
102	0xbd930e69	-0.07180483
103	0x3dd4fa21	0.10399271
104	0xbcda554b	-0.026651999
105	0x3b984927	0.0046473923
106	0xbe7aae96	-0.24480662
107	0xbce2e1d0	-0.027695566
108	0x3dbf3581	0.09336377
109	0xbe70930f	-0.23493598
110	0x3e16759e	0.14693305
111	0x3e5d1093	0.21588354
112	0xbe4e1804	-0.20126349
113	0x3e16e6ab	0.1473643
114	0xbb8e8aa9	-0.0043500257
115	0x3baf7ece	0.0053556925
116	0x3b2c5430	0.0026295297
117	0xbe4844f2	-0.1955755
118	0xbd056644	-0.03256823
119	0xbdfb0c9a	-0.12258263
120	0x3e0219e6	0.12705192
121	0x3d9af44f	0.075661294
122	0xbe18718e	-0.14887068
123	0x3d9a1cef	0.0752505
124	0xbb652e22	-0.0034970124
125	0xbdff5e12	-0.12469114
126	0x3e1ff218	0.15619695
127	0x3cecc752	0.028903637
128	0x3d957815	0.072982945
129	0x3d90dae7	0.07073002
130	0x3e023b06	0.12717828
131	0xbdcd64cc	-0.10028991
132	0x3bca7aee	0.006179205
133	0xbc978eb1	-0.018500658
134	0x3e102c81	0.14079477
135	0xbd80217e	-0.06256388
136	0xbe1534dd	-0.14570947
137	0x3e47882a	0.19485536
138	0xbe7dd87f	-0.24789618
139	0x3df0fd44	0.117670566
140	0x3e2e21d9	0.170051
141	0x3d7dc121	0.06195176
142	0xbe2d65c2	-0.16933349
143	0xbe2fa292	-0.1715186
144	0xbe4f87bd	-0.20266624
145	0x3d1e355e	0.038625114
146	0x3c2de764	0.01061425
147	0x3e1434fc	0.14473337
148	0x3d2a8059	0.041626308
149	0xbdb0eaea	-0.08638556
150	0x3da8017d	0.08203409
151	0xbe4a3d87	-0.19750033
152	0x3d3275f5	0.043569524
153	0xbe1a7336	-0.15083012
154	0xbd85b009	-0.06527717
155	0x3ca5ba5b	0.020230463
156	0xbe1013eb	-0.14070098
157	0x3b27c168	0.0025597457
158	0x3beea3b6	0.0072826995
159	0x3e374030	0.1789558
160	0xbd93d961	-0.07219196
161	0xbe0ff9f3	-0.14060192
162	0x3c82f509	0.015985982
163	0xbbb230e5	-0.0054379576
164	0xbdcb0755	-0.09913508
165	0x3e1ef356	0.15522513
166	0x3e8372ce	0.25673527
167	0x3dbbe361	0.091742285
168	0xbda6bc95	-0.08141438
169	0xbe51af39	-0.20476998
170	0x3d1021ea	0.035188593
171	0xbe1b6846	-0.15176496
172	0xbd375fbc	-0.044769034
173	0xbdad112d	-0.08450542
174	0x3d1c52b1	0.0381648
175	0xbe139ea5	-0.14415987
176	0xbdd53ab5	-0.10411588
177	0xbe90d2c5	-0.28285804
178	0xbdcf53fa	-0.10123439
179	0x3d83eb3e	0.06441353
180	0x3e160b68	0.14652789
181	0x3c661436	0.014042905
182	0x3d9030bf	0.070405476
183	0xbe36b56c	-0.17842644
184	0x3e0625a5	0.13100298
185	0xbdd5aa02	-0.10432817
186	0xbe0d75dd	-0.13814493
187	0xbd9a0dc1	-0.075221546
188	0x3e0151a2	0.12628797
189	0xbda34c91	-0.07973588
190	0xbd3a0f5d	-0.045424808
191	0xbd4e8676	-0.0504212
192	0x3e5b2247	0.21399795
193	0xbda0890d	-0.0783864
194	0x3dc4d26e	0.09610449
195	0xbe2b36b0	-0.1672008
196	0xbbaf3734	-0.005347157
197	0xbe4d7a3e	-0.20066163
198	0xbd9c171d	-0.07621596
199	0x3cb95e02	0.022627834
200	0x3ebe920d	0.37220803
201	0xbd82d322	-0.06387927
202	0xbda6f301	-0.08151818
203	0xbe149218	-0.14508855
204	0x3df65b4f	0.120291345
205	0x3e421798	0.18954313
206	0x3e1cc2d3	0.15308695
207	0x3c6be71b	0.014398362
208	0xbd7f36db	-0.062308174
209	0x3e132232	0.14368513
210	0xbd044707	-0.0322943
211	0xbe725d03	-0.23668294
212	0xbd68ff7e	-0.05688428
213	0x3de88b13	0.11354651
214	0x3d5e1410	0.05421835
215	0x3e07d3c0	0.1326437
216	0xbe0910a8	-0.1338526
217	0xbd998741	-0.07496501
218	0x3da3e0ec	0.08001885
219	0xbe06b8c7	-0.13156424
220	0x3ddb8e6a	0.10720523
221	0x3d1d1073	0.038345765
222	0xbdd5871e	-0.10426162
223	0xbcbb7146	-0.022881161
224	0x3d51d8f0	0.05123228
225	0xbe4438d7	-0.19162308
226	0x3e52319e	0.2052674
227	0xbd1c82ca	-0.038210668
228	0x3c48d37d	0.012257454
229	0xbe45cb7b	-0.19315903
230	0xbd5b5641	-0.053549055
231	0x3ea8659f	0.3289003
232	0xbd936a67	-0.07198029
233	0x3da08811	0.078384526
234	0xbe270921	-0.16312076
235	0xbd2c034d	-0.041995335
236	0x3e0c9539	0.13728799
237	0x3da65c7f	0.08123111
238	0xbd89f6d0	-0.06736529
239	0xbd1b1c09	-0.037868533
240	0x3e0ff901	0.14059831
241	0xbe3796e6	-0.17928657
242	0xbd40983f	-0.047020193
243	0xbd52cb03	-0.05146314
244	0xbd45171c	-0.048117742
245	0xbcc5b122	-0.024132315
246	0x3e3f19f6	0.18662247
247	0x3e2e6d94	0.17033988
248	0x3e31f914	0.17380172
249	0xbd82777c	-0.06370446
250	0x3d65c786	0.056098484
251	0x3cabe455	0.0209829
252	0xbe122d17	-0.14275013
253	0x3d98ffd6	0.07470672
254	0x3db92162	0.090395704
255	0x3e545667	0.20736085
