examples/NN_crysx_mnist_plus_98.11_weights.npz (npz, 813562 bytes, 2 tensors)

arr_0 f4 [256, 784]
000000 79 40 c2 3d 1b 96 b3 3d 5a c4 67 3d fb fe ad 3d
       0.094849534 0.08768865 0.05658374 0.08495899
000010 87 d5 75 3d 40 6f 46 3d 90 d0 81 3d 25 aa cf 3d
       0.06001809 0.04844594 0.06338608 0.10139874
000020 d3 d3 c1 3d e6 2a 61 3d 44 0b 10 3d 36 73 41 3d
       0.094642304 0.05497255 0.035166994 0.047229014
000030 e7 01 d6 3d c0 c0 69 3d a8 92 54 3d 08 96 82 3d
       0.104495816 0.057068586 0.051897675 0.063762724
000040 3a 32 61 3d 22 1d 4a 3d 5a 62 50 3d 33 91 ce 3d
       0.05497954 0.04934419 0.050875045 0.10086288
000050 e8 b5 72 3d 77 cd 86 3d b7 5d b6 3d f9 f0 9c 3d
       0.05925551 0.06582158 0.089045934 0.076631494
000060 05 ca 93 3d 53 66 a8 3d 02 79 3a 3d 53 fd b4 3d
       0.072162665 0.08222642 0.04552556 0.0883738
000070 a3 24 96 3d 3b f2 be 3d 02 9e 4d 3d 3b 41 d1 3d
       0.07331207 0.093235455 0.050199516 0.1021752
000080 1f a5 7f 3d b8 b7 91 3d 02 2b 6b 3d 33 3a b2 3d
       0.06241333 0.0711512 0.057414062 0.08702507
000090 41 d8 b1 3d c1 61 9a 3d 2a 48 4f 3d 0f 46 b6 3d
       0.08683825 0.07538176 0.05060593 0.08900081
0000a0 7b d1 c7 3d 32 5e 0e 3d 16 e0 4a 3d 31 b8 8a 3d
       0.09756752 0.0347578 0.04953011 0.06773413
0000b0 d9 91 84 3d d2 b7 22 3d 8e 8b 20 3d c7 4f b2 3d
       0.06473131 0.039726086 0.03919559 0.087066226
0000c0 6c b5 24 3d 92 bd 38 3d f4 f7 91 3d ba ef 5b 3d
       0.04021208 0.045102663 0.071273714 0.053695418
0000d0 3c 9b 8f 3d fa 64 1b 3d 8e 54 1e 3d 76 92 5b 3d
       0.070120305 0.037938096 0.038654856 0.053606473
0000e0 ec 00 23 3d 57 1c a7 3d 6b 65 95 3d e0 48 70 3d
       0.0397958 0.08159702 0.072947346 0.05866325
0000f0 d6 7e 6c 3d f3 d8 d7 3d 11 96 b0 3d 08 74 8f 3d
       0.057738148 0.10539427 0.08622373 0.07004553
000100 ef 54 7f 3d 1a c9 3d 3d 83 70 79 3d 9a a9 3e 3d
       0.06233686 0.046334364 0.060898315 0.046548463
000110 a6 a1 4a 3d 28 b1 8f 3d c2 92 c6 3c d0 e5 12 3d
       0.049470566 0.07016212 0.024239901 0.035863698
000120 63 6c 9d 3d 79 81 76 3d 5a 24 8f 3d 97 19 ab 3d
       0.07686689 0.06018207 0.069893554 0.0835449
000130 68 72 60 3d a5 8a b0 3d 90 fe 64 3d 29 3f 9a 3d
       0.054796606 0.08620194 0.055906832 0.07531578
000140 5e 6c 10 3d da 5a 74 3d 53 d9 7c 3d d3 df c6 3d
       0.035259597 0.059656955 0.061730694 0.0971066
000150 cc fd 91 3d d9 90 96 3d 3b 92 93 3d e2 06 71 3d
       0.07128486 0.07351846 0.072056256 0.058844455
000160 d5 0f 93 3d 05 3a d0 3d 51 81 ae 3d a3 5d aa 3d
       0.07180754 0.10167316 0.08520759 0.08318641
000170 5d 5f 9c 3d 4f 82 ee 3c 9a 4f 72 3d 25 ed 3a bc
       0.076353766 0.02911487 0.059157945 -0.011409079
000180 c7 b1 68 bb ce 6e 30 3b 77 7c c3 bc 8f a9 ab bc
       -0.0035506354 0.0026921513 -0.02386306 -0.020954875
000190 65 a7 be 3c 30 4b 73 3d 95 65 22 3c db 50 02 3d
       0.02327318 0.059397876 0.009911914 0.03181539
0001a0 40 90 91 3d 4f b8 85 3d 2b 4f b0 3d 05 a1 9d 3d
       0.07107592 0.06529295 0.0860885 0.07696728
0001b0 8c f2 1f 3d 6c 26 2e 3d 79 10 c1 3d 12 cd 50 3d
       0.03904967 0.04251711 0.0942697 0.05097682
0001c0 e8 f8 3b 3d 7b 2a b9 3d a1 b3 95 3d 83 9a a4 3d
       0.045891672 0.09041306 0.07309652 0.08037283
0001d0 a5 ff a1 3d 89 b5 c3 3d 75 9d 9a 3d 39 c0 cf 3d
       0.079100884 0.095561095 0.07549564 0.101440854
0001e0 e5 e8 ae 3c 32 3d 13 bd 85 aa be 3a 2a c8 b9 bb
       0.021351287 -0.035947032 0.0014546668 -0.0056696134
0001f0 21 15 05 be 9b 10 24 be 26 62 dc bd e8 08 25 bd
       -0.12996341 -0.1602196 -0.10760908 -0.040291697
000200 ab a1 b8 bc 00 8c 37 bd b7 4e 51 bc a8 30 d6 3c
       -0.022538027 -0.04481125 -0.012775115 0.026146248
000210 60 ca 43 3d 86 a0 33 3d 38 f8 36 3d 93 1f 7e 3d
       0.04780042 0.04385426 0.044670314 0.06204183
000220 79 3d e7 3d 95 b1 ba 3d 98 f2 54 3d 3d 1c bc 3d
       0.11291022 0.09115902 0.051989168 0.091850735
000230 d5 02 be 3d e3 e3 cc 3d e2 a4 4f 3d e6 20 1a 3d
       0.09277884 0.100044034 0.050694354 0.03762903
000240 e0 2c 4d 3d bf a5 c6 3d eb a2 a9 3d 68 c0 2d bc
       0.050091624 0.09699582 0.08283027 -0.010604955
000250 ff 7d a9 bd ea 25 1a be c1 a1 3d be 2f 69 36 bd
       -0.08275985 -0.15053526 -0.18518735 -0.044533905
000260 34 e9 58 3d 81 d9 30 3e 3d 12 f6 3d 52 88 2e 3d
       0.052956775 0.17270471 0.120151974 0.042610474
000270 30 83 49 be be 82 8c be d6 89 43 be 32 4b 7e bd
       -0.1967895 -0.27443498 -0.19095549 -0.06208343
000280 5e e6 97 bc 80 5d e0 3c c2 56 2d 3d 5c f9 ad 3d
       -0.018542465 0.027388334 0.042319067 0.08494827
000290 15 db a1 3d 00 5f 5a 3d 81 1b b8 3d 15 10 b6 3d
       0.07903115 0.053313255 0.08989621 0.08889786
0002a0 d1 4e bb 3d 7b ca bf 3d 36 12 80 3d 78 99 59 3d
       0.091458924 0.09364792 0.062534735 0.053124875
0002b0 a8 d4 c8 3c 07 34 08 3c bd b7 25 3c 71 7e c1 bd
       0.024515465 0.008313186 0.010114607 -0.09447945
0002c0 d4 27 a6 be 60 7d 8d be ef 20 27 3d 8b 7c bf 3e
       -0.3245226 -0.27634716 0.040802892 0.37399706
0002d0 7f 3a c0 3e 8d d0 f0 3e 41 b2 ab 3e 5e 54 f2 3d
       0.3754463 0.47034112 0.33534434 0.11832498
0002e0 da 91 03 3d 79 be bf bd f7 80 9e be 00 16 22 be
       0.032121517 -0.09362502 -0.30957767 -0.15828705
0002f0 47 36 73 bc b8 d9 2a be 03 b4 93 bd ed a5 de 3c
       -0.014844484 -0.16684616 -0.07212069 0.027178729
000300 d8 4e ba 3d 17 e9 b4 3d 16 aa 40 3d 1d bb b1 3d
       0.090970695 0.08833521 0.047037207 0.08678267
000310 bd a7 9e 3d 4b 00 b7 3d b6 2f 47 3d 85 20 ea 3c
       0.07746837 0.08935603 0.048629485 0.02857996
000320 99 70 bd 3c ae f5 2c bd 56 b7 09 bd 19 37 83 be
       0.02312498 -0.042226486 -0.03362211 -0.25627974
000330 c9 c8 b7 be bc 68 dc 3d df e7 bf 3e e0 cc e3 3e
       -0.35895374 0.10762164 0.3748159 0.44492245
000340 3b 7d ab 3e 5e fa b3 3e f7 64 92 3e 2c c7 bd 3d
       0.3349398 0.35151953 0.28592655 0.09266505
000350 2d 4d 98 bb a3 55 be bd 5c 81 ef bd 08 f7 29 be
       -0.004647872 -0.09293678 -0.11694595 -0.16598141
000360 48 42 94 bd b2 36 3d be df 91 09 be d9 8e de bd
       -0.07239205 -0.18477896 -0.13434552 -0.1086709
000370 aa 65 1f bc 7a b4 50 3d 40 d7 48 3d 00 bb 72 3d
       -0.009728828 0.050953366 0.049033403 0.05926037
000380 d1 42 d7 3d d6 b0 5c 3d 54 ca 82 3d ce 45 87 3d
       0.10510791 0.05387958 0.06386247 0.06605111
000390 32 66 69 3d 03 70 93 bc e7 c4 a1 bd fa a6 6b be
       0.056982227 -0.017997747 -0.07898884 -0.23012915
0003a0 28 b6 ab 3d 3c b2 c3 3e 33 28 98 3e b9 52 a9 3e
       0.08384353 0.3822192 0.2971817 0.33070925
0003b0 eb 81 7e 3e 2e 33 20 3e 3a 39 90 3e ee d8 b6 bc
       0.24854247 0.15644524 0.2816866 -0.022320237
0003c0 b2 52 d5 bd ac 09 ac 3d 6e 0a 1f be e7 46 da bd
       -0.104161635 0.08400282 -0.15531322 -0.10658055
0003d0 1c 56 42 bd 6f 36 66 3d 7d 48 62 bd ce bb 04 be
       -0.0474454 0.056204256 -0.05524491 -0.12962267
0003e0 a8 09 b4 bb fe 86 97 3d 59 cf a2 3d ab 9d a0 3d
       -0.005494315 0.073987946 0.07949705 0.07842573
0003f0 42 6e 87 3d a2 4a 88 3d 55 1d aa 3d 22 7e 85 3d
       0.06612827 0.0665486 0.08306376 0.065181985

arr_1 f4 [10, 256]
000000 6f ee 1c bd bc 2c 99 3c 92 5b c0 be bc bb 9d be
       -0.038313325 0.018698089 -0.37569863 -0.30807292
000010 10 8e 3e be 5c a7 93 3c 8a eb 1b bf 18 aa 97 3c
       -0.1860888 0.01802414 -0.6090628 0.018513724
000020 f1 d3 88 3a 6c 13 51 3f f9 04 99 be b2 1d 0e bd
       0.001043914 0.8167026 -0.29886606 -0.03469629
000030 7e c2 5b bd 84 ed 87 3e 80 13 2f be 6e b8 fb 3d
       -0.05365228 0.26548398 -0.17097282 0.122910365
000040 4d 84 d5 be 81 de 59 3e b3 0e 0c 3f bc 51 80 3d
       -0.417025 0.21276285 0.5470993 0.062655896
000050 dc 12 ba 3d ef 03 24 3f 31 a1 4c 3c d4 2b 34 3a
       0.090856284 0.640685 0.012489603 0.0006872986
000060 78 fe 42 be 51 3c 7a bd 4e 7b 66 bd 18 75 3e 3f
       -0.19042385 -0.06109268 -0.056269936 0.7439742
000070 9b c0 51 bd e5 ba 85 be e0 f3 15 bd 74 3d 10 bf
       -0.051209074 -0.26119152 -0.03660953 -0.5634377
000080 e2 d5 af 3d b8 e7 ae be 34 94 ad be 1e cf a8 3d
       0.08585717 -0.34161162 -0.33902133 0.082426295
000090 b8 97 8a bc 9a c3 57 3c 8e b5 8d 3e ce 4b 10 3f
       -0.016918048 0.013169194 0.27677578 0.5636567
0000a0 b1 c3 a2 bd be a6 e9 bb 6a 30 f9 bd 5d f6 2d 3f
       -0.079474814 -0.007130473 -0.121674374 0.67954046
0000b0 36 ad 6f 3e 42 67 17 3d b0 ad 78 be 34 aa b6 3d
       0.23405918 0.03696371 -0.24285007 0.089191824
0000c0 31 87 36 be 21 71 3c bf 0c 8a 5b bf 1a 54 01 be
       -0.17825009 -0.7361012 -0.8575752 -0.12629738
0000d0 cb ca 0f be e1 f1 2b 3e 3e b4 1d be 9b a4 c8 3c
       -0.14042203 0.16791488 -0.15400788 0.024492553
0000e0 60 51 91 bd ca da 4d bd 82 36 b1 3e c3 e0 4d 3f
       -0.07095599 -0.05025748 0.346119 0.80421084
0000f0 8d a1 4d bf 7b e2 df 3d 39 47 fe be e8 15 88 3e
       -0.8032463 0.109318696 -0.49663714 0.26579213
000100 16 06 60 bd 60 8f 11 be 71 42 f0 bc ca 36 58 3e
       -0.054693304 -0.1421485 -0.029328557 0.2111465
000110 d4 ec 02 3d b4 98 08 3e d5 7f 95 be 9d 07 e0 3d
       0.03196414 0.13339502 -0.2919909 0.10938952
000120 46 45 38 3f e1 be 28 3d 34 47 d5 be b8 25 a7 be
       0.719807 0.04119766 -0.41655886 -0.32645965
000130 2d dc b8 3c 20 f2 12 3f 4a a0 2f be e0 98 11 bd
       0.022565925 0.57400703 -0.17150989 -0.035546184
000140 7d 79 d5 3e d1 5f e7 be 5d b9 75 3f ad 45 b6 be
       0.4169425 -0.4519029 0.95985967 -0.35600033
000150 82 80 00 be 2c ab 78 be 0c 36 2b be a3 9c c6 be
       -0.12549022 -0.24284047 -0.16719836 -0.3879138
000160 59 1e 13 3e c3 0b 8e 3d f4 05 6f 3c b9 f4 cc 3e
       0.14367045 0.06935837 0.014588822 0.4003046
000170 6e cb 2a 3c 08 c8 71 be 8c 67 27 3c 21 aa 5f be
       0.010424478 -0.23611462 0.010217559 -0.21842243
000180 6d 22 d7 bd 66 c2 a0 3d cb 52 3c bd e5 48 f3 be
       -0.10504613 0.078495786 -0.045977395 -0.47516552
000190 16 76 96 bd ea 8d b3 3d c5 e2 fe 3e 02 af 54 be
       -0.07346742 0.08767302 0.49782386 -0.20769885
0001a0 84 a4 10 3d 79 2c 19 bf 73 38 75 3d 47 de 71 3c
       0.035313144 -0.59833485 0.059868287 0.014762468
0001b0 55 61 39 3d b1 67 13 3d c8 d5 ad bc 22 3c c5 be
       0.04525884 0.03598756 -0.021220103 -0.3852244
0001c0 f6 33 3b 3f cf 3e ba bb 2d c7 b1 be 9b d6 19 bd
       0.7312616 -0.005683757 -0.34722272 -0.03755818
0001d0 1d 31 fe 3a 2d d9 c9 be 37 97 6a bc 7f 39 c3 be
       0.0019393299 -0.39423504 -0.014318279 -0.38129804
0001e0 e1 57 6e bc 55 2f 1e 3f 8f 7f 31 bc 37 f7 43 be
       -0.014547319 0.6179097 -0.010833635 -0.19137274
0001f0 7a b6 60 3c 8a 5e 49 3c fd 53 c1 3e f0 1b 04 bf
       0.013715381 0.012290606 0.3775939 -0.5160513
000200 00 05 b8 bd 87 29 11 bd da 67 b7 bd 54 b3 af 3d
       -0.08985329 -0.035439994 -0.08955355 0.08579126
000210 f4 ae 87 bc 77 9b da 39 32 69 b3 3e 5e 60 8d bd
       -0.016562916 0.0004169603 0.35041195 -0.06903146
000220 2f 1b 58 3f b4 79 d3 be bd a8 bc 3e 50 c8 ed be
       0.8441648 -0.4130379 0.36847487 -0.4644189
000230 6b 54 53 3f a9 78 01 3f c0 05 97 bc 46 33 bd be
       0.82550687 0.5057474 -0.018435359 -0.3695318
000240 07 b5 99 37 c6 df 3a bd b0 b0 d0 3e 9c b8 9b 3e
       1.8323319e-05 -0.045623563 0.40759802 0.30414283
000250 c5 30 a0 bd d4 41 77 bc b4 72 1b be 1f 8c ab be
       -0.07821802 -0.015091378 -0.15180475 -0.3350534
000260 d6 f7 97 3d 94 1d 83 be c3 81 c1 bc 0c 47 fc bc
       0.07420318 -0.25608504 -0.023621446 -0.030795597
000270 b7 ed c9 be 57 91 8d be 95 97 4a 3f 22 73 d1 be
       -0.39439175 -0.27649948 0.79137546 -0.40908152
000280 47 a9 cd be 32 85 70 be b6 98 83 be 67 9e b2 bb
       -0.4016821 -0.2348831 -0.25702447 -0.005451012
000290 6d fe cd be b4 f1 9b be c4 25 32 be 68 6f d6 be
       -0.40233174 -0.30457842 -0.17397219 -0.4188187
0002a0 39 d4 3d bc 8b e3 f2 bb 9f 3b 55 3f fb c3 1c be
       -0.011586242 -0.007412379 0.832941 -0.15309136
0002b0 13 26 49 be b5 89 05 be 8b 36 e9 be a3 36 97 be
       -0.1964343 -0.13040812 -0.45549425 -0.29533872
0002c0 cf 57 43 3e ca 6e d3 ba 46 40 80 bd 8f 00 46 bf
       0.19076465 -0.001613104 -0.06262259 -0.773446
0002d0 68 bf ee 3e a7 d8 a2 3c e7 81 bd bc 90 0a 30 bc
       0.46630406 0.019878699 -0.023133231 -0.010744706
0002e0 f7 03 48 be c3 33 9e be 94 2f d8 be fc fe e8 3c
       -0.19532762 -0.30898866 -0.422238 0.028441899
0002f0 8f d3 2d 3d 57 a4 8b 3d 70 67 0a 3d b6 a4 ad bd
       0.042438086 0.06818455 0.033790052 -0.08478682
000300 48 e0 b1 be 72 a0 f2 3d a0 81 bd bb 44 7a 02 3f
       -0.34741426 0.11847009 -0.005783275 0.5096781
000310 dd 71 88 bd 19 69 a8 bd 18 ca 50 bc d6 a7 ca bd
       -0.06662343 -0.08223171 -0.012743495 -0.098952934
000320 23 c9 1c be fb 04 e9 3e 70 4a a0 be 86 c2 f2 be
       -0.15311103 0.45511612 -0.3130679 -0.47414035
000330 9c bb b0 be 76 65 ce 3d 58 c6 02 3f cc 5e 30 38
       -0.34518135 0.10077946 0.510839 4.2049956e-05
000340 a6 51 2d bf 44 44 24 bd 0c 20 7c 3c f5 83 bb bd
       -0.6770271 -0.040104166 0.0153885 -0.09156028
000350 de 0d 3b be 33 d9 be 3e d7 0e 68 3e c0 81 e8 bd
       -0.18267009 0.37275085 0.22661911 -0.11352873
000360 01 32 ef bc aa 76 e2 3e 1d 00 b7 bd 5f ae e9 3e
       -0.029198648 0.44231158 -0.089355685 0.45640847
000370 d7 69 ff bd 15 25 1f 3f 54 15 3e bc 2f 55 57 be
       -0.12471359 0.6216596 -0.011601765 -0.21028589
000380 8c 5f 48 be 5c e5 de bd 6c a7 22 bd 00 03 68 bd
       -0.19567698 -0.108835906 -0.039710447 -0.056643486
000390 e3 b4 62 bd cf 5f 2f 3e e3 4d 6c bf aa ad 07 3e
       -0.05534829 0.17126392 -0.92306346 0.13249841
0003a0 5d d5 e0 bc 97 40 84 bd 5a f6 39 3e 66 83 47 3d
       -0.02744549 -0.06457632 0.18160382 0.048709296
0003b0 3a bb f8 bd e2 78 86 bd 42 6b 6b 3d 28 cb d1 be
       -0.12145086 -0.06566025 0.057475336 -0.40975308
0003c0 5f 5a b2 bd 31 be da bd fc 13 61 3d 89 02 05 3e
       -0.08708643 -0.106808074 0.0549507 0.12989248
0003d0 27 de 78 be 89 ed 26 3e 0c 03 19 3d b4 0e 01 3d
       -0.24303494 0.1630155 0.03735642 0.031508163
0003e0 30 78 86 3d 79 eb 90 3e d8 fa 8d 3e b9 7b 9f 3e
       0.06565893 0.2830465 0.2773044 0.3114908
0003f0 ae 48 0e 3d 90 4c 1e 3d 04 f9 48 be 0b 46 e6 be
       0.03473728 0.038647234 -0.19626242 -0.44975314
