examples/NN_crysx_mnist_98.11_weights.npz (npz, 813562 bytes, 2 tensors)

arr_0 f4 [256, 784]
0	0x3ced5990	0.02897337
1	0x3cd4a44f	0.025957255
2	0x3bf38dfe	0.0074326983
3	0x3a82ada7	0.0009969965
4	0x3cf32034	0.029678442
5	0x3d1dd9f3	0.03853793
6	0x39a90088	0.00032234588
7	0xbbe1528d	-0.006876296
8	0x3c0f67c1	0.008752764
9	0x3d1a1ce9	0.037625227
10	0xbcc23d63	-0.023710912
11	0x3cc288f1	0.02374694
12	0xbba8cab0	-0.0051511154
13	0xba04ad19	-0.0005061194
14	0x3cf0ea6c	0.029408656
15	0x3cbbb03d	0.022911185
16	0x3bc672b8	0.006056156
17	0xbb76bc3e	-0.0037648822
18	0x3ceb6fd6	0.028739851
19	0x3b9085e3	0.004410492
20	0x3cd7ce2d	0.02634343
21	0xbcf31ecc	-0.029677771
22	0xbc22b115	-0.009929915
23	0x3cb2464f	0.021762041
24	0x3d066b68	0.032817274
25	0xbcee88b9	-0.029117929
26	0xbb3432fd	-0.0027496212
27	0x3c30d709	0.010793456
28	0x3cad067f	0.021121262
29	0xbc9bac5f	-0.019003091
30	0xbb1ccd05	-0.0023925912
31	0x3bb8c4cb	0.005638694
32	0x3c55f589	0.013059028
33	0xbb0eb3c3	-0.0021774627
34	0xbb0f7c8f	-0.002189431
35	0xbcce0f05	-0.025153646
36	0xbcfca905	-0.030842314
37	0x3d0bda57	0.034143772
38	0xbc22a5c3	-0.009927216
39	0xbc7bcfb9	-0.015369349
40	0x3d05f3ab	0.032703083
41	0x3c23b2d7	0.009991369
42	0x3b856697	0.0040710676
43	0xbcaf8c3e	-0.021429177
44	0xbcbd97c4	-0.023143657
45	0xbbca6b76	-0.006177361
46	0xbc52525f	-0.012837022
47	0x3c9763c5	0.018480191
48	0xb8f81f6c	-0.00011831414
49	0xbcd6fd29	-0.026243763
50	0x3c709891	0.014684812
51	0x3c404eed	0.011737567
52	0xbb90359c	-0.004400922
53	0x3c397c2b	0.011321108
54	0xbad042b3	-0.0015889019
55	0xbbe86c02	-0.0070929537
56	0x3cd65f3d	0.02616846
57	0x3ce640e9	0.028107123
58	0xbce52b8d	-0.027974868
59	0x3c95fdd1	0.018309506
60	0x3ce6c3c9	0.02816953
61	0xbc87bba8	-0.016568974
62	0x3c21cad5	0.009875019
63	0xbb1e01b1	-0.0024109895
64	0x3c6b9ce5	0.014380668
65	0xbcc668b1	-0.024219843
66	0x3d00263d	0.031286467
67	0x3cebe8da	0.028797556
68	0x3c8ab1e0	0.01693052
69	0xbc9f7f9d	-0.01947003
70	0x3d261069	0.040542994
71	0xbc352ab6	-0.011057546
72	0xbd34c06d	-0.044128824
73	0x3b66533b	0.0035144824
74	0xbc00a75c	-0.007852402
75	0xbc8b2d5a	-0.016989399
76	0xbce3ffe9	-0.027831988
77	0x3b523bd3	0.0032079115
78	0x3b9b3f46	0.0047377674
79	0x3cdd73c3	0.027032739
80	0xbcc097a5	-0.02350981
81	0x3bf84846	0.007576975
82	0x3b206922	0.0024476727
83	0x3aa0bbb3	0.001226297
84	0x3cf0dbe2	0.029401723
85	0xbc31343f	-0.010815679
86	0xbcd5104b	-0.026008746
87	0xbcd53f11	-0.026031049
88	0x3aa21218	0.0012365011
89	0x3bfc7116	0.0077039106
90	0xbcee59bb	-0.029095521
91	0xbbfad116	-0.0076543195
92	0xbc7fe855	-0.015619357
93	0x3ae24597	0.0017263171
94	0x3b32b616	0.0027269176
95	0x3ce3fdec	0.02783104
96	0x3d19d2fb	0.037554722
97	0x3c788694	0.015168805
98	0x3cf30d0e	0.02966931
99	0x3c8802c4	0.016602881
100	0x3d38f455	0.04515489
101	0xbcc0eb6b	-0.023549756
102	0x3d0f3323	0.034960877
103	0xbca00022	-0.019531313
104	0xbd082658	-0.033239692
105	0x3cf10038	0.02941905
106	0x3c8c04a9	0.017092066
107	0x3c534b80	0.012896419
108	0x3c135990	0.008993521
109	0x3c613c9a	0.013747359
110	0xbc43e5fd	-0.011956689
111	0x3cb928e5	0.022602508
112	0x3d0df928	0.034661442
113	0x3a5e0925	0.00084699906
114	0x3bb5ae90	0.005544491
115	0x3cd44ccb	0.025915524
116	0xba465da1	-0.00075670524
117	0x3ac07d58	0.0014685793
118	0xbbc97bb9	-0.006148782
119	0x3cb9b8f4	0.0226712
120	0xbd072ffb	-0.033004742
121	0x3d03cafd	0.032176007
122	0x3d003e19	0.03130922
123	0xbc188801	-0.00930977
124	0x3c8a1a7b	0.01685833
125	0x3d9bde06	0.07610707
126	0x3d86f827	0.065903
127	0x3ce65776	0.028117876
128	0x3a6b235a	0.00089698064
129	0xbb6c72b9	-0.0036079122
130	0xbcface9f	-0.030616103
131	0x3c07ab6c	0.008280616
132	0x3cd106f6	0.025516015
133	0xbc27e2be	-0.010246931
134	0xbbdb6ab6	-0.0066960705
135	0xbc39ed21	-0.01134804
136	0x3c8ea0a9	0.017410593
137	0xbcfab5a1	-0.030604186
138	0x3c4abc79	0.012374037
139	0x3cbc3a53	0.02297703
140	0x3d113cdf	0.03545844
141	0xbcc8345d	-0.024439031
142	0x3cdbe262	0.026841346
143	0xbc88768b	-0.016658088
144	0xbcfcca15	-0.030858079
145	0x39db54b6	0.0004183405
146	0x3c93a8f6	0.018024903
147	0x3c9895e8	0.018626168
148	0x3c4ed116	0.012623092
149	0x3cdac9c3	0.026707536
150	0x3d5d8fa0	0.05409205
151	0x3bd8c138	0.0066148303
152	0xbb8ba331	-0.0042613973
153	0x3d8749d6	0.0660588
154	0x3da51707	0.08061033
155	0x3d24bfc8	0.04022196
156	0x3c871243	0.0164882
157	0x3c4fa481	0.012673498
158	0xbca30448	-0.019899502
159	0xbbd3d22f	-0.006464265
160	0xbb9eddc5	-0.0048482143
161	0xbc55eaad	-0.013056439
162	0xbcd5561a	-0.026042033
163	0x3cc80c88	0.024420038
164	0xbc6a269e	-0.014291434
165	0x3cce4c8b	0.025182983
166	0xbc8913a9	-0.016733008
167	0xb92c277e	-0.0001641791
168	0xbd01c9f3	-0.031686734
169	0x3c5ebc7b	0.013594742
170	0x3d10c8fe	0.03534793
171	0xbbdc9983	-0.006732167
172	0xbb81284d	-0.003941572
173	0xbccd275f	-0.025043188
174	0x3bd990d0	0.0066395774
175	0x3cc4becd	0.024016762
176	0x3c0b4d1d	0.008502272
177	0xbc7c5b6b	-0.015402655
178	0x3c427e86	0.011870986
179	0xbd19ee92	-0.037581034
180	0x3cb18808	0.02167131
181	0x3d6a200c	0.05715947
182	0x3c93c72a	0.018039305
183	0x3d794948	0.060860902
184	0xbbcb877f	-0.0062112208
185	0xbd282650	-0.041052163
186	0xbcda27e4	-0.02663035
187	0xbc812d93	-0.015768802
188	0xbcd987ae	-0.026553955
189	0x3cb5736c	0.022149764
190	0xbcf20cff	-0.029547213
191	0xbd34b662	-0.044119246
192	0xbcb578f6	-0.022152405
193	0x3c9169aa	0.01775058
194	0x3b9b7236	0.0047438396
195	0x3ccbc989	0.024876373
196	0xbc499bd3	-0.012305218
197	0xbc5d3086	-0.013500338
198	0xbb9b57e5	-0.0047407025
199	0xbd026101	-0.03183079
200	0x3cc370d2	0.023857508
201	0x3caea6d4	0.021319784
202	0x3c5fd1de	0.013660876
203	0xbcfa1881	-0.030529262
204	0xbc787f65	-0.015167092
205	0x3bbe3f0a	0.0058058547
206	0xbd2e08f8	-0.042489022
207	0xbd4b987e	-0.049705975
208	0xbb26c749	-0.0025448373
209	0xbd262327	-0.040560868
210	0x3c4b8f25	0.012424265
211	0x3d2a750f	0.041615542
212	0x3c51a46f	0.012795552
213	0xbcba7890	-0.022762567
214	0xbce55f90	-0.02799967
215	0xba129100	-0.00055910647
216	0xbc25481e	-0.010087995
217	0xbaf5a77a	-0.0018741929
218	0xbd1ce8b6	-0.038307868
219	0x3cdca7b5	0.026935438
220	0xbba85e13	-0.0051381676
221	0x3bdc1a9b	0.006717039
222	0xbcf18e84	-0.029486902
223	0x3b7750df	0.0037737412
224	0xbcede177	-0.029038174
225	0xbce109ab	-0.02747043
226	0xbc551ac1	-0.013006867
227	0x3d00d1f6	0.031450234
228	0x3cbc9940	0.023022294
229	0x3cc88d47	0.024481429
230	0xbcb17c7e	-0.021665808
231	0xbc903000	-0.017601013
232	0xbd063aa5	-0.03277077
233	0xbbcb36fd	-0.0062016235
234	0xb9866f2a	-0.00025641295
235	0xbd27c2c3	-0.040957224
236	0xbd815451	-0.0631491
237	0xbd1f7aaa	-0.03893534
238	0xbc1a8b9f	-0.009432702
239	0x3c6e5b8b	0.014548193
240	0x3d564a1a	0.052316763
241	0xbd0c93d6	-0.034320675
242	0x3c1d54e1	0.009602756
243	0xbca5a75a	-0.020221401
244	0xbd756788	-0.05991319
245	0xbd6b9148	-0.057511598
246	0xbcab6ec6	-0.020926844
247	0x3d0b8d46	0.034070276
248	0xbc3cdacc	-0.011526775
249	0x3cb85071	0.022499295
250	0x3cccc65d	0.02499693
251	0xbb8c79b6	-0.00428697
252	0xbc3b1d8b	-0.011420618
253	0x3c084922	0.0083182175
254	0x3ae6b013	0.0017600082
255	0x3ccf8829	0.02533348

arr_1 f4 [10, 256]
0	0xbe15f745	-0.14645107
1	0x3f1e48ed	0.61830026
2	0xbe3aa144	-0.1822558
3	0xbee21a2d	-0.44160596
4	0xbe181c22	-0.14854482
5	0x3ccad422	0.024759356
6	0x3bb6b022	0.005575196
7	0xbf1e2912	-0.6178142
8	0xbd2caf4d	-0.042159367
9	0x3f6c4024	0.9228537
10	0xbe9cecec	-0.30649507
11	0xbd4bbb5d	-0.04973923
12	0xbd1f2dbe	-0.038861983
13	0xbca588d6	-0.02020685
14	0x3f4fef8e	0.81224906
15	0xbf323a6a	-0.6962038
16	0xbe19cf48	-0.15020478
17	0xbf491886	-0.78553045
18	0xbcec5e6f	-0.028853623
19	0x3c43194d	0.011907888
20	0xbbaec667	-0.00533371
21	0xbe598018	-0.2124027
22	0xbeff93c7	-0.49917433
23	0x3d7ae85b	0.061256748
24	0x3e022f7e	0.1271343
25	0xbc03b614	-0.008039016
26	0x3e6172fd	0.22016521
27	0xbdd139b8	-0.10216087
28	0xbec19432	-0.37808377
29	0xbed9d713	-0.425469
30	0x3e98f8f7	0.29877445
31	0xbd9bc258	-0.076054275
32	0xbd147605	-0.036245365
33	0xbe5fa2b1	-0.21839406
34	0x3dc2ce8d	0.09512053
35	0x3ed30503	0.4121476
36	0xbe273f48	-0.16332734
37	0xbe012248	-0.12610734
38	0xbd3e7c11	-0.046505038
39	0xbe941f3e	-0.28930086
40	0xbcb248a9	-0.021763163
41	0xbd2130d8	-0.03935322
42	0x3e3726d3	0.17885904
43	0xbd38dfdd	-0.045135368
44	0x3da3cfa4	0.07998589
45	0xba3cdb0d	-0.0007204272
46	0xbdd84597	-0.10560148
47	0xbbb37c1f	-0.005477443
48	0xbd8ca7f7	-0.06867974
49	0x3e1c693b	0.15274517
50	0x3cdfa0c4	0.027298339
51	0xbd97fb9d	-0.07421038
52	0xbd5140bf	-0.051087137
53	0xbe125a41	-0.14292242
54	0xbd3b5465	-0.04573478
55	0xbdf81061	-0.12112499
56	0x3f1d9ca7	0.6156716
57	0xbe0f128a	-0.13971916
58	0xbe77a894	-0.24185401
59	0x3c1cde68	0.00957451
60	0x3d96ad5d	0.07357285
61	0xbc80c712	-0.015719924
62	0xbd39f7ab	-0.04540221
63	0xbf13c05b	-0.57715386
64	0x3e3e72e1	0.1859851
65	0x3f226a0a	0.6344305
66	0xbdf5e385	-0.120062865
67	0xbda83064	-0.08212355
68	0xbd8061e5	-0.06268672
69	0x3da66549	0.08124787
70	0x3ea55bfb	0.32296738
71	0x3ea7b765	0.32757106
72	0xbea9d36c	-0.33169115
73	0x3b3c4d48	0.0028732587
74	0xbeb2867b	-0.34868225
75	0xbd981159	-0.07425184
76	0x3d837597	0.06418913
77	0x3a1441e7	0.0005655572
78	0x3e47159c	0.19441837
79	0x3f7f536c	0.99736667
80	0xbd972486	-0.07380013
81	0xbe02f578	-0.12788951
82	0xbf039af0	-0.5140829
83	0xbca8e948	-0.02061905
84	0xbe8aa451	-0.27078488
85	0xbe0ae6ae	-0.1356456
86	0x3e856330	0.26052237
87	0xbeaffe25	-0.34373584
88	0xbe332b59	-0.17497005
89	0xbe29e6fc	-0.1659202
90	0x3f0c9a1b	0.54922646
91	0x3f53521b	0.8254716
92	0xbd860579	-0.065440126
93	0xbe063327	-0.1310545
94	0xbec3fc5e	-0.38278478
95	0x3f39e7c1	0.72619253
96	0xbf2f5556	-0.6848959
97	0x3e502e16	0.2033008
98	0xbee3a9ba	-0.4446543
99	0xbe9048bc	-0.28180492
100	0xbf07f191	-0.53102976
101	0x3deba759	0.115065284
102	0xbd3b1c02	-0.045681007
103	0xbe81e2e2	-0.2536841
104	0xbe3f2bff	-0.18669127
105	0x3c0dcc2c	0.008654635
106	0xbe4e6091	-0.20154025
107	0xbebec30f	-0.37258193
108	0x3d61282c	0.05496995
109	0x3d855049	0.06509454
110	0x3e146018	0.14489782
111	0xbedfacdd	-0.43686572
112	0xbd45a8c4	-0.04825665
113	0x3ed29b09	0.41133907
114	0xbd8e04b0	-0.06934488
115	0xbe0c696a	-0.13712087
116	0x3e8a648d	0.2702984
117	0x3ee60462	0.4492522
118	0xbcf2854f	-0.029604582
119	0xbdd154fe	-0.10221289
120	0x3f484765	0.7823394
121	0xbcd93d1a	-0.026518393
122	0x3f405654	0.75131726
123	0xbdf4b288	-0.11948115
124	0x3ef2c4e5	0.47415844
125	0x3f2f87a0	0.6856632
126	0xbde42803	-0.11140444
127	0x3ec0b726	0.3763973
128	0x3f6fe102	0.9370271
129	0xbf045e8f	-0.51706785
130	0xbdc441a9	-0.09582836
131	0x3d3000b3	0.042969417
132	0xbe723aab	-0.23655193
133	0xbeb91b03	-0.3615342
134	0xbd3f5f68	-0.046721846
135	0xbd858075	-0.06518642
136	0xbe95d1ed	-0.29261723
137	0x3e2eafac	0.17059201
138	0xbe65a048	-0.22424424
139	0xbe6e2e55	-0.23259862
140	0xbe4d2d4d	-0.20036812
141	0x3e9947d5	0.29937616
142	0xbedb30a7	-0.42810556
143	0x3c97a5b7	0.018511636
144	0xbe941e68	-0.28929448
145	0x3f288092	0.6582118
146	0xbd89b8e4	-0.06724718
147	0xbe4b149f	-0.19832085
148	0xbd1f80f3	-0.038941335
149	0xbcbc76cf	-0.023005871
150	0x3e6d1352	0.23151901
151	0xbde98373	-0.11402025
152	0xbd2e8625	-0.0426084
153	0xbe59d9a7	-0.21274434
154	0x3b469b10	0.0030304827
155	0xbd44fb21	-0.048091058
156	0xbf457d3f	-0.77144235
157	0x3e841fa5	0.25805393
158	0xbe6827bb	-0.22671406
159	0xbd92261a	-0.071361735
160	0x3d942adf	0.072347395
161	0xbe141d5a	-0.14464322
162	0x3ca93821	0.020656647
163	0x3ce90b12	0.028447662
164	0xbda1a89a	-0.07893486
165	0xbc37666f	-0.011193856
166	0xbc0b8998	-0.008516692
167	0x3ea302dc	0.3183812
168	0xbe5c4fbf	-0.21514796
169	0x3d14032f	0.03613585
170	0xbed2b83d	-0.41156188
171	0x3f0f1cfc	0.559036
172	0x3f2520a3	0.64502925
173	0xbeab4f81	-0.33459094
174	0xbea2f192	-0.3182493
175	0xbf5d7992	-0.86513627
176	0xbea3fb5c	-0.3202771
177	0xbd7f4d2f	-0.062329467
178	0xbd884487	-0.066536956
179	0x3d9fcb85	0.0780249
180	0xbdd1285b	-0.10212775
181	0xbf1d04d1	-0.61335474
182	0x3e19bab6	0.15012631
183	0x3dad7ce6	0.08471088
184	0xbe444362	-0.1916633
185	0xbe0e1bfb	-0.13877861
186	0xbe48ff75	-0.19628699
187	0x3f4171ea	0.75564444
188	0x3e3b3a33	0.1828392
189	0x3c80e7fd	0.01573562
190	0x3d5be431	0.053684417
191	0xbe6d9032	-0.23199537
192	0xbbab3f0f	-0.005226023
193	0xbee01016	-0.43762273
194	0x3ee490fa	0.44641858
195	0x3c719a27	0.014746225
196	0x3d82efec	0.06393418
197	0xbeb4cb48	-0.3531134
198	0x3dfec67a	0.124402
199	0xbecfd781	-0.40594104
200	0xbe5f9705	-0.21834953
201	0x3e98061d	0.29692164
202	0x3e276c3e	0.16349885
203	0x3f389109	0.72096306
204	0xbb3c0363	-0.0028688542
205	0x3f883fb9	1.0644447
206	0x3d53999e	0.051660173
207	0xbe06293f	-0.13101672
208	0x3e0b964e	0.13631555
209	0xbe20dc36	-0.15709004
210	0xbe5b7ba7	-0.21433888
211	0xbe88483f	-0.2661762
212	0xbd85887d	-0.06520174
213	0x3d3e4957	0.04645666
214	0x3e9c8750	0.30571985
215	0xbf351ce7	-0.70747226
216	0x3ca8b7c2	0.020595435
217	0xbed63f10	-0.41844988
218	0xbec5a5c2	-0.38603026
219	0xbd99130d	-0.07474337
220	0x3be1c0c2	0.0068894336
221	0xbda1f27a	-0.07907577
222	0x3dd83469	0.105568714
223	0x3e2908d0	0.16507268
224	0xbca4a9fb	-0.020100584
225	0x3d417d08	0.04723838
226	0x3e7f05d4	0.24904567
227	0x3dc7afb0	0.097503066
228	0x3dc1eb1b	0.09468671
229	0xbd38039b	-0.044925313
230	0x3e98fdb2	0.29881054
231	0xbec84720	-0.39116764
232	0xbd9ada84	-0.0756121
233	0xbf39c4db	-0.72566
234	0x3ec37e1d	0.38182154
235	0xbea5732f	-0.3231444
236	0xbd073e8c	-0.033018634
237	0x3daf136c	0.08548626
238	0x3e956b08	0.2918322
239	0x3cb2146b	0.021738252
240	0xbd084626	-0.033270024
241	0xbd5d4135	-0.054017264
242	0x3eb0bc3e	0.34518617
243	0xbf1072d8	-0.5642524
244	0x3f3c032e	0.7344235
245	0x3d1c3eca	0.038145818
246	0xbf26d251	-0.6516467
247	0xbd07968b	-0.033102553
248	0xbe054f58	-0.13018548
249	0xbe1fa508	-0.15590298
250	0x3f0df4a2	0.55451405
251	0x3eb12228	0.34596372
252	0x3e17f7ab	0.14840572
253	0x3bdd4db8	0.0067536496
254	0x3e2e9f3b	0.17052929
255	0x3e188dd3	0.14897852
