examples/NN_crysx_microstructure_96_biases_cupy.npz (npz, 2522 bytes, 2 tensors)

arr_0 f4 [500]
0	0xbcd43b45	-0.025907168
1	0xbc41037f	-0.011780619
2	0xbc895712	-0.016765151
3	0x3b2bfff7	0.0026245096
4	0xbc2aad9f	-0.010417371
5	0xbbe35817	-0.0069379914
6	0x3a09b962	0.00052537594
7	0xbc98ac35	-0.018636802
8	0xbc441f9b	-0.011970426
9	0xbb36525c	-0.0027820086
10	0x3b287fab	0.0025710862
11	0xbc9cf1e5	-0.019158313
12	0xba5fbeae	-0.00085351884
13	0xbc2ba6c3	-0.010476771
14	0x3a17c581	0.0005789623
15	0xbcfcb2bd	-0.030846948
16	0xbccfe17c	-0.025376074
17	0xbc0235be	-0.007947383
18	0xbb7e7173	-0.0038824945
19	0x3a755f53	0.0009360213
20	0xbc3422be	-0.010994611
21	0xbb47f5f7	-0.0030511597
22	0x3b3f4b11	0.002918903
23	0xbb2cd9e2	-0.0026374985
24	0xbca72113	-0.020401513
25	0x3a01701d	0.00049376657
26	0xbbcf6dc0	-0.006330222
27	0xbbae0aa8	-0.005311329
28	0x3aaff57e	0.0013424603
29	0xbaee27a6	-0.0018169775
30	0x3b53b908	0.0032306332
31	0xbc85b8c5	-0.016323457
32	0x3ae7b4e3	0.001767781
33	0x3adc69f7	0.0016816248
34	0x3ad8805e	0.0016517749
35	0xbc0f8655	-0.008760055
36	0xbc95bca9	-0.018278437
37	0xb8e9379d	-0.000111206646
38	0xbc412dbe	-0.011790691
39	0xbc294bea	-0.010333041
40	0xbc22d1ba	-0.009937698
41	0xbc85ae67	-0.016318513
42	0x3b0fa8d7	0.0021920705
43	0x3aed4dfa	0.0018104904
44	0xb8085220	-3.250141e-05
45	0x3aaa5c6b	0.0012997513
46	0xbb34242d	-0.0027487383
47	0x3aa01474	0.0012213127
48	0x3b39b9ac	0.0028339429
49	0xbacb2072	-0.001549734
50	0xbc11f0c6	-0.0089075025
51	0xbb8c13cc	-0.004274821
52	0xbc306810	-0.010766998
53	0xbca6e022	-0.020370547
54	0x3ab708f2	0.0013964458
55	0xba9b2d13	-0.0011838995
56	0xba189a1b	-0.00058213033
57	0xbbfd4dcb	-0.007730221
58	0xbb077069	-0.0020666367
59	0x3b17705a	0.0023107738
60	0xbbcf32d9	-0.0063232
61	0xbbde50f9	-0.006784555
62	0x3b541baf	0.0032365134
63	0xbab65ca6	-0.001391311
64	0x3a27d19c	0.00064017787
65	0x3a79bc2e	0.0009526637
66	0x38284d94	4.012657e-05
67	0xbb0fba1b	-0.0021930996
68	0x3b3916dc	0.0028242385
69	0xb70e984e	-8.499321e-06
70	0xbc76bd1e	-0.0150597375
71	0xbcdcdc90	-0.026960641
72	0x3ae8c612	0.0017759225
73	0xbb4a8340	-0.0030900985
74	0xbbc71254	-0.006075183
75	0x3b2a305a	0.0025968761
76	0xba0f273c	-0.00054608635
77	0x3ad47c71	0.0016211403
78	0x3a774a1e	0.00094333466
79	0xbcd1046f	-0.02551481
80	0xbc2bf505	-0.010495429
81	0x3a10809d	0.0005512329
82	0x3a8aec2f	0.0010598953
83	0xb9b3c921	-0.00034291393
84	0x3ae10bb1	0.0017169622
85	0xba0b5b1c	-0.00053160056
86	0xbac859f5	-0.0015285598
87	0xbc897870	-0.016781062
88	0x39b136d8	0.00033800933
89	0xbbccea60	-0.0062535256
90	0x3ae79aed	0.0017670073
91	0x3b354e45	0.002766506
92	0x3a27b455	0.0006397416
93	0xbae774c1	-0.0017658697
94	0x3afaefa7	0.0019144908
95	0xbc23df1c	-0.010001924
96	0xbb430655	-0.0029758413
97	0xbb8d31bf	-0.0043089087
98	0x3b1acc6b	0.0023620378
99	0xbba2f864	-0.004973458
100	0xbb81bc4f	-0.0039592157
101	0xbc1c94be	-0.009556947
102	0xbbdd0214	-0.0067446325
103	0x3ad21c22	0.0016030113
104	0xba0e1d6b	-0.0005421254
105	0x3b6be399	0.0035993813
106	0xbc912b7c	-0.01772093
107	0xbbfa96f6	-0.0076473905
108	0xbbce1319	-0.0062888977
109	0xbb0b1a7a	-0.0021225498
110	0x3a715c1a	0.00092071446
111	0x3b0dd28b	0.0021640386
112	0xbb853d55	-0.0040661492
113	0x39fda5fd	0.0004837959
114	0x3a0d73af	0.00053959613
115	0xbbe358ad	-0.006938061
116	0xbc493068	-0.012279607
117	0xbcb4afdf	-0.022056518
118	0xbc1dbebd	-0.009627995
119	0xbb64090d	-0.0034795434
120	0x3b41f7b3	0.0029597103
121	0xbc87323e	-0.01650345
122	0xba75b154	-0.0009372432
123	0x3a7a5235	0.0009548993
124	0xbcdd87f3	-0.027042365
125	0xbbd03e45	-0.0063550794
126	0x3b6d1283	0.0036174364
127	0x3b08e5e1	0.0020888972
128	0xbb56950f	-0.0032742654
129	0xbb87f259	-0.004148763
130	0xbb2c62d2	-0.0026304019
131	0xbc875419	-0.016519593
132	0x3ac24d49	0.0014824058
133	0xbb36f9de	-0.0027919929
134	0xbc81024c	-0.015748166
135	0xbc840fbf	-0.01612079
136	0xbbc13fb7	-0.005897488
137	0x37fd1a7e	3.0172287e-05
138	0xbb7b0885	-0.0038304639
139	0xba984325	-0.001161669
140	0xbc611096	-0.013736865
141	0xbc861398	-0.016366765
142	0xba8a1213	-0.0010533951
143	0xbd0397af	-0.03212708
144	0xbbc958c5	-0.0061446154
145	0xbcacaf21	-0.021079602
146	0x3a5ee17b	0.0008502227
147	0xbc96e0de	-0.018417772
148	0xbb2d2cc8	-0.0026424397
149	0x3a15f19a	0.00057199004
150	0x3b005dff	0.0019587276
151	0xbc3b0278	-0.011414163
152	0x3b4c2bc3	0.0031154014
153	0xbb41b927	-0.0029559822
154	0xbc3193c0	-0.010838449
155	0x39af264b	0.00033407132
156	0xbbed27f1	-0.0072374274
157	0x3a109ad4	0.0005516235
158	0x39d9d176	0.00041545526
159	0xbaafcbc8	-0.0013412172
160	0xbb97ac06	-0.004628661
161	0x3b1840c7	0.002323197
162	0x3b1b60f9	0.0023708923
163	0xbc569f69	-0.01309953
164	0x3b403a97	0.0029331797
165	0xbcb272b1	-0.021783205
166	0x3ad1245c	0.001595627
167	0x3a7b2448	0.00095802965
168	0xbbce77bf	-0.006300896
169	0x3b097ab4	0.0020977678
170	0xbc4048c6	-0.011736101
171	0x3acbdd6f	0.0015553663
172	0xb9923a11	-0.00027890553
173	0x3b0ec0ec	0.002178247
174	0xbc758c7f	-0.01498711
175	0xbc81f2cd	-0.015862847
176	0xbb864f9f	-0.004098847
177	0x3a030ed1	0.0004999461
178	0xbc15da90	-0.009146348
179	0x387357fd	5.801766e-05
180	0xbb2144bd	-0.0024607622
181	0xbc72bcc6	-0.014815515
182	0x3b03a68a	0.0020088279
183	0xbba4e9dc	-0.005032761
184	0xbcb4253d	-0.021990413
185	0xb9aaee5b	-0.00032602515
186	0xbc28e1fe	-0.010307787
187	0x3ab4a408	0.0013781795
188	0xbca467f6	-0.020069104
189	0xbc2b6a51	-0.0104623595
190	0x3ada7650	0.001666734
191	0xba4dc7db	-0.000784991
192	0x3adb21b1	0.0016718415
193	0xbbf18ac9	-0.007371281
194	0xbce78608	-0.028262153
195	0xbb1f3ba4	-0.0024297023
196	0x3a51360e	0.0007980772
197	0xbbd90a5f	-0.006623551
198	0xbb7eb09f	-0.0038862599
199	0xbbe14924	-0.006875174
200	0xbcb11921	-0.021618428
201	0xbc2265b8	-0.009911947
202	0xbc0ed657	-0.008718095
203	0xbb3b7258	-0.002860209
204	0xbb17bd11	-0.0023153464
205	0xbafb48c5	-0.0019171467
206	0xba326099	-0.00068045553
207	0xbc6f701e	-0.014614133
208	0xbb5a3464	-0.0033295387
209	0x3b060047	0.0020446943
210	0xbc498931	-0.012300775
211	0xbb7a38e2	-0.0038180877
212	0x3a478679	0.00076112855
213	0x3a88b2c6	0.0010429255
214	0xbb3a6a6d	-0.0028444782
215	0xbb9bcbb0	-0.004754506
216	0x3aba663e	0.0014221144
217	0xba4fb6e5	-0.0007923677
218	0xba5d2432	-0.00084358745
219	0xb8d8d084	-0.00010338522
220	0x39656550	0.00021876884
221	0xbb65f569	-0.0035088903
222	0xbcb6dbd9	-0.022321628
223	0x3b190058	0.0023346152
224	0xbbf5c96c	-0.007500818
225	0x3af849a2	0.0018942843
226	0xbbdc75cd	-0.00672791
227	0xbb8fb9a8	-0.0043861456
228	0x39c9fb35	0.0003852487
229	0xbc3cbbd0	-0.011519387
230	0xbc8d64a6	-0.017259907
231	0xbb4b471c	-0.0031017726
232	0xb8aecfe4	-8.335689e-05
233	0xba501977	-0.0007938365
234	0xbb4e8bf3	-0.0031516522
235	0xbb97c0f4	-0.004631156
236	0xbbc38872	-0.0059671933
237	0xbc3ff632	-0.011716412
238	0xbaeb58cb	-0.001795554
239	0xbc2dffd4	-0.010620076
240	0x3920e833	0.0001534529
241	0xb9a375ab	-0.00031177452
242	0xbc1ba5d8	-0.009499989
243	0xbce3ae4d	-0.027793074
244	0xbc707dae	-0.014678402
245	0xba932aa1	-0.0011227914
246	0x3ae313f6	0.0017324674
247	0x3a3f9d51	0.0007309514
248	0xbb382331	-0.0028097148
249	0x37b65720	2.1736661e-05
250	0xbcdaaf07	-0.026694788
251	0x3b39f368	0.0028373841
252	0xbafc9240	-0.001926966
253	0xbc6f309c	-0.014598992
254	0xbb289766	-0.0025725006
255	0xbbca8732	-0.0061806673

arr_1 f4 [4]
0	0x3dccbff4	0.0999755
1	0xbe4dc2d9	-0.2009386
2	0xbd6c5cfe	-0.05770587
3	0x3e227a32	0.15866926
