examples/NN_crysx_mnist_98.11_weights.npz (npz, 813562 bytes, 2 tensors)

arr_0 f4 [256, 784]
00000000: 5ebc f13c 2f54 a23b 2aa8 9a3c ea4c 92bc
00000010: d49c 0cbd 7a0a 92bc 0a7f 993c fbd0 423c
00000020: 3b47 423c 9753 7fbc b4ec b9bc dd5f 783c
00000030: 97ef 213c b06b b6bc bf4f 123b 92f4 943c
00000040: 1cba a3bc a63a f7bc 8651 e93c 8843 f1bc
00000050: 451d c6bb ae6c 863c 3f10 55bc 1eab 853c
00000060: cc9e 033d 1e15 ebbc 35b8 bbbb 1772 993b
00000070: 1c11 8abc f2af f13c 2702 813c 4f27 2cbc
00000080: 8cb6 903c 58a6 9a3c 5060 6d3b d3bf 1dbb
00000090: 74c1 d83c 0b25 08bd c8ec fc3b 2ce9 61bc
000000a0: b2c2 21bd ba39 17bd 6fb9 52bc f1d8 64bc
000000b0: 4afd ce3c 352e 0ebd 869e a83c ebc1 dc3c
000000c0: d551 723c 27ca 23bc 6221 f4bc d3fe 04bc
000000d0: dd24 0e3c cbbd 7dbc e3cc 6ebb 9603 ff3c
000000e0: d2a2 dabc b30a 453b c1e1 723b 5ea8 e53c
000000f0: fd05 1cbc fb60 0dbd 4760 9abc 323e e0bc
00000100: b6f2 0fbd f93c 043d 0149 9dbb cfe5 14bd
00000110: 0b5d 9d3b 052b 26bd 7736 5e3b 8548 1ebd
00000120: 68de 8d3b 9276 843c 1f24 f03b 196f d53c
00000130: 52d8 2ebb f45a a4bc d302 053c db9e d2bc
00000140: c95c 253c c6dc f1bc f22c ea3c 72d1 c2bc
00000150: b8d5 b53c b545 36bc 631a 0dbc 699a 7ebc
00000160: 32df ff3c ee38 ae3c 1877 3cbc 796f ef3c
00000170: 01c1 293b 7b30 dcbb 3a78 09bd 8792 d33b
00000180: 9291 d8bc 6201 10bd d5f1 93bc e4ac 0abd
00000190: b429 02bd 6a02 9cbc 3fc5 753c 2553 ba3c
000001a0: e154 1fbc a0b6 10bd 6d1f 553b 038b 1abd
000001b0: e023 943c 01b9 14bc b61f acbc 90a6 f6bc
000001c0: 3541 73bc 435a 3abc 04e6 8d3c 5383 f13b
000001d0: e431 c53b 785e c2b9 a555 b33b 6f22 31bc
000001e0: 6dba 923c 7a31 d53c c0e0 3bbd bea1 a33c
000001f0: 50d8 07bc 936d d9bd 6e74 08be 79cd abbd
00000200: 5558 63bd ed1d 08bd d0b6 3bbd 30dc 88bc
00000210: 5f00 323c 31a0 3e3c 0f92 b2bb 3f67 63bc
00000220: ccff b3bb 8c25 eb3c b1f2 7e3c cf87 7b3b
00000230: be27 dc3c d721 2bbc f897 ad3c 7d14 c43b
00000240: 93fa a93c f7f8 a8bc 0f73 94bc 5f5e 053d
00000250: 2473 453b 8c4d 683c 5cda ed3c 7843 10bc
00000260: 136e 19bd 7cef 71bd a42f 68bd f34b babd
00000270: 3673 f7bd e795 8bbd 3825 21bd 56d0 4f3c
00000280: 8daa d53c e4f4 d3bc 0f2a 9a3b caee f53c
00000290: bca9 9bbc 6391 15bd d689 ce3c 1d24 3ebc
000002a0: abe9 9bba 8282 bc3c 8660 92ba d38a 043d
000002b0: bcd1 c9bc 7b0e 863c 675b c43c a31f 683d
000002c0: 1c06 413c 794a 903d 218f c23c 81ef 1f3b
000002d0: 15a5 853c 290e 8dbc f52c 14bd a932 babc
000002e0: eb01 95bd 417a c0bc d889 02bd 6bbd 36bc
000002f0: cf0d 3fbd 2c53 52bc 616a 4a3c c0c0 f9bb
00000300: 4fb8 a23a 3b96 a83c 4855 35bc c4b9 74bc
00000310: 8747 aabb becc 8abc 68b0 5d3c 4491 fc3c
00000320: 2f12 92bc 7a16 583c 1fdb 003d dae3 3a3d
00000330: 0e7b 2c3d a80b d23c 8f13 b7bc f54a 713c
00000340: 6b82 123b f7ef c73d 78f6 bebc ff41 98bc
00000350: 0369 53bd 0b9b a4bd f95f b1bd 1ae1 77bd
00000360: 831f 18bd c78f c8ba 76f2 fbbc 27ff 32bd
00000370: b9f4 06bc 2d7a 4bbc 9fe9 c2bb 40d7 77bc
00000380: c752 f5bb 6b11 fc3c 244b 9ebc 856d fa3c
00000390: 1d41 da3b 1170 b13c bd00 adbb 2573 943c
000003a0: 097d 393d a1da 4abc 933f 183d 94f1 363d
000003b0: 5c3c 8c3d e1c9 1a3d 8fac 25bc 980a 79bd
000003c0: 3ead bbbd 2e6c 87bd 246b 7abd ae20 91bd
000003d0: a3be 65bd 8e98 6dbd ebae df3a 8c6d 31bd
000003e0: f132 133b 5d05 dfbb 9a66 13bd 303c 22bc
000003f0: fc79 bcbc 78ed b33c e298 cf3c 5b4e dabc
0.029508766 0.004953883 0.018879015 -0.017858941 -0.03432925 -0.017827261 0.018737335 0.011890645
0.011857803 -0.015583894 -0.022695877 0.015159574 0.009883783 -0.022268146 0.0022325364 0.018183026
-0.019986205 -0.030179333 0.028481256 -0.029451147 -0.0060459697 0.016409244 -0.013004362 0.016316947
0.032133862 -0.028696593 -0.0057287463 0.00468279 -0.016853862 0.029502843 0.015748097 -0.010507419
0.01766517 0.018878147 0.0036220737 -0.0024070635 0.026459433 -0.033238452 0.007718656 -0.013788503
-0.039492317 -0.036920287 -0.012861594 -0.0139677385 0.025267262 -0.034712035 0.020583402 0.026947936
0.014790018 -0.009996927 -0.029801074 -0.008117395 0.008675781 -0.015487145 -0.003643804 0.03112964
-0.026688967 0.0030066192 0.003706083 0.028034385 -0.009522912 -0.034516316 -0.018844737 -0.027373407
-0.035143577 0.03228471 -0.0047999625 -0.036351975 0.0048023514 -0.04056837 0.0033906975 -0.03864338
0.0043294914 0.01616982 0.0073285247 0.026053952 -0.002667923 -0.020062901 0.008118349 -0.025710514
0.0100929225 -0.029524218 0.028585885 -0.023781512 0.022196636 -0.011125018 -0.008612248 -0.015539744
0.031234358 0.02126738 -0.011503004 0.029227959 0.0025902393 -0.0067196465 -0.033561923 0.0064566764
-0.0264366 -0.03515757 -0.01805965 -0.033856288 -0.031778052 -0.01904412 0.01500064 0.022744725
-0.009724827 -0.035330415 0.0032519952 -0.03773023 0.018083513 -0.0090773115 -0.021011215 -0.03010872
-0.01484709 -0.011374059 0.017321594 0.0073703914 0.0060179103 -0.00037072948 0.005472856 -0.010811432
0.01791116 0.026024569 -0.045868635 0.019974586 -0.008291319 -0.10616603 -0.13325664 -0.083888
-0.055504162 -0.033231664 -0.04582864 -0.016706556 0.010864346 0.011634872 -0.0054495404 -0.013879596
-0.00549314 0.028704427 0.015560792 0.0038380509 0.02687442 -0.01044508 0.021190628 0.0059838877
0.020749366 -0.020626528 -0.01812127 0.032560702 0.0030128444 0.014178645 0.029034786 -0.008805148
-0.03745849 -0.05906628 -0.05668606 -0.090965174 -0.120825216 -0.06815701 -0.039342135 0.0126839485
0.026082302 -0.025873609 0.004704721 0.03002109 -0.019001834 -0.036515605 0.02521221 -0.01160529
-0.00118952 0.02301145 -0.0011167682 0.032358956 -0.024636142 0.016364327 0.023969365 0.056670796
0.011781242 0.070454545 0.02374989 0.002440423 0.016314069 -0.017218666 -0.036175687 -0.022729235
-0.072757564 -0.023495795 -0.03186974 -0.011153559 -0.04664403 -0.0128372125 0.012354464 -0.0076218545
0.0012414547 0.020579448 -0.011067696 -0.014936868 -0.005196515 -0.016943332 0.013530828 0.030830987
-0.017830936 0.013188953 0.03145897 0.045627452 0.04210954 0.025640324 -0.022348193 0.014727344
0.0022355567 0.097625665 -0.023310885 -0.018586157 -0.05161382 -0.080373846 -0.086608835 -0.060517408
-0.037139427 -0.0015301638 -0.030755263 -0.043700363 -0.008237057 -0.012419266 -0.00594826 -0.015127003
-0.0074866745 0.030770024 -0.01932294 0.030569801 0.006660594 0.021659883 -0.005279629 0.018121311
0.04528526 -0.012381227 0.037170004 0.04466398 0.0684745 0.037790183 -0.010111942 -0.06080112
-0.09163903 -0.066124305 -0.061137334 -0.07086311 -0.05609001 -0.058006816 0.001706568 -0.043317363
0.0022460783 -0.0068060593 -0.03598652 -0.009902045 -0.023007385 0.02196382 0.025341455 -0.02664869

arr_1 f4 [10, 256]
00000000: 3a35 e2bc e28b c93d f42e 7c3d 373c f4bc
00000010: 673e cc3d ed6d a6bd 1a26 c63d 1fe1 4bbe
00000020: c9c0 5c3c 97a7 0f3e ed65 bebc 8237 d63c
00000030: 9e00 3d3c f496 02bc a8a5 54be 9e30 1a3e
00000040: 3411 fbbc 9bab 6e3e b80e 78bd bb3b d73d
00000050: 74a6 85bd a119 6fbe a45e 03be 8434 15be
00000060: ed29 a7be 45a8 7ebe eb36 82be 1bb6 eebd
00000070: d10b e8bc c61e 053e ce72 553e d85d 67bd
00000080: 45fe 84be cbd4 e93d ae87 bf3e 86f8 86bd
00000090: c8c0 5ebe 160a 8ebe 19da c6bd 4161 3a3d
000000a0: c373 113e 2675 063d 5fdd 5dbd ba8d 213e
000000b0: 9dc0 283e 7ffe 68be 6921 10be d8ce 123c
000000c0: 02b1 35bd 1e88 2f3c 2751 cbbd d6aa fc3b
000000d0: 3ba6 25be cfce 913e 3d3b 22be 7dcc 5c3d
000000e0: faa6 3d3b 5845 9bbd 1bed 0d3e b384 cbbb
000000f0: 7833 063e f37f e53d c10a f23a 6239 403d
00000100: 4c6a d5bd e442 30be caa1 7a3d 1a47 abbb
00000110: c4cf 373e 57f9 a6be c99f 0ebe f8ed 22bc
00000120: 4a49 90bd 8ded d0bd 59a1 873b 1aba 56bd
00000130: a0fb 22be 4fd8 013e 61d2 133e 7aaa 77be
00000140: c403 4bbb 5cc7 8dbd 6b67 91bd 9131 62be
00000150: 7a83 04be 9d07 253d 1b2f 09be 04fa 5b3d
00000160: 2b5d 9f3d accb cbbd d88f 98be 4b0d 1fbd
00000170: 6bee 15bd a007 52bd 9da7 aabd 9b1d 943e
00000180: 0253 113c edd9 c9bd 5143 6e3d bdb4 fabc
00000190: dfb8 81bd 7c90 673e d66c a03e f9ca c03e
000001a0: f97e f23c 20e4 0fbd 7ae1 19be 5c04 8e3d
000001b0: 52e0 37be 6227 f1bd 20e2 003b 9323 15be
000001c0: 01d3 a3bd 3794 9fbd f989 7fbd 5688 02be
000001d0: f999 e4bd 821d 83b9 a592 233e 64a4 b1bb
000001e0: 44c0 e3bd b3d8 3e3e 6dbe 06be 2763 15be
000001f0: 2c11 9c3e dd4e 14be 7eb9 84be 3136 8cbe
00000200: 3dc2 a0bc 493b 50be 1f7e 323e 888d 303c
00000210: 218f 0b3e 84ab 903d 22a1 743d 3b38 53be
00000220: 4ca6 dc3c 65bd 653c 4614 973d 8965 5b3d
00000230: 9956 22be 0b6e 51bd 4019 1c3e 52fa 40be
00000240: 984d e0bd 0d03 cf3d 060c d23d 87a1 05be
00000250: db72 763e b2fb 883d 18a6 6abe 3e7a 053e
00000260: af3a 063e 11c4 4abd 2424 1cbe f849 37be
00000270: cb1f e7bd 73cf 4abe 349c 973e 3b52 06be
00000280: 019e 3abe 785b 103e 7bb8 f33d 4ceb 343d
00000290: a841 09be e516 5d3d 587c fd3d e57d 993d
000002a0: 0e08 10be a368 d73d 824b 163c 1d9b 053e
000002b0: c6ef 853d 1f0b a7be 7ccb 913e 5900 c2bc
000002c0: a9b7 4cbe f278 58be a2b8 033e 3637 debd
000002d0: a652 f93a db6b 87be 2f6e 9b3d 99c5 7fbd
000002e0: d2fd 8c3d d3c3 c8bc 49ee 493e 467e 36be
000002f0: 88cc abbe 2749 3bbe c6e0 54bd 514d 21be
00000300: 129a 75bb 2cb0 6f3c 7815 ad3c b6b9 41be
00000310: bc55 d03d 417a aa3d 0c18 1ebc b444 093e
00000320: e417 efbd 767e 803e 74f6 b83c 8f90 2cbe
00000330: 69ea 7a3b 349d 22bc d340 8b3d 6886 b6bd
00000340: 5250 8d3e 727c b83d a6f9 c73d 8e57 cdbe
00000350: 418c 9f3e 16e9 4c3e 3c9c 663e 01f9 ea3d
00000360: 138b ee3d 0287 c7bd c793 eebd 3d34 143e
00000370: 2ff7 14be 63ee 7bbd 9804 443c a3f6 bb3c
00000380: 1ed6 b0bd cb32 2a3e 611b 63be 402e 84be
00000390: 013b 013c 64f4 1cbd d137 efbd 59bc 54bc
000003a0: 58a6 313e 9806 98bc bd67 a9be f746 04be
000003b0: 880e 43be 7706 103e 8bba 26be e6c4 b63d
000003c0: 3081 853e 5c58 7c3e 39e9 3f3e bdf3 003d
000003d0: 4227 6a3d 2d22 1f3e 78c4 853e 4f3a 02be
000003e0: 3e8e 613e 4bd0 69bc 073b 993e 0a3c c3bd
000003f0: c0a2 8dbd 7acf f63d e3ec 073d 5600 d6bd
-0.027613271 0.09841134 0.061568215 -0.029813869 0.0997284 -0.081264354 0.09675236 -0.19910096
0.013473698 0.14028774 -0.023241961 0.026149515 0.011535792 -0.00797056 -0.20766318 0.15057608
-0.030647852 0.2330765 -0.060560912 0.105094396 -0.06525889 -0.2334962 -0.12829071 -0.14570814
-0.32649174 -0.24868877 -0.25432524 -0.116558276 -0.028325947 0.1300002 0.20844576 -0.05648598
-0.25975242 0.1141754 0.37408203 -0.06590371 -0.21753228 -0.2774207 -0.097095676 0.045502905
0.14204316 0.032826565 -0.054166194 0.1577672 0.16479726 -0.22753333 -0.14075245 0.008960448
-0.04435826 0.010713605 -0.09927588 0.007710795 -0.16176693 0.28478095 -0.1584291 0.053905953
0.0028938637 -0.07581586 0.1385998 -0.0062108873 0.13105571 0.11206045 0.001846634 0.046929725
-0.10420665 -0.17213017 0.06118945 -0.005226982 0.1795035 -0.32612106 -0.1392814 -0.0099444315
-0.07045229 -0.10201559 0.004139107 -0.052423574 -0.159163 0.12680171 0.14435722 -0.24186125
-0.0030977586 -0.069227904 -0.070998035 -0.2208922 -0.1294078 0.040290464 -0.13396876 0.05370523
0.07781442 -0.09950957 -0.29797244 -0.038831037 -0.036604326 -0.051276803 -0.08332751 0.28928837
0.008869888 -0.09856019 0.058169667 -0.03060376 -0.063340895 0.2261371 0.31333035 0.37654856
0.02960156 -0.035129666 -0.15027419 0.06934425 -0.17956665 -0.1177509 0.001966603 -0.14564352
-0.0799923 -0.077919416 -0.06238744 -0.1274732 -0.111621805 -0.00025008252 0.15973909 -0.005421208
-0.11120656 0.18637352 -0.13158579 -0.14588605 0.3048185 -0.14483209 -0.2592277 -0.27385095
-0.01962387 -0.20335115 0.17430924 0.010775931 0.13628818 0.07063964 0.05972398 -0.20626919
0.026934765 0.014022206 0.07376914 0.05356363 -0.15853347 -0.051130336 0.15244007 -0.1884549
-0.109523 0.10108004 0.102561995 -0.13049899 0.24067251 0.06688632 -0.22914922 0.13034913
0.13108324 -0.04950339 -0.15248162 -0.1789931 -0.11285361 -0.19805698 0.2961136 -0.13117306
-0.18224336 0.14097393 0.11900421 0.04416971 -0.13403952 0.053976912 0.12377232 0.074947156
-0.14065573 0.10518005 0.009173276 0.13047452 0.06539874 -0.32625672 0.2847556 -0.023681806
-0.19991936 -0.21139887 0.128634 -0.108503744 0.0019021824 -0.26449475 0.07589375 -0.062444303
0.0688435 -0.024507439 0.19719805 -0.17821607 -0.33554482 -0.18289624 -0.051972173 -0.1575215
-0.0037475866 0.014629405 0.021128401 -0.189185 0.101726025 0.08324099 -0.009649288 0.13405114
-0.11674479 0.25096482 0.022578456 -0.1685202 0.0038286692 -0.009925175 0.067994736 -0.08912355
0.27600342 0.09008111 0.097644135 -0.4010586 0.31161693 0.2001079 0.22520536 0.11473275
0.1164762 -0.097425476 -0.1164928 0.14473052 -0.14547418 -0.06150664 0.011963986 0.022944754
-0.086345896 0.16620938 -0.22178413 -0.25816536 0.007887603 -0.038319007 -0.11680568 -0.012984359
0.17348611 -0.018557832 -0.3308696 -0.12917696 -0.19048512 0.14064966 -0.16282098 0.08924274
0.26075125 0.24643081 0.18741311 0.031482447 0.057166345 0.15540381 0.26126456 -0.12717555
0.22026917 -0.014270852 0.29927847 -0.09532936 -0.06915808 0.12051292 0.033184897 -0.10449283
