examples/NN_crysx_mnist_98.11_biases.npz (npz, 1570 bytes, 2 tensors)

arr_0 f4 [256]
0.0017453821 -0.011429314 -0.001459046 -0.004141369 -0.0020550399 -0.0070377914 0.002642898 3.547799e-05
0.0016262415 -0.0008889641 -0.005216053 -0.006891128 -0.0046818946 -0.017939117 0.005764619 0.0007634427
-0.0004444803 -0.012706754 0.003060459 -0.016936343 -0.0053394916 -0.001154954 0.0034980674 -0.005171544
0.0020809502 -0.008974395 -0.0023930026 0.00904893 -0.0007138986 -0.0012232724 -0.0060829176 0.009617432
-0.010993783 -0.011310451 -0.00995428 -0.00062007766 -0.014541201 0.00033485942 0.006599528 -0.008273489
-0.010456848 -0.012136842 0.014522933 -0.010451576 -0.001945144 -0.002781007 -0.00095217343 -0.017788347
-0.005029518 0.00217017 0.0031222485 -0.0051281583 -0.0047314423 -0.00207501 0.002587256 -0.00784196
0.0021171735 0.0086753275 -0.013784097 0.004630374 0.00419889 -0.016804613 0.0039182976 0.0035851693
-0.0058630295 -0.011272229 -0.0013087024 -0.004957932 -0.0005393481 0.0134510705 -0.014102289 -0.0037621006
-0.007162226 -0.009728414 0.0016516797 -0.025139615 0.0024860797 -0.0029165081 0.0031171867 0.004259396
0.005322351 -0.015038397 -0.004880991 0.0042673186 0.0063695405 0.004463353 -0.00425764 -0.0024533567
0.010966407 -0.0043491875 0.0025522404 -0.00327684 -0.0049576764 0.0035075392 -0.009701962 -0.0035842692
-0.0077056005 0.0048481966 -0.00594118 -0.0023147222 0.0019644734 -0.0055587343 0.0052355533 0.0030458733
-0.013330422 -0.0032997692 0.0076442836 -0.005004745 -0.003470636 -0.009818865 2.2527944e-05 0.0010395191
-0.005357543 0.0024324376 0.012944776 0.002404159 -0.009883292 0.0067082536 -0.0060554533 -0.010027933
-0.020917112 -0.02394509 -0.00696146 0.0045935106 -0.00540762 -0.0018851062 0.00026325526 0.010116785
0.003649649 0.0048998254 0.0028918486 -0.00015370085 0.00028545456 0.020576589 -0.0042740437 -0.008634407
-0.007192247 0.00892033 -0.005711408 0.013499819 -0.004460121 0.0027178465 0.005842432 0.0015816013
-0.002344198 -0.006706006 -0.00051563047 0.004606853 -0.005078189 0.00051265664 -0.0113039045 -0.00081087794
-0.008469347 -0.014519438 0.002161037 -0.008936768 -0.0019671866 0.008448701 0.0013879063 0.0048489175
-0.015070207 0.0055358727 -0.0032563473 0.005858313 -0.012703309 -0.026499934 -0.007667951 -0.012296568
-0.011400635 0.01001452 -0.0008444484 -0.008031498 -0.000803869 -0.0060635027 -0.010179217 0.0037060466
-0.012757157 -0.010932728 -0.017595153 -0.0057995943 -0.0131558 -0.011750784 -0.003461519 0.0039708684
0.002721699 0.0015318056 0.0022884123 -0.0044749277 -0.0057548606 0.0021576877 -0.0069586583 -0.0045236074
-0.00685473 0.002906998 0.0051572784 0.0013552721 -0.0066454206 -0.007654961 0.0009176397 -0.0048183715
-0.0016496391 0.004756197 0.004993754 0.0039532576 0.0066853175 -0.0031875367 -0.021641478 -0.01714394
-0.008586323 -0.0007746125 0.00553444 -0.00024441697 -0.0025380678 -0.022071604 0.002177987 0.0019053441
0.009439549 0.00016734235 0.0012712894 -0.01334152 -0.0021768373 0.0008205577 0.0023257688 0.00014773956
0.0047210297 -4.779545e-05 0.008441543 0.0030030012 -0.00815064 -0.0013732266 -0.0021331059 0.0038071042
-0.013601635 -0.0032747246 -0.0033099374 0.0068869856 -0.0067027267 -0.0005559173 0.0079711145 -0.0021105132
-0.0035159455 0.002965874 -0.0043864516 -0.00067140115 -0.0033198758 -0.015024196 -0.00041997677 -0.0013099062
0.00088323734 0.01385104 0.00130169 0.0041672066 -0.004435523 -0.0052856095 -0.003510684 -0.0034423885
00000000: 4ec5 e43a 0442 3bbc 763d bfba 52b4 87bb
00000010: d9ad 06bb 469d e6bb 7834 2d3b 34ce 1438
00000020: 9c27 d53a 5f09 69ba 6deb aabb f9ce e1bb
00000030: 946a 99bb 0ef5 92bc 21e5 bc3b c621 483a
00000040: 2309 e9b9 fd2f 50bc fb91 483b 16be 8abc
00000050: e7f6 aebb d361 97ba d53f 653b 0e76 a9bb
00000060: 8d60 083b 5709 13bc ecd3 1cbb f741 143c
00000070: ed24 3bba 3656 a0ba 3653 c7bb 6f92 1d3c
00000080: 451f 34bc 784f 39bc 4717 23bc b58c 22ba
00000090: 383e 6ebc 1290 af39 da40 d83b 878d 07bc
000000a0: 3353 2bbc 9bd9 46bc 99f1 6d3c 163d 2bbc
000000b0: 34f4 feba 8e41 36bb 479b 79ba deb8 91bc
000000c0: a8ce a4bb 6939 0e3b a39e 4c3b 1c0a a8bb
000000d0: 370a 9bbb e4fc 07bb f48e 293b 907b 00bc
000000e0: 47c0 0a3b f622 0e3c b1d6 61bc 64ba 973b
000000f0: d896 893b d4a9 89bc 1065 803b 29f5 6a3b
00000100: a81e c0bb 28af 38bc c488 abba 2676 a2bb
00000110: 0a63 0dba e161 5c3c 4a0d 67bc 938d 76bb
00000120: 1bb1 eabb ed63 1fbc 2d7d d83a 98f1 cdbc
00000130: 7fed 223b e322 3fbb b749 4c3b 6792 8b3b
00000140: 1e67 ae3b 9c63 76bc b8f0 9fbb ddd4 8b3b
00000150: 94b7 d03b 5241 923b ac83 8bbb 7fc8 20bb
00000160: 72ac 333c a183 8ebb 7d43 273b 41c0 56bb
00000170: 0174 a2bb bede 653b faf4 1ebc 0fe6 6abb
00000180: 437f fcbb 9fdd 9e3b 3bae c2bb 98b2 17bb
00000190: 65be 003b 0b26 b6bb 018f ab3b 469d 473b
000001a0: d867 5abc f140 58bb e67c fa3b d8fe a3bb
000001b0: 9c73 63bb 4edf 20bc 64fa bc37 7940 883a
000001c0: 548e afbb 8869 1f3b 5316 543c 188f 1d3b
000001d0: 88ed 21bc e9d0 db3b d36c c6bb 334c 24bc
000001e0: 5d5a abbc 7e28 c4bc f61c e4bb 2985 963b
000001f0: 6832 b1bb ab15 f7ba 8605 8a39 dfc0 253c
00000200: f32e 6f3b b78e a03b 2b85 3d3b c22a 21b9
00000210: 10a9 9539 3c90 a83c 470d 8cbb 5477 0dbc
00000220: f1ac ebbb 9326 123c c326 bbbb 582e 5d3c
00000230: 3526 92bb e61d 323b df71 bf3b bc4d cf3a
00000240: 1ea1 19bb 0ebe dbbb 602b 07ba 15f5 963b
00000250: f066 a6bb ce63 063a 0334 39bc 1991 54ba
00000260: 04c3 0abc f0e2 6dbc 2fa0 0d3b 866b 12bc
00000270: eaeb 00bb 6c6c 0a3c 68ea b53a abe3 9e3b
00000280: 08e9 76bc 4466 b53b 7168 55bb 17f7 bf3b
00000290: 8a21 50bc 6416 d9bc 6f43 fbbb 8b77 49bc
000002a0: bbc9 3abc f113 243c f95d 5dba 8b96 03bc
000002b0: bcba 52ba 59b0 c6bb bbc6 26bc 25e1 723b
000002c0: 6503 51bc 2f1f 33bc b623 90bc 860a bebb
000002d0: 6d8b 57bc 5c86 40bc a7da 62bb 0f1e 823b
000002e0: 885e 323b dec6 c83a 30f9 153b 6aa2 92bb
000002f0: 4593 bcbb fe67 0d3b 7505 e4bb c53a 94bb
00000300: a59d e0bb 5583 3e3b 63fe a83b 63a3 b13a
00000310: d4c1 d9bb 78d6 fabb c28d 703a 6ee3 9dbb
00000320: b438 d8ba dfd9 9b3b a5a2 a33b 548a 813b
00000330: 8210 db3b fee5 50bb 7849 b1bc 7371 8cbc
00000340: a6ad 0cbc 5d0f 4bba 3f5a b53b 1725 80b9
00000350: b655 26bb 82cf b4bc 8fbc 0e3b bdbc f93a
00000360: 57a8 1a3c 9f78 2f39 65a1 a63a 6496 5abc
00000370: 45a9 0ebb b21a 573a ed6b 183b 89ea 1a39
00000380: deb2 9a3b f977 48b8 664e 0a3c 00ce 443b
00000390: 438a 05bc d7fd b3ba 94cb 0bbb 9c80 793b
000003a0: 64d9 5ebc c39c 56bb 89eb 58bb 39ac e13b
000003b0: 8ca2 dbbb faba 11ba 4799 023c 8950 0abb
000003c0: c76b 66bb 1c5f 423b 39bc 8fbb f800 30ba
000003d0: 4692 59bb 0c28 76bc 5430 dcb9 29b1 abba
000003e0: 0e89 673a 79ef 623c 789d aa3a 108d 883b
000003f0: dd57 91bb e832 adbb 8113 66bb b299 61bb

arr_1 f4 [10]
-0.059093464 -0.07357112 -0.036639538 -0.013038214 0.038739417 -0.029588796 -0.036711033 -0.068284295
0.2391 0.039083887
00000000: fd0b 72bd 75ac 96bd 5713 16bd 3c9e 55bc
00000010: 39ad 1e3d 3464 f2bc 4f5e 16bd a3d8 8bbd
00000020: a1d6 743e 6d16 203d
