examples/NN_crysx_mnist_plus_98.11_biases.npz (npz, 1570 bytes, 2 tensors)

arr_0 f4 [256]
000000 a1 39 cb bb c6 c1 af 3b 87 66 6c bc cd 60 8b 3b
       -0.0062019383 0.0053636758 -0.014428741 0.004253483
000010 cd 0b cd bb 55 af 19 bc 42 57 b9 bb e0 32 9d 3c
       -0.0062575103 -0.009380181 -0.005656154 0.019189298
000020 b2 ce df bb 3d d6 84 bc 27 4a 99 bb dc 60 c9 bb
       -0.00683006 -0.016215438 -0.004678029 -0.0061455797
000030 18 cb 5e b8 35 49 1a 3c 78 5b a3 ba 7e 06 eb bb
       -5.311807e-05 0.009416868 -0.0012463173 -0.007172405
000040 c3 35 58 3b 7a e0 4a 3c 7b e0 03 bc 9b 28 12 bc
       0.003299103 0.012382621 -0.008049126 -0.008920814
000050 15 28 a0 bb 87 6e 36 3c 77 07 0b 3b 73 28 43 bb
       -0.0048875907 0.01113475 0.0021214166 -0.0029778748
000060 e1 7c 2c bc f0 07 20 3a d7 d9 78 3b b4 00 e9 b9
       -0.01052782 0.00061046984 0.003797164 -0.00044441747
000070 08 c5 84 b8 68 00 93 ba 9d 58 82 3b 7b 0f 19 3c
       -6.3309504e-05 -0.0011215331 0.0039778487 0.00934207
000080 3c eb ea 3a 99 43 93 3c 90 26 6c ba a2 9b ab 3c
       0.0017922889 0.017976569 -0.0009008432 0.020948235
000090 42 51 91 3c 44 bc 7c 3b 54 d0 4d 3c d3 01 95 bb
       0.017738942 0.0038564363 0.012561876 -0.0045473366
0000a0 4a d4 ab 3a 8b 7b fd 3b b5 78 f2 bc 5d 10 44 3c
       0.0013109532 0.0077356747 -0.029598573 0.011966792
0000b0 4d c0 3f bb d1 71 0a 3b 80 52 7a 3c 8b b1 0b 3b
       -0.0029258907 0.0021124969 0.015278459 0.002131554
0000c0 96 d2 f4 bb 6a a9 03 bc 28 5a 58 bb a5 91 ef 3b
       -0.007471393 -0.008035997 -0.0033012722 0.0073110634
0000d0 94 e8 ad 3a a4 15 3d 3c 9c 1e ad bb 5f 85 77 bc
       0.0013268166 0.011540804 -0.00528319 -0.015107482
0000e0 f4 9b e5 bb 30 0a 0c bc 62 6a 62 bc 61 8a 47 ba
       -0.0070071165 -0.008547351 -0.013819309 -0.00076118676
0000f0 c6 ba 6e bc 0c 58 a4 bb c8 ad 8f bb b0 01 b8 3b
       -0.014570897 -0.005015379 -0.00438473 0.0056154355
000100 a9 02 3b 3c a5 f7 d2 3b 13 d4 25 3c 10 08 f8 bb
       0.011414208 0.006438213 0.010121363 -0.0075693205
000110 5a f1 56 bc d8 f9 22 ba 9f 11 c7 3a a4 0b a2 39
       -0.013119066 -0.0006217039 0.0015187747 0.0003090772
000120 15 1c e1 3b fd 16 fa bb cb cb 88 3b e0 89 5e 3a
       0.0068698027 -0.007632135 0.0041746846 0.0008489173
000130 97 fe 6e bc 94 6c 72 ba cd 04 25 3c 22 51 22 3a
       -0.014587066 -0.0009247747 0.010071945 0.00061918993
000140 4b 43 89 3b bc f2 87 bb 38 9e e5 3a 5d 83 a0 bb
       0.00418893 -0.0041488092 0.0017518466 -0.004898472
000150 89 29 6c bc 2c 1c 0b 3b 51 e2 51 bc 61 b6 67 bc
       -0.0144142 0.0021226509 -0.012810306 -0.014142604
000160 7f a2 4c bc 74 12 98 3b 88 64 cd 39 8b 08 a0 bb
       -0.012489914 0.0046408717 0.0003917555 -0.004883831
000170 c8 69 8a 3b d2 e5 9b b8 23 07 c7 bc 36 a4 9f 3b
       0.004224036 -7.433783e-05 -0.024295395 0.0048718704
000180 77 d5 3b 3a a4 f3 80 bc d3 c1 26 bb 61 7a d3 bb
       0.00071652926 -0.015741177 -0.0025445118 -0.0064537977
000190 c6 4d 19 3a b4 9b 2a bc 21 a6 ee 3a fb 6f aa 3b
       0.0005848076 -0.010413099 0.0018207469 0.0052013374
0001a0 98 41 e3 3b 24 21 6c bc 8b 48 ed b9 a1 6a 03 3b
       0.0069353096 -0.014412198 -0.0004525821 0.002005257
0001b0 74 cb 38 3b c4 bc 0b ba 90 c7 d6 3a a8 c4 ee 3b
       0.002819744 -0.00053305575 0.0016386379 0.007286627
0001c0 4c 14 51 bc 5d 34 b9 bb a3 21 bc bb e3 47 08 bc
       -0.012761187 -0.005651994 -0.0057413145 -0.00831792
0001d0 7a 15 94 39 28 85 d8 3b 3b 8d 22 3a a6 03 66 bb
       0.0002824476 0.0066076703 0.00062008546 -0.003509739
0001e0 39 69 1d bc 0a 03 a9 bb e4 83 1f 3b 88 e4 cc bc
       -0.009607607 -0.005157833 0.0024340088 -0.025011316
0001f0 97 dd 19 ba da f2 b2 bc 8a 85 ee bb a7 e6 ac bb
       -0.0005869506 -0.021844316 -0.0072791027 -0.0052765193
000200 83 d1 22 bc d6 47 be b9 98 c3 55 bb 8d f2 4b 3c
       -0.009937647 -0.00036293146 -0.0032617804 0.012447965
000210 2d 19 2a 3b 7f 25 93 3b 8c 96 b3 3b a2 15 45 b9
       0.0025954947 0.004490554 0.005480593 -0.00018795443
000220 a2 a4 bb bb dd 25 aa 3b 40 59 fe 3b eb f9 b2 3b
       -0.005726413 0.005192502 0.0077621043 0.0054619214
000230 f4 68 50 bc 43 a1 95 bb 7c d7 c8 3b 68 cd 1f bc
       -0.012720335 -0.004566343 0.0061292034 -0.0097535625
000240 7b 98 35 3c c3 eb fe 3a b4 5a b8 bc 02 8d 66 bc
       0.011083717 0.0019448925 -0.022504188 -0.014071705
000250 49 0b 0e bc c0 42 5b bc f2 6d 40 bc 26 8d 97 3a
       -0.008669683 -0.013382614 -0.011744963 0.0011562451
000260 5e 40 f5 3b bf 7e ea bc 29 e6 24 bb 04 cb 31 3c
       0.00748448 -0.02862489 -0.00251616 0.010851625
000270 6f d7 41 bc 05 ef 3d bb ce d9 57 bb 3f df 36 3a
       -0.0118311485 -0.0028981578 -0.0032936218 0.0006976015
000280 c6 58 9e bb 34 8e 80 ba d0 dd 0a 3a 99 12 50 bb
       -0.00483236 -0.0009808005 0.0005297335 -0.0031749366
000290 28 f4 9b bb 6a 02 c4 bb a0 5d 17 3c 2d be a1 3b
       -0.0047593303 -0.005981733 0.0092386305 0.004936001
0002a0 19 91 d2 3a e3 12 8d bb 90 09 cc ba 13 be ac ba
       0.0016064971 -0.00430523 -0.0015566815 -0.0013179205
0002b0 0d 04 71 bc 0c 32 7b bb 07 65 83 bc 4c 39 94 bc
       -0.014710438 -0.003832939 -0.016039385 -0.018093728
0002c0 39 81 15 ba f3 67 09 bc 87 4e f6 bb 9d ea fd 3b
       -0.00057031546 -0.0083866 -0.0075166854 0.0077489153
0002d0 ae 2c 9e 3c 69 87 d0 bb 5d 07 23 3c fe 66 79 bb
       0.019308414 -0.0063637984 0.009950486 -0.0038055773
0002e0 c0 0d d7 3b a6 81 b0 ba a3 4d 7d bb 8a 99 79 bb
       0.0065629184 -0.0013466373 -0.0038651011 -0.0038085901
0002f0 83 07 6f bb f3 1b bb bb 5e ca 35 3b 41 2e d7 3b
       -0.0036472983 -0.005710119 0.0027739028 0.006566793
000300 26 bd a6 bb eb b7 1f bc 56 e6 15 3c fd d7 dc bb
       -0.005088466 -0.009748439 0.009149155 -0.006739615
000310 c8 76 d7 ba 9b 45 75 bb 4c 4e 39 bc 49 75 95 3b
       -0.0016438598 -0.0037425521 -0.011310171 0.0045611006
000320 f4 60 ee 39 dd b5 cc bc c1 4e 76 bb 13 fb 0b 3b
       0.00045467133 -0.024989063 -0.0037583562 0.0021359369
000330 35 e4 97 3a 1d 8f 33 3c 7e fd 96 3b c9 43 c5 3b
       0.0011588397 0.010959414 0.0046078553 0.0060200435
000340 ae f3 34 bb 5c e0 84 3a a1 2f 1b bc f9 f2 35 3b
       -0.0027611065 0.0010137665 -0.009471805 0.0027763231
000350 f2 26 1e bc 88 10 9f 3b 00 8c 03 bc c0 87 94 b8
       -0.00965284 0.0048542656 -0.008028984 -7.082475e-05
000360 83 cb b8 ba 32 ce 4b 39 80 54 8b 3b 25 96 1b bc
       -0.0014098737 0.00019436402 0.0042520165 -0.009496246
000370 ee ea 3e 3c 7c c5 9c bc 90 12 11 3c 22 fc cc bb
       0.011652691 -0.019137137 0.008854523 -0.0062556425
000380 df a6 06 3b a4 1c 30 3b 8b 5d d1 3b d8 8c 32 bc
       0.002054624 0.002687254 0.006389325 -0.010897838
000390 cd 67 1c 3b 04 f9 71 bb 85 76 d5 bb 35 e5 5a bc
       0.002386558 -0.0036922107 -0.006514373 -0.013360311
0003a0 8a 61 4f 3b 23 f0 8c bc 85 a4 25 3c 70 84 13 3b
       0.0031643831 -0.01720435 0.010110025 0.0022509359
0003b0 41 2c 8c 3a 53 41 89 bb b0 96 58 b8 e6 bc 77 3b
       0.0010694341 -0.0041886955 -5.163875e-05 0.0037801801
0003c0 a7 9b ae bb ea e8 54 3c 6c 6b 6f 3c 04 cf b7 3b
       -0.005328614 0.012994984 0.014613014 0.005609395
0003d0 d9 82 2e bc 3a eb 8f 3a 71 58 2c 3c db 09 19 3c
       -0.010651314 0.0010980137 0.010519133 0.009340729
0003e0 46 47 13 3b 32 ba 22 bb 1e e3 9d 3b 6a 98 01 bb
       0.0022472902 -0.002483022 0.0048183342 -0.0019774684
0003f0 80 66 9b ba 95 b9 02 bc eb a0 31 bc f5 bc 0a bc
       -0.0011856109 -0.0079788165 -0.0108415885 -0.008467902

arr_1 f4 [10]
000000 24 36 e1 bc 1f d0 77 bd 78 ac 9a bd bf 79 f2 bc
       -0.027491637 -0.060501214 -0.07552427 -0.029599069
000010 78 33 00 bc 3d ac 65 bd 92 24 1a bd 9c 5f 62 bd
       -0.007824771 -0.056072462 -0.037632532 -0.05526696
000020 12 f9 9c 3e 42 72 31 3d
       0.30658776 0.043321855
