examples/NN_crysx_mnist_plus_98.11_biases.npz (npz, 1570 bytes, 2 tensors)

arr_0 f4 [256]
00000000: a478 46bc 1b6b d83b 1482 fe3b 56e2 6cbc
00000010: 34bd a03b e3c9 9aba 9300 3a3b 7b48 a9bc
00000020: 329e b03b 601d 6cba 4e6a 313c f8a1 1dbb
00000030: fd4b 97bc 99a8 08bc f76b 263b fe9b 4c3b
00000040: 5078 f3bb fa46 ed3b 5ec4 d23b 61ca 193b
00000050: 7761 2d3c a106 e4bb 7eae 09bb fbe3 64bb
00000060: ae22 27bb fe49 c63b cb74 9aba 02d5 29ba
00000070: 0872 68bc 59a0 77bb 25ce c738 07b6 273c
00000080: 6251 32bc 5d0e 563c 149c 81bc 5b5b 7fbb
00000090: 0798 473c ff6a d53b e337 80bb c9ec 5aba
000000a0: f02f 853a 068b 803b 06e6 f33b b5c7 5e3b
000000b0: 191a 1bbc 3f8e b1bb 8870 f73b 9583 b23a
000000c0: 6f2a 8e3c 1f60 abbb 4232 ddbc e149 80bc
000000d0: 14ff 31bc 69d9 953b 4ee3 ff3b 9864 48bc
000000e0: 6bab 083c e21f f439 1b83 a73b feed 743b
000000f0: 2f31 20bc a7b7 d4bb d0c5 f43b 1440 673b
00000100: ef02 993b 6e2b 2d3b 9b68 abbb 160c 0c3c
00000110: 1831 1e3c 63ac b8bb 1c06 0abb 6210 8f3c
00000120: 8d79 3ebc 28d1 10bc a013 b9bb 0354 cfbb
00000130: 1b17 01bc 858a 12bc 72e2 063c c5ee e43b
00000140: e28a 99bc 1dfd 4639 00e4 ed3b ecf1 22bc
00000150: 7817 87bc 854c 72ba 6b78 9e3c e5e6 6c3b
00000160: 42b4 1c37 2292 e63b 6da7 acba 58d6 d03b
00000170: a485 24bc 0dfc c4bb 6fd4 533c 06be db3b
00000180: 3a53 353b c9f1 c63b 6a15 a6bb 3967 053c
00000190: 78ba d23b 9499 01bc 465b 67bc 630f cc3b
000001a0: ce93 e9b6 94db 56ba dd06 453c b1a9 70bc
000001b0: 8d7f 9b3b f2fb 3dbb 67ae c63a 445a 993b
000001c0: 3fa3 7f3b 62d5 9fbb e863 b1bb 3cf8 01bc
000001d0: 631e 9cbb f41e 12ba 7325 1c3c c539 0bbc
000001e0: e8fe 32bc 3c34 2abc 83c3 2abc dd11 473c
000001f0: 5eff 23bc 0378 d53b d6a1 9939 486c b53b
00000200: 1198 e6ba 73a4 d53b a0b9 463c 3353 cc3b
00000210: 6d55 ffbb e796 473c 0179 eaba 8432 56bc
00000220: 4ade de3a 2327 8dba 3020 1f3c 87d4 09ba
00000230: 081c 8d3a b47b 5c3c 935c 773c b9e3 c7bb
00000240: afb2 213c 2d42 a839 9589 59bc ab87 c13b
00000250: 78bc a8bb 5358 bd3a 3c24 d3bb eccc 7ebb
00000260: f4bb 16ba f447 30bc 197f 9ebc 8694 653b
00000270: ab86 24bc a203 2239 f9eb 093c 0342 663c
00000280: 40ed aebb 665b 243b 5636 543c 33e5 5ebc
00000290: 4704 8abc 1788 a5bb bdef 5c3b cdaa b7ba
000002a0: a6c0 0a3c c23f f83b dee4 533b dad0 afbc
000002b0: d68f 623c d6b7 0ebc 3261 f5bb 162d 8f3c
000002c0: 38a6 01bd 9aa8 103c 30f7 49bc 1df9 70bc
000002d0: c813 853b 24ca 0fbd 23d9 56bc 4fa6 30bb
000002e0: 5378 1cbc 38e1 8f3a c5b3 653a c8f0 8cb9
000002f0: 5653 9dbc 2827 f13b 056c 66bc cbbd f239
00000300: ee38 863b 95a4 d5bb 9789 91bc 5c97 253b
00000310: 2d51 ddbb adfe 39ba 68b6 1fbb d6e8 70bc
00000320: f976 26bc 0da7 debb 0632 5d3c 0237 1ebc
00000330: fafc 423b 21a8 13bc 9763 fabb 5ee4 ae3a
00000340: 0b1f 443c 3c7a 0a3b fc56 8f3b eb42 c7bb
00000350: 250c ce3b 09f9 dd3b 8ede e3ba 7fea 823c
00000360: aeca 7abc 4493 733b 723f 633b 74ce fcba
00000370: f239 71bc ab83 f43b d856 d9bb 39db b3bb
00000380: 7288 cf3b dbee ae3a cd98 eaba febb a7bb
00000390: 506a 0d3c 3207 f73b 5131 80ba f3a3 9cbb
000003a0: 848c d43a 0a6a 96ba 51da df3b 04ef 60ba
000003b0: 25fd 80bc 1122 213a aac3 34bc 3e61 203b
000003c0: b62a 2abc 691e 343c 73ed 4a3b ce03 3dbc
000003d0: 6ff0 bebb 4b28 3e3c 14c0 17bc 2a7f 853b
000003e0: 28bc 3d3c 2d1f 0f3c d0af b8bc 6e5a 6c3b
000003f0: 2d2d d8bb 7bdf 4dbc 466b 98bb 60b1 ec3b
-0.012113724 0.006604565 0.0077669714 -0.01445826 0.0049053673 -0.0011809435 0.002838169 -0.020664444
0.005389952 -0.0009007063 0.010828568 -0.002405284 -0.018468851 -0.008340978 0.0025393942 0.0031220908
-0.007430114 0.007241127 0.0064321 0.0023466574 0.010582319 -0.006958798 -0.0021008546 -0.0034925926
-0.0025502848 0.006051301 -0.0011784075 -0.0006478579 -0.014187343 -0.0037784784 9.527457e-05 0.01023627
-0.010883661 0.013064948 -0.015821494 -0.0038964364 0.012182242 0.006512999 -0.003912912 -0.0008351324
0.0010161381 0.003922823 0.0074431924 0.0033993546 -0.009466671 -0.0054185684 0.0075512566 0.0013619537
0.017354218 -0.0052299644 -0.027001504 -0.015660228 -0.010864038 0.0045730365 0.0078090793 -0.012231015
0.0083416505 0.0004656306 0.0051120645 0.00373733 -0.009777351 -0.0064916196 0.00746987 0.0035285996
0.004669539 0.0026423591 -0.005230976 0.008547803 0.00965526 -0.0056357845 -0.002106077 0.017463867
-0.01162566 -0.008838929 -0.0056480914 -0.0063271536 -0.007879044 -0.008944158 0.0082327 0.0069864714
-0.018742982 0.00018977044 0.0072598457 -0.009945374 -0.016490683 -0.00092429697 0.01934453 0.0036148366
9.340294e-06 0.0070364634 -0.0013172455 0.006373208 -0.010041628 -0.006011492 0.012929066 0.006706002
0.0027668015 0.0060713035 -0.0050684707 0.008142286 0.00643092 -0.007910151 -0.014120882 0.00622742
-6.961148e-06 -0.0008196172 0.012025562 -0.014688895 0.00474543 -0.0028989282 0.0015158177 0.00467995
0.0039007214 -0.004877732 -0.005413521 -0.007932719 -0.0047643646 -0.00055740704 0.009530413 -0.00849766
-0.010925032 -0.01038843 -0.01042259 0.012150255 -0.010009615 0.0065145507 0.0002930301 0.00553659
-0.0017592927 0.006519848 0.012129217 0.006235504 -0.007792166 0.012181974 -0.0017888845 -0.013073567
0.0017003503 -0.001076911 0.009712264 -0.00052578043 0.00107658 0.0134572275 0.015097755 -0.0061001447
0.009869262 0.00032092762 -0.013277431 0.0059060655 -0.0051494204 0.0014445878 -0.0064435285 -0.0038879467
-0.0005750053 -0.010759342 -0.019347714 0.0035031154 -0.010041873 0.00015450877 0.008418077 0.014053824
-0.005338341 0.0025078892 0.012952408 -0.01360445 -0.016847743 -0.0050516236 0.003371223 -0.0014012695
0.0084687825 0.00757596 0.003233246 -0.021461893 0.0138282385 -0.008710822 -0.007488393 0.017477553
-0.03165266 0.00882926 -0.0123270005 -0.014707831 0.004061196 -0.035104886 -0.013113293 -0.0026954596
-0.009550172 0.0010977155 0.00087624445 -0.00026882277 -0.019204777 0.007359404 -0.01406384 0.00046299244
0.004096142 -0.006519864 -0.017765803 0.002526722 -0.0067540617 -0.00070951396 -0.0024370197 -0.01470395
-0.010160201 -0.0067948163 0.013500696 -0.00965667 0.0029752837 -0.009012253 -0.0076412666 0.0013343205
0.011970292 0.0021129986 0.004374383 -0.0060809753 0.006288069 0.006774072 -0.0017385052 0.015980957
-0.015307112 0.0037166635 0.0034675268 -0.0019287602 -0.014723288 0.007461985 -0.006632667 -0.00548878
0.006333404 0.0013346331 -0.0017898321 -0.005118846 0.008631304 0.0075386995 -0.0009780322 -0.0047802865
0.0016216193 -0.0011475694 0.0068314453 -0.0008580538 -0.015745709 0.0006146739 -0.011032978 0.0024472023
-0.01038616 0.0109935785 0.0030964285 -0.011536552 -0.0058270018 0.011606286 -0.009262104 0.004073997
0.0115805045 0.00873546 -0.022544771 0.0036064642 -0.0065971822 -0.012565489 -0.00465146 0.007223293

arr_1 f4 [10]
00000000: 517b 28bd 7c3d 8dbd c72c 8bbd bba1 41bd
00000010: ee28 643d 78ea 92bd ae9a c13a 05fb d6bd
00000020: 6fa2 8c3e 4bb6 8f3d
-0.04113323 -0.06896493 -0.0679565 -0.04727338 0.055703096 -0.071736276 0.001477083 -0.10497097
0.27467677 0.070171915
