examples/NN_crysx_microstructure_96_biases.npz (npz, 2522 bytes, 2 tensors)

arr_0 f4 [500]
0.0004629523 -0.014563297 -0.004431791 -0.00027636168 -0.0016642952 -0.014831248 0.0004659405 -0.017943809
-0.0027079794 -0.010756293 -0.0018009956 -0.017864037 -0.0018849602 -0.033163108 0.0021810797 -0.004211602
-0.0055468706 -0.041107044 -0.0044480446 -0.0035803895 -0.0007059799 0.0014459082 -0.0007398482 -0.008888251
-0.011898972 -0.0036053762 -0.03252869 -0.0034550775 0.002729565 0.0017631127 -0.0012796796 0.0021020856
-0.005687434 -0.0032658544 -0.0024555712 -0.004397935 -0.0050802883 0.001296617 0.0022890547 -0.009655086
-0.0065548057 -0.0012134485 -0.00012466277 0.0034508535 0.0006014811 0.00071184273 4.3001754e-05 0.0010527287
-0.0041552107 -0.0060499585 0.00065924035 -0.011878737 -0.018284881 -0.0024777332 -0.002503834 -0.0013567442
0.0011825258 -0.028837938 -0.011780101 -0.017835246 -0.0027674127 -0.018078895 0.0025195454 -0.0120147085
-0.016418224 -0.014551129 -0.0028197288 7.096317e-05 -0.0010451925 -0.010461523 -0.026300993 -0.02817935
-0.0029958284 -0.0069287173 -0.004419625 0.0010400859 -0.015745452 -0.0052798726 0.00032634282 -0.013724705
-0.0013031606 -0.002158849 -0.004904452 -0.0038645568 -0.022258556 -0.00047931029 -0.002907077 -0.03141512
-0.003251559 -0.0030302252 -0.016552407 -0.022766985 -0.0004045284 0.00027591514 -0.013671126 -0.0008444514
0.0012177351 -0.028921854 -0.0018445114 -0.00087569724 -0.00089090964 -0.025287047 0.0013596119 -0.024734894
-0.0014860312 -0.0036056645 -0.024034316 0.0015125426 -0.006646836 0.0021932719 -0.030747382 -0.004635482
7.958999e-05 0.0010362461 -0.0133131 -0.0044470704 -0.0076685376 0.002036445 -0.00065384165 -0.019206064
-0.016286526 0.0010879824 -0.0009983509 0.0024642504 -0.0027927745 -0.028269043 0.0015500464 -0.0040657884
-0.01791864 0.0006830523 0.0019557758 -0.00092130055 -0.03805223 -0.0016116179 0.00113863 0.00039315145
-0.00430782 -0.015883287 -0.005160832 -0.03294839 -0.004253772 0.0001838362 -0.0007286582 -0.011201166
-0.016453682 -0.0002690412 -0.028099926 0.0016338419 0.0014447037 0.00052778266 -0.021178348 -0.00027697615
0.00032394298 -0.02017276 -0.0060411706 -0.00049990934 0.0021115511 -0.021243231 -0.0053311544 -0.004730367
-0.045825187 -0.017363122 -0.01618319 -0.0067472043 -0.0042734817 -0.004819004 -0.008259981 -0.0027737608
-0.0007331416 0.0025746394 -0.040734112 0.00035447383 -0.011518303 -0.03310374 -0.0016607511 -0.015311559
-0.021585338 -0.000116466166 -0.003196497 -0.041103456 0.0011782969 -0.0008956488 -0.0116906185 0.00023070634
0.0024598804 -0.0055917795 -0.0012219743 -0.023265032 -0.016545521 -0.007469747 -0.006642927 0.00039167245
0.0020382283 0.00037153324 -0.006651906 -0.019742696 0.00070540805 -0.0038100248 0.0007913191 -0.04135133
0.0012583202 0.0025082598 -0.044128668 0.0013911523 -0.0009207304 0.0030716008 0.0013020972 0.0023961726
-0.0038804892 -0.014869496 -0.002706505 -0.012665437 0.0008244959 -0.029256394 -0.0027093517 -0.034787286
-0.014423076 -0.008642034 -0.0014128734 0.0010236364 -0.017508082 -0.00243331 0.0025158809 0.001278955
0.0012011976 -0.006365085 -0.0023894564 0.0013247863 -0.0096402755 0.0028060917 5.3947344e-05 -0.0045999656
-0.0045943987 0.0015691171 -0.018519294 -0.025393764 0.00077338854 0.0017291638 0.0024545237 0.0027015803
0.00028302163 -0.031832572 -0.005753381 -0.0009100209 0.00064614724 -0.009241958 -0.004047761 8.40067e-05
-0.0036668647 0.0029418422 -0.0028799775 0.0022180688 0.0012687334 -0.0031837262 -0.02875923 -0.0062921904
00000000: 68b8 f239 e59a 6ebc 8f38 91bb a3e4 90b9
00000010: 7b24 daba c3fe 72bc 7a49 f439 e5fe 92bc
00000020: 5b78 31bb 2a3b 30bc 620f ecba 9a57 92bc
00000030: c510 f7ba 0ad6 07bd 72f0 0e3b 7a01 8abb
00000040: 86c2 b5bb dc5f 28bd e7c0 91bb f8a4 6abb
00000050: 8211 39ba a184 bd3a 5ff2 41ba 07a0 11bc
00000060: e8f3 42bc 2d48 6cbb ce3c 05bd 956e 62bb
00000070: 80e2 323b 3f18 e73a ecba a7ba 25c3 093b
00000080: a85d babb f207 56bb a6ed 20bb 8d1c 90bb
00000090: 8c78 a6bb 3ff3 a93a f703 163b 5e30 1ebc
000000a0: b2c9 d6bb 930c 9fba e8b7 02b9 b727 623b
000000b0: b7ac 1d3a f59a 3a3a c85c 3438 b7fb 893a
000000c0: 6f28 88bb bb3e c6bb dfd0 2c3a 099f 42bc
000000d0: 2dca 95bc 7761 22bb 5d17 24bb c8d4 b1ba
000000e0: fbfe 9a3a 8a3d ecbc 5301 41bc 391b 92bc
000000f0: 7b5d 35bb 311a 94bc f51e 253b 57d9 44bc
00000100: 837f 86bc dc67 6ebc 33cb 38bb 10d2 9438
00000110: d7fe 88ba cf66 2bbc 2e75 d7bc 61d8 e6bc
00000120: a955 44bb 4b0a e3bb 80d2 90bb 7e53 883a
00000130: 9bfc 80bc c802 adbb fe18 ab39 96dd 60bc
00000140: d0ce aaba 7a7b 0dbb 86b5 a0bb 8144 7dbb
00000150: 9357 b6bc f04b fbb9 a984 3ebb 24ad 00bd
00000160: 1c18 55bb be96 46bb ea98 87bc d481 babc
00000170: e216 d4b9 b4a8 9039 dcfc 5fbc 2d5e 5dba
00000180: 699c 9f3a 86ed ecbc 88c3 f1ba 0c8f 65ba
00000190: ef8b 69ba c826 cfbc 0135 b23a d5a0 cabc
000001a0: efc6 c2ba 034d 6cbb 9de3 c4bc 8240 c63a
000001b0: b4cd d9bb ffbc 0f3b efe1 fbbc 3ee5 97bb
000001c0: 8de9 a638 a6d2 873a 301f 5abc bbb8 91bb
000001d0: 5b48 fbbb e175 053b 9266 2bba 0956 9dbc
000001e0: 526b 85bc a29a 8e3a 19db 82ba 437f 213b
000001f0: fb06 37bb 7b94 e7bc ed2a cb3a 4e3a 85bb
00000200: 1dca 92bc dd0e 333a 792c 003b 6f83 71ba
00000210: a8dc 1bbd ec3c d3ba 153e 953a e51f ce39
00000220: 9d28 8dbb ab1d 82bc 321c a9bb e4f4 06bd
00000230: 3a63 8bbb 27c4 4039 6d03 3fba 1885 37bc
00000240: dfc9 86bc 190e 8db9 d131 e6bc a326 d63a
00000250: 365c bd3a e55a 0a3a 377e adbc 1c37 91b9
00000260: e4d6 a939 5841 a5bc 03f5 c5bb 590c 03ba
00000270: f361 0a3b 4906 aebc f7b0 aebb 3201 9bbb
00000280: 31b3 3bbd 1b3d 8ebc 9c92 84bc a717 ddbb
00000290: 9008 8cbb bce8 9dbb df54 07bc fcc7 35bb
000002a0: 4d30 40ba 48bb 283b d0d8 26bd acd8 b939
000002b0: 44b7 3cbc ca97 07bd 8fad d9ba 55dd 7abc
000002c0: bcd3 b0bc 4c3f f4b8 527c 51bb 195c 28bd
000002d0: 1571 9a3a f9c9 6aba 028a 3fbc c3e9 7139
000002e0: f235 213b 3f3b b7bb a72a a0ba 4f96 bebc
000002f0: 798a 87bc c8c4 f4bb e9ac d9bb 6359 cd39
00000300: cc93 053b 59ca c239 3bf8 d9bb 6fbb a1bc
00000310: 22eb 383a 9cb1 79bb 8770 4f3a 0360 29bd
00000320: 38ee a43a 9e61 243b 43c0 34bd 5357 b63a
00000330: 2c5d 71ba e94c 493b 22ab aa3a 1b09 1d3b
00000340: ce4f 7ebb 309f 73bc 9e5f 31bb b182 4fbc
00000350: fc22 583a 1bab efbc 618f 31bb 1d7d 0ebd
00000360: c44e 6cbc 5197 0dbc 2a30 b9ba 8a2b 863a
00000370: 1c6d 8fbc 2b78 1fbb 7ae1 243b 9ca2 a73a
00000380: 8171 9d3a 3492 d0bb 6d98 1cbb 74a4 ad3a
00000390: 3ff2 1dbc 68e6 373b 8545 6238 4fbb 96bb
000003a0: 9c8c 96bb d5aa cd3a c6b5 97bc 9506 d0bc
000003b0: 3abd 4a3a 1ca5 e23a 13dc 203b ff0c 313b
000003c0: 8562 9439 df62 02bd dc86 bcbb 788e 6eba
000003d0: 3562 293a 956b 17bc 15a3 84bb c12c b038
000003e0: c84f 70bb eccb 403b 01be 3cbb 055d 113b
000003f0: a14b a63a 10a6 50bb 7a98 ebbc b82e cebb

arr_1 f4 [4]
0.11548183 -0.2872099 -0.082304135 0.25403157
00000000: bd81 ec3d 2d0d 93be 128f a8bd 6d10 823e
