examples/NN_crysx_mnist_plus_98.11_biases.npz (npz, 1570 bytes, 2 tensors)

arr_0 f4 [256]
0.0003057524 0.0008002638 -0.0039441823 0.010360746 0.013369661 0.0023596482 0.009828444 0.015275012
-0.002865102 -0.019310096 0.0026061293 -0.0017545413 0.003794292 0.0035510291 -0.0071500107 -0.010957091
0.0038587379 0.0070283273 0.017523544 -0.011296626 0.0056295856 -0.003478457 0.011329086 -0.016493708
0.012357949 0.00794991 -0.015007705 -0.005613097 0.0019006482 -0.004304759 -0.01294359 -0.0076534045
0.008540014 -0.0020198084 0.006081926 -2.2082852e-05 -0.013123126 0.0051296293 -7.51535e-05 0.0048904545
0.007277345 -0.0035099941 0.006217823 -0.003777608 -0.009843345 0.00096694735 0.009268712 -0.00046095287
-0.0039304863 0.0067641665 0.0010980109 0.003686235 0.006935485 -0.008668458 -0.009149369 -0.0051815053
0.006980748 -0.006631588 0.0004684211 -0.003908686 -0.0048732124 -0.004538097 0.008347731 -0.0019823015
-0.006733977 0.0019041118 -0.0017238916 0.004928315 -0.003220866 -0.012656396 0.007977541 0.0029828218
-0.02268236 0.010401959 -0.0055199093 0.0054284115 0.017235963 -0.013548918 0.00054618414 -0.005651411
0.005982487 -0.012945453 0.0032032826 0.007214066 0.0017090242 0.011836434 -0.015809918 -0.011916846
-0.012642066 0.0008718454 0.0066578416 -5.861459e-05 -0.0020301817 -0.005754703 -0.01833955 0.001384519
-0.010342189 0.00093741 -0.008401732 -0.012272815 -0.0019538826 0.011133971 -0.009351522 0.0028693886
-0.0020280613 -0.008357754 -0.024567349 -0.0064821476 -0.00898683 -0.0038079566 -0.009191365 -0.002586457
-0.0010762741 -0.008059242 0.0023615835 -0.002083468 -0.006242886 0.008102377 -0.0010818683 0.0043918495
0.0023899823 0.00062806124 -0.0022954955 -0.005692417 0.0018938398 -0.004948235 0.02331615 0.018210348
-0.007834988 0.0095748035 0.0039735474 0.003079231 0.0036412647 0.0028975608 -0.010828541 -0.006117641
-9.240335e-05 -0.0060357293 -0.0010110192 0.008381317 0.0003851291 -0.0145205315 0.0022554707 0.0015646596
-0.008382706 -0.0025978945 -0.019714683 -0.0058388626 -0.009859291 -0.007179805 -0.012370431 0.002710235
-0.0014565382 -0.007909596 -0.0065678605 0.00373687 -0.0056295353 -0.0019747782 -0.0019028048 0.0141184665
0.012069582 0.0006709035 -0.0061395997 0.0050163367 -0.0116386665 0.0015454475 0.014877641 0.0061868173
0.010253267 0.0030848691 0.0048126816 -0.011180963 0.00713292 0.0022692583 -0.0021684042 -0.013692594
-0.0008839821 -0.00819744 0.0014643999 -0.02689428 -0.009547879 -0.002030409 0.0013625142 -0.0014933494
0.004983018 -0.0036471062 -0.01687023 -0.01903264 0.0051736683 -0.005172917 -0.00030875788 0.005517739
-0.008803811 -0.0113488445 -0.0024432344 0.00649636 -0.008195786 -0.003250912 -0.016493337 -0.0028986994
0.005344598 -0.0069421185 0.0048433826 -0.0064689624 -0.0014630794 0.017497553 0.006796291 0.0047244234
-0.007900621 0.006618429 0.00532707 -0.008295244 -0.0034273078 0.003952398 0.010996365 -0.009615075
-0.0027742628 -0.012570113 0.009140289 -0.0022429202 -0.0257518 0.015436661 0.0042041875 -0.0009694166
-0.017145842 0.0073520187 0.004442843 -0.004052848 0.014155379 -0.005350356 -0.0076569174 -0.0077954214
-0.019980391 -0.012249464 -0.009325617 0.00092431 0.0031698414 0.007564703 -0.005619508 -0.005791193
0.009304829 -0.016196003 -0.0047241966 0.00546443 0.0038101694 0.0014721263 -0.00797627 0.0010042826
-0.0019624426 -0.0022058804 -0.0034982022 0.0070796954 0.008872446 0.0009593017 0.005940981 -0.008360665
00000000: 644d a039 cbc8 513a 333e 81bb 1ec0 293c
00000010: 6c0c 5b3c 54a4 1a3b 7b07 213c 0b44 7a3c
00000020: 6fc4 3bbb 3530 9ebc 98cb 2a3b a3f8 e5ba
00000030: a8a9 783b 62b8 683b a34a eabb 5f85 33bc
00000040: e1e2 7c3b e24d e63b 898d 8f3c 7c15 39bc
00000050: 6378 b83b d3f6 63bb a19d 393c d01d 87bc
00000060: ff78 4a3c 5740 023c e1e2 75bc 12ee b7bb
00000070: 2c1f f93a f00e 8dbb 5a11 54bc 69c9 fabb
00000080: 6aeb 0b3c c35e 04bb e54a c73b 903e b9b7
00000090: 6102 57bc 7316 a83b ba9b 9db8 1b40 a03b
000000a0: cb76 ee3b ee07 66bb e1be cb3b bf91 77bb
000000b0: fb45 21bc bd7a 7d3a ccdb 173c 0cac f1b9
000000c0: 4fcb 80bb f1a5 dd3b 22eb 8f3a c394 713b
000000d0: 1143 e33b 2606 0ebc 3ce7 15bc 9ec9 a9bb
000000e0: c2be e43b cb4d d9bb 6a96 f539 6f14 80bb
000000f0: 78af 9fbb 51b4 94bb ecc4 083c 80e9 01bb
00000100: b1a8 dcbb 6493 f93a 34f4 e1ba b47d a13b
00000110: 2a15 53bb c65c 4fbc 3bb4 023c 727b 433b
00000120: 5bd0 b9bc fa6c 2a3c 5be0 b4bb d1e0 b13b
00000130: 6f32 8d3c 48fc 5dbc cc2d 0f3a 792f b9bb
00000140: bd08 c43b 2a19 54bc 2aee 513b f963 ec3b
00000150: 5601 e03a 9aed 413c cd83 81bc e03e 43bc
00000160: ab20 4fbc 8e8c 643a 062a da3b f0d8 75b8
00000170: cc0c 05bb f391 bcbb d33c 96bc c078 b53a
00000180: 4972 29bc 85bc 753a 6ba7 09bc eb13 49bc
00000190: b60c 00bb 426b 363c 2037 19bc 5a0c 3c3b
000001a0: 39e9 04bb f6ee 08bc 7741 c9bc 3268 d4bb
000001b0: 7f3d 13bc e98e 79bb 6197 16bc 8c81 29bb
000001c0: c411 8dba e90a 04bc ccc4 1a3b cb8a 08bb
000001d0: 2091 ccbb d5bf 043c 7acd 8dba 81e9 8f3b
000001e0: 40a1 1c3b 7aa4 243a 0670 16bb 7487 babb
000001f0: b83a f83a ce24 a2bb 8301 bf3c de2d 953c
00000200: 525e 00bc a3df 1c3c 8834 823b eccc 493b
00000210: 49a2 6e3b 01e5 3d3b 316a 31bc 7e76 c8bb
00000220: acc8 c1b8 5ec7 c5bb 2d84 84ba cb51 093c
00000230: 27eb c939 86e7 6dbc 85d0 133b 4415 cd3a
00000240: 9e57 09bc 7041 2abb b080 a1bc ee53 bfbb
00000250: dd88 21bc 9244 ebbb 59ad 4abc 339e 313b
00000260: 50e9 beba 4097 01bc 3537 d7bb 46e6 743b
00000270: f777 b8bb 486b 01bb 8967 f9ba 2451 673c
00000280: 7fbf 453c 92df 2f3a b22e c9bb 1560 a43b
00000290: 1bb0 3ebc 9d90 ca3a 59c1 733c c9ba ca3b
000002a0: 52fd 273c 842b 4a3b b3b3 9d3b 5c30 37bc
000002b0: 45bb e93b d6b7 143b c91b 0ebb e756 60bc
000002c0: 09bb 67ba 8e4e 06bc 1bf1 bf3a 6551 dcbc
000002d0: b56e 1cbc 9c10 05bb 6496 b23a 7ebc c3ba
000002e0: 9648 a33b 4a04 6fbb 7033 8abc 57ea 9bbc
000002f0: e087 a93b 9381 a9bb c8e0 a1b9 26ce b43b
00000300: dc3d 10bc 81f0 39bc ac1e 20bb 6bdf d43b
00000310: 9e47 06bc 410d 55bb 091d 87bc 1bf8 3dbb
00000320: bd21 af3b b67a e3bb 3db5 9e3b 97f9 d3bb
00000330: ccc4 bfba 0757 8f3c 6cb3 de3b 56cf 9a3b
00000340: 9b71 01bc 68df d83b b48e ae3b c6e8 07bc
00000350: af9c 60bb 1e83 813b 192a 343c 8c88 1dbc
00000360: 68d0 35bb e0f2 4dbc 27c1 153c f5fd 12bb
00000370: 70f5 d2bc 0dea 7c3c 48c3 893b 7220 7eba
00000380: 7075 8cbc 34e9 f03b 4595 913b c1cd 84bb
00000390: f6eb 673c 0a52 afbb e1e6 fabb bc70 ffbb
000003a0: ebad a3bc fab1 48bc 79ca 18bc 654d 723a
000003b0: 1dbd 4f3b 54e1 f73b da23 b8bb 0cc4 bdbb
000003c0: 4873 183c 7bad 84bc 6fcd 9abb f60e b33b
000003d0: 09b4 793b 5df4 c03a e7ae 02bc 22a2 833a
000003e0: 539c 00bb 8890 10bb 1842 65bb cafc e73b
000003f0: bc5d 113c a679 7b3a 90ac c23b 2cfb 08bc

arr_1 f4 [10]
-0.04433466 -0.06652755 -0.061767265 -0.031308245 0.033544872 -0.04425269 -0.021690974 -0.10222595
0.28401217 0.054547176
00000000: 4398 35bd 993f 88bd acff 7cbd 133d 00bd
00000010: 5966 093d 4f42 35bd 45b1 b1bc d75b d1bd
00000020: 0b6a 913e dc6c 5f3d
