examples/NN_crysx_microstructure_96_biases.npz (npz, 2522 bytes, 2 tensors)

arr_0 f4 [500]
0.003171095 0.0037131482 -0.01361931 -0.0035980209 0.0026173445 -0.0070743067 -0.007551331 -0.01931629
0.004218935 0.00532618 -0.011456251 -0.0028437397 0.0040802895 -0.010505799 0.0008903816 0.0011920644
-0.0012038016 -0.009807259 -4.249573e-05 -0.004126878 0.0013436826 -0.0070789633 0.005652382 0.0002251652
0.0043906583 -0.001852077 0.0011589037 0.003071469 -0.01076177 -0.00038394023 0.0026244123 -0.002701411
-0.0036884574 -0.0074414997 0.0030581078 0.0030214025 -0.0007026414 0.0013975167 -0.00021589156 0.0055667027
-0.008556727 -0.0025398587 0.003938155 0.00069675554 0.0014707586 0.0069126273 -0.005167128 0.004812483
-0.0030445731 0.0023591055 0.0038804414 0.0009917616 0.0038401617 0.0041918317 0.0027350422 -0.015329437
-0.006638139 -0.0028424321 0.003058447 0.0031432179 0.0030740167 -0.0010417766 0.004384595 -9.6542615e-05
-0.007967096 -0.010162803 0.0030000946 0.0029701472 0.0046036327 -0.011017934 -0.0055469335 -0.015834708
-0.0028935121 0.0050270646 -0.00945237 0.0012076608 0.003557655 0.000722792 -0.011365712 -0.0034754695
-0.00704611 0.0024749795 -0.0032477584 0.00021330587 -0.003240934 -0.00058000797 -0.0016234099 0.0059919325
0.0030961384 0.0044055753 -0.014178881 0.004324755 -0.0063948403 -0.009475923 -0.0042073657 -0.0073505007
-0.00071261835 0.0021913447 0.0013072903 0.004052531 -0.0071757506 -0.0012125255 -0.01995596 -0.004134612
-0.0011548437 -0.0074204467 0.004452529 0.0043068384 -0.0011021959 0.0048798663 0.0017171318 0.0035380558
-0.010564505 -0.0040486874 -0.0048073907 0.0021909054 -0.007673872 -0.00080030086 -0.00020361271 0.0018241871
-0.015005799 -0.008467416 -0.013414771 -0.0039837016 0.0026114602 0.0003597865 -0.0073178643 -0.00173552
0.0045013907 0.0023570154 -0.0009645969 -0.0057230443 -0.0010919722 -0.0006284247 0.0043648374 0.002720498
0.000392087 -0.0003274331 -0.005373311 -0.0073409746 -0.014406793 0.0016583044 0.0034003563 -0.020537663
0.00681377 0.004875321 -0.0063014906 0.004285676 0.0027343915 0.0003227877 0.00048651398 -0.0012481301
0.0039497605 0.0049866037 0.0003015064 0.0035265184 0.0038427035 0.002470448 -0.0015145362 0.005709497
0.002734511 0.0016079088 0.0023524787 0.003714801 0.0037881148 -0.005560818 0.0031921377 0.005414848
0.0031015065 -0.004883422 -0.0021826094 -0.011614731 -0.0044632694 -0.0015946439 0.0045866235 0.0007414643
0.00077866064 0.004129385 0.004489835 -0.0028367552 -0.0124941785 0.001905913 0.0037096625 0.0027903267
0.0037508828 -1.5362728e-05 0.00034865225 0.0041950177 0.004149583 0.0010252533 -0.004833162 -0.0036696608
0.0030038722 -0.0017558761 -0.00024031004 -0.008055877 -0.0012410512 -0.0022823738 0.0026383384 0.005642702
-0.012559299 -0.0021518038 -0.00092369877 -0.00072939496 0.00075174624 0.0026877571 -0.0051580155 0.0057508596
-0.0023847772 -0.013132609 0.0048894314 -0.011439246 0.004466284 -0.0014543872 0.0018328746 0.0040445696
0.00075458613 -0.010217822 -0.006771021 -0.014743222 0.002759577 0.0054739653 -0.014558882 0.0035765271
0.005127907 0.0065033464 0.004107989 -0.005417418 0.004900518 -0.002939645 -0.004637635 0.0030548885
0.0034655817 -0.013293995 0.0030620755 -0.011284749 -0.015222847 -0.00506662 0.002710332 -0.010128052
-0.018283112 0.005167768 -0.00709593 -0.014020287 0.001556519 -0.0040312735 0.0010954444 -0.010276097
-0.0052841497 -0.004908493 -0.015715856 -0.009893526 0.0034235336 0.0012720987 -0.0001000395 -0.0029023248
00000000: 25d2 4f3b 4a58 733b 8723 5fbc c6cc 6bbb
00000010: c187 2b3b 96cf e7bb 2871 f7bb 323d 9ebc
00000020: fe3e 8a3b 3c87 ae3b 00b3 3bbc 095e 3abb
00000030: f3b3 853b 8420 2cbc 7f68 693a 0b3f 9c3a
00000040: e1c8 9dba a0ae 20bc 713d 32b8 c33a 87bb
00000050: 821e b03a a6f6 e7bb 9e37 b93b 531a 6c39
00000060: 83df 8f3b 64c1 f2ba 5be6 973a b34a 493b
00000070: 2352 30bc 964b c9b9 55fe 2b3b 280a 31bb
00000080: 0cba 71bb d3d7 f3bb 896a 483b b902 463b
00000090: 7731 38ba e12c b73a f360 62b9 e368 b63b
000000a0: 8431 0cbc c273 26bb a30b 813b 79a6 363a
000000b0: 78c6 c03a 5283 e23b 0351 a9bb 09b2 9d3b
000000c0: 7687 47bb 399b 1a3b 014f 7e3b fffd 813a
000000d0: 39ab 7b3b a25b 893b 653e 333b 5228 7bbc
000000e0: bf84 d9bb 1948 3abb 3a70 483b 72fe 4d3b
000000f0: 7175 493b 398c 88ba a6ac 8f3b ec76 cab8
00000100: 6c88 02bc e381 26bc 3c9d 443b cda6 423b
00000110: 12da 963b 9184 34bc 0dc3 b5bb cab7 81bc
00000120: 14a1 3dbb 13ba a43b 1dde 1abc 5f4a 9e3a
00000130: 8c27 693b c079 3d3a 4037 3abc b4c4 63bb
00000140: 0ee3 e6bb 4433 223b 58d8 54bb dcaa 5f39
00000150: da65 54bb ad0b 18ba 99c8 d4ba f957 c43b
00000160: 95e8 4a3b a55c 903b 8a4e 68bc adb6 8d3b
00000170: cf8b d1bb e740 1bbc f1dd 89bb 78dc f0bb
00000180: 02cf 3aba aa9c 0f3b 6259 ab3a 18cb 843b
00000190: 8f22 ebbb 9bed 9eba ae7a a3bc a47b 87bb
000001a0: 205e 97ba 3827 f3bb 85e6 913b 6120 8d3b
000001b0: 8f77 90ba 49e7 9f3b 6211 e13a bade 673b
000001c0: bf16 2dbc daaa 84bb 5187 9dbb 4b95 0f3b
000001d0: 1b75 fbbb 48cb 51ba df80 55b9 9019 ef3a
000001e0: e2da 75bc ebba 0abc a1c9 5bbc b689 82bb
000001f0: 0825 2b3b baa1 bc39 b2ca efbb 637a e3ba
00000200: 6780 933b 2878 1a3b 01dd 7cba 6088 bbbb
00000210: 8220 8fba debc 24ba e906 8f3b 624a 323b
00000220: 0791 cd39 54ab abb9 9a12 b0bb 8f8c f0bb
00000230: 780a 6cbc 765b d93a 83d8 5e3b 9a3e a8bc
00000240: 0c46 df3b 28c1 9f3b bc7c cebb db6e 8c3b
00000250: 7a33 333b d53b a939 cd12 ff39 4c98 a3ba
00000260: fe6c 813b aa66 a33b 8113 9e39 291d 673b
00000270: ded5 7b3b 3de7 213b 6783 c6ba bb16 bb3b
00000280: 7b35 333b 77c0 d23a 0b2c 1a3b 0574 733b
00000290: 0542 783b 8637 b6bb 2f33 513b 0a6f b13b
000002a0: a542 4b3b 1d05 a0bb 1c0a 0fbb b64b 3ebc
000002b0: 9e40 92bb 5f03 d1ba 634b 963b d45e 423a
000002c0: 081f 4c3a cb4f 873b 771f 933b dbe8 39bb
000002d0: 62b4 4cbc d4cf f93a cf1d 733b eadd 363b
000002e0: 5fd1 753b 35df 80b7 50cb b639 5c76 893b
000002f0: 3af9 873b cb61 863a 805f 9ebb b17e 70bb
00000300: 9ddc 443b 6d25 e6ba bcfb 7bb9 ccfc 03bc
00000310: c5aa a2ba e193 15bb f9e7 2c3b 6ae6 b83b
00000320: 85c5 4dbc 4705 0dbb 6024 72ba de34 3fba
00000330: d610 453a 1525 303b 9204 a9bb b571 bc3b
00000340: ec49 1cbb 282a 57bc 8637 a03b ad6b 3bbc
00000350: e859 923b 23a1 beba 113d f03a 4f88 843b
00000360: 6bcf 453a a768 27bc 71df ddbb 8e8d 71bc
00000370: 05da 343b f35e b33b 6188 6ebc 2b64 6a3b
00000380: 0008 a83b 061a d53b 4f9c 863b 9984 b1bb
00000390: 8694 a03b 0fa7 40bb 4df7 97bb 8634 483b
000003a0: d01e 633b 0ecf 59bc 1aad 483b abe3 38bc
000003b0: 4069 79bc e405 a6bb d39f 313b 21f0 25bc
000003c0: 77c6 95bc 6156 a93b fa84 e8bb 59b5 65bc
000003d0: 1c04 cc3a c618 84bb 0495 8f3a 135d 28bc
000003e0: a926 adbb 6cd7 a0bb 8abe 80bc 7518 22bc
000003f0: 5d5d 603b 8dbc a63a 4ccc d1b8 ee34 3ebb

arr_1 f4 [4]
0.070731565 -0.15884481 -0.043001566 0.13111487
00000000: b6db 903d 37a8 22be 6922 30bd fa42 063e
