examples/NN_crysx_microstructure_96_biases.npz (npz, 2522 bytes, 2 tensors)

arr_0 f4 [500]
00000000: 34b2 cd3b a054 dfbb 6d9a 103b 560d 393a
00000010: a3b0 5d3b 51f3 09bc 13b5 a23b ad1c 1dbc
00000020: 84d4 8c3b 8477 cabb 3fd3 473a 5284 0fbc
00000030: 7014 af3a fd57 67bc 23eb a53b cec9 3c3b
00000040: bd4f 94bb 06b5 a8bc 235f 5a3b 925c 003b
00000050: f1c8 603b 2a6b 833b 56b3 983b 9aec 3abb
00000060: ccae 1ebb 49bb f839 18cd 9cbc 058a 24bb
00000070: 7c0b 533b 85e2 123b 8e6d 7839 90fb 123b
00000080: 9ab7 5f3b 8415 d739 ffa6 a6bb 3b3f 253b
00000090: b91b a2bb 75d0 1dba 81bd a23b bd1c b0b8
000000a0: 3a82 f1ba 0883 683b 08ca 2bbb db16 0f3b
000000b0: f4be 47ba 81c3 af3b 8844 a23b 0632 da3a
000000c0: 732d 103b a52a e03a cf73 983b fcf7 16bc
000000d0: fd13 0abc 3128 bbba aea7 83ba fccb 663b
000000e0: 0b65 b33b 451a 68bc 1c52 d1bb e9d9 12bc
000000f0: bacb 493b 2fce 0fbc cc8b 8f3a fa55 69bb
00000100: 390f 92bb f0aa 07bc 863f 63b9 8f3c a53b
00000110: be34 973b f519 3db9 7452 6bbc 42d5 64bc
00000120: d199 5f3b 2391 9dbb bfa6 af3b 45eb f439
00000130: e658 f7bb a6ee 0b3b a361 33bb ff74 f7bb
00000140: 2899 763b 29e4 993b 4a09 5a3b 96eb 153b
00000150: 9b18 05bc c1f6 233a ef30 2f3b 0f96 3cbc
00000160: 25d9 8f3a 1184 5c3a c00b 95bb 34cd 10bc
00000170: 8481 daba 17a5 8a3b 617c a2bb 5666 c03b
00000180: c843 853b b2b8 61bc fc07 943b d6e2 93b9
00000190: 677c 3e3b 302d 03bc be81 1e3b 522a 40bc
000001a0: 001d 153b ba8c 873b e540 46bc f396 6b3b
000001b0: 77fc 3abb 92ee 903b 37b4 62bc a9d0 8639
000001c0: 8d56 c93a d82d 803b 15ca 46bb 3f36 273b
000001d0: 4045 5039 b732 353b 19a6 dc3a 1203 06bc
000001e0: 2c9a e6bb 173c 133b eee2 2ebb ace2 1f3b
000001f0: 24f8 dbba 8364 2ebc 3a59 813b 9339 9b3b
00000200: 775c 11bc 8203 8e3b 3fbb 01ba fdea e0b9
00000210: cf1d a5bc 4678 a13b 64f1 8c3b da22 f7b9
00000220: 2a7a 0bbb 4deb 55bc 83fe 573b 0309 23bc
00000230: c481 203b 412a 7c3a 8f8c ce3a 008f 43bc
00000240: 86cd d3bb 608a 563b f89b 85bc 139d 0cb8
00000250: 65ed 2739 1571 723a f722 3bbc a33c f0ba
00000260: 67e9 be3b c5df 02bc 9cf1 12ba 00f0 ce3b
00000270: 6265 793b d4c2 08bc f9bd 6b3a 1b87 f63a
00000280: 91a2 b5bc 3c52 13bc bf92 87bb 5eac f13a
00000290: 1e16 89ba f693 2fba c51f 7b3a 0694 26ba
000002a0: 68fc 923a 357d 553a 78e7 8dbc 82e7 933b
000002b0: 032b 80bb a98a 5fbc ccd2 453b b160 43bb
000002c0: 3e86 1dbc 6836 6f3a 6b8d 423b ac7f a2bc
000002d0: 2218 6bba 6624 443b 9f20 ddbb 6dee 733b
000002e0: b060 963b 20d9 0e3b c868 2bbb b268 1abc
000002f0: 5e3a abbb 0627 4739 3e88 4dbb cd96 4bba
00000300: 9b8b b23b f650 c83b 1655 8939 409c 72bc
00000310: 3d35 843b 4d7e e6ba f64d 133b 9033 74bc
00000320: b803 cd3a f75a c43b 11dd b3bc 1904 e33a
00000330: 80a7 9c3b 7d85 a13b ee03 983b f77b 4e3b
00000340: 4ff9 a339 9c99 0abc fff7 af3a 81e4 70bb
00000350: 4023 283b 2137 6bbc de04 bd3b 1c46 60bc
00000360: db89 76bb 383b 6b3b 3995 843b 7eb3 9c3b
00000370: 9852 2ebc 0f80 1d3b ac70 033b 7fca dd3a
00000380: c64b 653b cf7b 24bb 9c38 b93b dcf3 093b
00000390: f23b 1f3a 1dd5 d53a 44ec 953b 6ac6 3d3a
000003a0: 5181 9dba f217 df3a 706c 7cbb d401 4ebc
000003b0: bbb8 3f3b 4af2 583b 2e82 983b 5c79 6e3b
000003c0: cc7d 923b 6e46 72bc 8f6a bb3a e27e a33b
000003d0: cac9 4d3b fef5 a1ba c127 2eba 4f47 bd3a
000003e0: dd6d 873a 5142 5a3b 84ef 79bb fa7a 353b
000003f0: c1a4 a83a 0ced 8b3b bec6 4dbc cca9 df3b
0.006277347 -0.006815508 0.0022064701 0.0007059177 0.0033827208 -0.008419828 0.0049654334 -0.009589356
0.004297795 -0.006178798 0.00076227257 -0.008759575 0.0013357531 -0.014120099 0.005063431 0.0028806808
-0.004526107 -0.020594131 0.0033320866 0.0019586426 0.0034299458 0.0040105777 0.0046600504 -0.0028522373
-0.0024213074 0.00047441784 -0.019140765 -0.002510668 0.003220289 0.0022412848 0.00023691935 0.0022427775
0.0034136535 0.00041024026 -0.0050858255 0.002521469 -0.0049471525 -0.0006020137 0.0049664383 -8.397687e-05
-0.0018425651 0.0035478491 -0.002621295 0.0021833691 -0.0007619702 0.005363882 0.004952017 0.0016646988
0.0021999746 0.0017102553 0.0046524773 -0.0092143975 -0.008427617 -0.0014278946 -0.0010044479 0.00352168
0.0054746917 -0.014166419 -0.006387962 -0.008963087 0.0030791597 -0.008777185 0.0010951697 -0.0035604225
-0.004457381 -0.008280501 -0.00021672071 0.0050426195 0.0046144417 -0.00018034114 -0.01436292 -0.01396686
0.0034118781 -0.0048085614 0.005360454 0.00046714596 -0.0075484393 0.0021351962 -0.0027371428 -0.007551789
0.003762791 0.0046963883 0.0033269697 0.0022876016 -0.008123542 0.0006254726 0.0026732048 -0.011510386
0.0010974748 0.00084120134 -0.00454852 -0.008837987 -0.0016670679 0.004231106 -0.004958675 0.0058715744
0.004066918 -0.013776945 0.0045175534 -0.0002820703 0.0029065849 -0.008006379 0.002418622 -0.01172884
0.002275288 0.004136649 -0.012100433 0.0035948127 -0.0028531828 0.004422971 -0.013836912 0.00025713936
0.0015360877 0.003911715 -0.0030332853 0.002551451 0.00019862223 0.0027648637 0.0016834169 -0.008179443
-0.0070374217 0.0022466236 -0.0026685554 0.0024396582 -0.0016782326 -0.010644081 0.003947404 0.004737088
-0.008872143 0.0043339143 -0.00049488613 -0.0004289969 -0.020155815 0.004927668 0.004301237 -0.00047137478
-0.0021282532 -0.013056588 0.0032958097 -0.009950879 0.002449141 0.00096193334 0.0015758442 -0.011935949
-0.0064637093 0.0032736287 -0.016309723 -3.3524888e-05 0.00016014797 0.0009248418 -0.0114219105 -0.0018328618
0.0058261636 -0.007987921 -0.00056054606 0.0063152313 0.0038054814 -0.008347232 0.00089928467 0.0018808575
-0.022172244 -0.008991774 -0.0041373665 0.001843821 -0.0010458862 -0.0006697768 0.0009579624 -0.00063544547
0.0011214139 0.00081439625 -0.017322287 0.004513682 -0.0039113774 -0.013643899 0.003018546 -0.0029812271
-0.009614525 0.00091252336 0.0029686342 -0.01983627 -0.00089681346 0.0029928922 -0.0067482735 0.003722097
0.0045891628 0.0021796897 -0.0026154984 -0.009424375 -0.005225464 0.00018992656 -0.0031361724 -0.00077663065
0.005448771 0.006113167 0.0002619407 -0.014807761 0.004034667 -0.0017585248 0.0022476888 -0.014904872
0.0015641367 0.005992289 -0.021955999 0.0017319947 0.0047807097 0.004929243 0.0046391403 0.0031506994
0.00031275532 -0.008459475 0.0013425349 -0.0036757293 0.0025655776 -0.0143564055 0.0057684025 -0.01368859
-0.003761879 0.0035893451 0.004046109 0.0047821393 -0.010639809 0.0024032628 0.0020056171 0.001692131
0.0034987791 -0.002509821 0.0056525003 0.0021049893 0.0006074301 0.0016314123 0.004575284 0.0007239344
-0.0012016689 0.0017020686 -0.0038516782 -0.012573678 0.0029254395 0.00331034 0.0046541905 0.0036388254
0.0044705626 -0.0147873 0.0014298725 0.004989491 0.0031400793 -0.0012356637 -0.0006643497 0.0014440807
0.0010332424 0.0033303688 -0.0038137147 0.0027691708 0.0012866483 0.0042702015 -0.012559591 0.0068256613

arr_1 f4 [4]
00000000: 53fc 873d db8a 20be ac51 14bd 17a1 013e
0.06639924 -0.15677969 -0.0362107 0.12659107
