examples/NN_crysx_microstructure_96_biases_cupy.npz (npz, 2522 bytes, 2 tensors)

arr_0 f4 [500]
-0.000691948 -0.015938303 0.00074489537 -0.04194223 -0.003175649 -0.010314668 -0.0057283323 -0.0002287711
-0.03239515 -0.0024533044 -0.005827207 -0.018126192 0.001019734 0.0013556328 -0.01818379 0.0016985327
0.0013084967 -0.03415594 -0.0012074416 -0.0036722496 -0.0016925685 -0.009335446 0.0019906254 0.00056949793
-0.0021834134 -0.001048699 -0.0028267498 -0.024664879 0.0012122176 0.0021653932 -0.025128622 -0.013562233
-0.036004692 -0.023854641 -0.0481065 -0.008050861 0.001895264 -0.004941357 0.0014293971 -0.0007432101
-0.0024741618 0.002464062 -0.009707667 -0.0068034087 -0.042561017 -0.0002909778 -0.01879173 -0.018555967
-0.006420671 0.0013054351 -0.0026285204 0.0011698328 -0.0017477454 -0.013085593 0.0005844425 0.0012448409
-0.032453295 -0.030393362 -0.009723107 -0.005916165 -0.0032829007 0.0018436364 -0.011724556 0.003163109
-0.0014431415 0.0014321611 -0.005905895 0.0009001352 -0.00069762993 -0.0039028062 0.0019146245 -0.024087496
0.0009674763 -0.0010719966 -0.027648205 -0.0023272827 -0.0019954338 -0.005749579 -0.004046677 -0.0027849616
-0.043753557 0.0016256178 0.0023583889 -0.00093126233 0.00080462813 -0.00580728 -0.002028737 0.0028740696
-0.0036801235 -0.0018578339 -0.009541746 0.0030320669 0.0023895025 -0.007806494 0.00034903694 0.00023440618
-0.004336181 -0.0050324327 -0.008428068 -0.005499711 -0.016077496 -0.017760046 -0.010649584 0.0013887489
-0.0047033555 -0.014051158 -0.008680947 -0.0052543357 0.00165849 -0.0025885894 -0.02099081 -0.012987756
-0.007600026 -0.014818789 -0.006531426 0.0014506556 0.0021327732 0.0018000064 0.0020310301 -0.004026315
0.0012710766 -0.009293667 0.00082263537 -0.0025025043 -0.023823632 0.0015456012 -0.023384437 8.439851e-05
-0.0008773546 -0.00010985655 0.0017271735 0.00047876185 -0.013778856 -0.011344153 -0.00032648753 -0.014846098
-0.016675115 -0.008638499 -0.002582478 -0.00036197863 0.0011094782 -0.00064889126 -0.020811478 0.002175056
-0.014116158 7.729822e-05 -0.009744186 0.00031616024 -0.0039360938 -0.002648827 -0.022365015 -0.005567007
0.0025167484 -0.006977496 -0.0048686513 -0.01603858 -0.020891331 -0.010527721 -0.0021409134 -0.0027380788
-0.043718737 -0.0018338346 -0.0019251085 -0.014661762 0.0019002642 0.000856767 -0.00691052 -0.0005441559
-0.0019045501 -0.0011542521 0.0018599865 -0.0051072026 -0.004274589 0.00033829742 -0.002597435 0.0005568177
-0.043884914 -0.0024708686 -0.013925262 -0.0048503815 -0.0037150776 -0.010164644 -0.0025135234 -0.015255345
-0.00059567747 0.00048008744 -0.00032346282 -0.009813038 0.002781142 0.0023565202 -0.0019680236 -0.042263288
-0.00765253 0.0018401545 0.0012319753 -0.0003594853 -0.017751906 -0.0014486365 -0.018609688 -0.0031760798
-0.00010427888 -0.01398658 -0.00860571 0.00027419155 -0.0018343757 -0.0014270702 -0.004265621 -0.019627424
-0.030448372 0.0005289349 -0.02381304 -0.0045256605 -0.0019337032 -0.027185852 -0.0361435 0.00136983
-0.0012921959 -0.027254652 -0.022064537 0.0009424974 -0.01300804 0.0009140769 0.00090915593 0.00169687
0.0038655894 -0.011572717 -0.0038410884 0.0014695259 0.0027272014 0.00071997417 -0.0035006178 -0.0066052885
-0.01808658 -0.005816853 -0.023512349 -0.011492931 0.0013394312 -0.0011723773 -0.0020593903 0.0027146323
-0.005495679 -0.0031133262 0.00063363137 -0.0029554951 7.971047e-05 -0.0032029 -0.0006243461 0.0020493497
-0.0018772744 -0.0018688472 0.00020871314 0.00066203997 0.00033848145 0.002817559 0.0012094708 -0.0021400081
00000000: d863 35ba 0b91 82bc 1545 433a 9ecb 2bbd
00000010: 8d1e 50bb dafe 28bc bcb4 bbbb 46e2 6fb9
00000020: c7b0 04bd 9ec7 20bb 28f2 bebb 617d 94bc
00000030: 98a8 853a 7daf b13a 2cf6 94bc 4da1 de3a
00000040: dd81 ab3a 19e7 0bbd 0443 9eba 20aa 70bb
00000050: 2dd9 ddba b3f3 18bc 2775 023b 5c4a 153a
00000060: 9917 0fbb 8074 89ba fe40 39bb 000e cabc
00000070: 46e3 9e3a 45e9 0d3b 8ada cdbc 2134 5ebc
00000080: a879 13bd cf6a c3bc 520b 45bd c2e7 03bc
00000090: 826a f83a 1beb a1bb 9c5a bb3a fcd3 42ba
000000a0: 8c25 22bb 1a7c 213b e80c 1fbc 21ef debb
000000b0: 7654 2ebd 618e 98b9 1df1 99bc af02 98bc
000000c0: 7e64 d2bb 221b ab3a 4143 2cbb 1355 993a
000000d0: 9b14 e5ba f464 56bc 4635 193a ee29 a33a
000000e0: bfed 04bd 80fb f8bc ab4d 1fbc 64dc c1bb
000000f0: ef25 57bb 2ca6 f13a 5a18 40bc 2a4c 4f3b
00000100: cb27 bdba 5ab7 bb3a 3d86 c1bb 0df7 6b3a
00000110: 27e1 36ba 39c6 7fbb 23f4 fa3a 2453 c5bc
00000120: 3c9e 7d3a 3d82 8cba 7d7e e2bc 5385 18bb
00000130: d3c5 02bb f766 bcbb fd99 84bb e783 36bb
00000140: ee36 33bd af12 d53a 338f 1a3b f51f 74ba
00000150: aeed 523a ff4a bebb 8ff4 04bb e35a 3c3b
00000160: 3a2e 71bb 9082 f3ba fc54 1cbc a4b5 463b
00000170: 3399 1c3b 9ecd ffbb f2fe b639 eeca 7539
00000180: 8616 8ebb 1be7 a4bb e115 0abc eb36 b4bb
00000190: f4b4 83bc 847d 91bc 987b 2ebc ae06 b63a
000001a0: 9b1e 9abb d436 66bc 883a 0ebc 902c acbb
000001b0: b161 d93a 53a5 29bb ebf4 abbc 99ca 54bc
000001c0: a409 f9bb 82ca 72bc 9305 d6bb ed23 be3a
000001d0: ffc5 0b3b 31ee eb3a 081b 053b 2eef 83bb
000001e0: 419a a63a 7744 18bc 20a6 573a 0e01 24bb
000001f0: c729 c3bc c595 ca3a b890 bfbc 1bff b038
00000200: 45fe 65ba c962 e6b8 5362 e23a 5402 fb39
00000210: b6c0 61bc d4dc 39bc 6a2c abb9 0c3d 73bc
00000220: 409a 88bc 7e88 0dbc cb3e 29bb f3c7 bdb9
00000230: e96b 913a 5b1a 2aba d57c aabc 628b 0e3b
00000240: 7547 67bc 2a1b a238 14a6 1fbc 4fc2 a539
00000250: 59fa 80bb f197 2dbb d636 b7bc 716b b6bb
00000260: 08f0 243b 7ba3 e4bb 3589 9fbb 5763 83bc
00000270: 4c24 abbc 767c 2cbc 914e 0cbb 5771 33bb
00000280: 6b12 33bd 475d f0ba ec53 fcba e337 70bc
00000290: 4912 f93a a998 603a a571 e2bb afa5 0eba
000002a0: 19a2 f9ba 464a 97ba caca f33a 525a a7bb
000002b0: da11 8cbb 835d b139 ba39 2abb 67f7 113a
000002c0: abc0 33bd 4cee 21bb c826 64bc f3ef 9ebb
000002d0: a978 73bb 9b89 26bc edb9 24bb 8ef1 79bc
000002e0: 3d27 1cba 3fb4 fb39 7296 a9b9 ddc6 20bc
000002f0: d243 363b d96f 1a3b f5f9 00bb 451c 2dbd
00000300: 13c2 fabb 5731 f13a 3b7a a13a 4d79 bcb9
00000310: 726c 91bc 2de0 bdba 5873 98bc c725 50bb
00000320: 4cb0 dab8 f827 65bc f7fe 0cbc 5ec1 8f39
00000330: 6f6f f0ba 880c bbba 9fc6 8bbb b1c9 a0bc
00000340: dd6e f9bc 38a8 0a3a 9113 c3bc fe4b 94bb
00000350: 5074 fdba ddb4 debc 350b 14bd de8b b33a
00000360: e65e a9ba 2645 dfbc b0c0 b4bc ee11 773a
00000370: ad1f 55bc aa9e 6f3a 6c54 6e3a 8269 de3a
00000380: d455 7d3b 7e9b 3dbc c5ba 7bbb 1b9d c03a
00000390: d9ba 323b a6bc 3c3a 9f6a 65bb 2d71 d8bb
000003a0: 4f2a 94bc 4d9b bebb f89c c0bc d94c 3cbc
000003b0: da8f af3a 74aa 99ba d6f6 06bb f9e7 313b
000003c0: 1915 b4bb f208 4cbb 481a 263a fbb0 41bb
000003d0: 3c2a a738 bfe7 51bb 28ab 23ba 624e 063b
000003e0: e00e f6ba 1bf4 f4ba 02da 5a39 c08c 2d3a
000003f0: 3676 b139 cca6 383b 1b87 9e3a 613f 0cbb

arr_1 f4 [4]
0.120034784 -0.29963845 -0.07904991 0.2586546
00000000: ccd4 f53d 366a 99be ebe4 a1bd 606e 843e
