examples/NN_crysx_mnist_98.11_weights.npz (npz, 813562 bytes, 2 tensors)

arr_0 f4 [256, 784]
000000 7e 9a 53 3b 19 ef e6 ba 83 c4 44 3c 4e 47 bc bc
       0.003228813 -0.0017618864 0.012009743 -0.02298322
000010 da 3a fb bc db 6c 12 bd 85 39 46 bc e7 7c 12 bd
       -0.030667711 -0.035748344 -0.012098675 -0.035763647
000020 aa 98 88 bc c2 33 83 bb 9b 8a 0d 3d 98 30 b8 3c
       -0.016674358 -0.0040039727 0.034556013 0.022484109
000030 36 81 b6 bc 06 0e bd bc dd b1 96 3a 00 aa cb bb
       -0.02227841 -0.023077976 0.0011497099 -0.006215334
000040 f3 1d e7 ba d4 69 ff bc 9e 1c ee 3c 0e 5b 21 3b
       -0.0017632827 -0.031178392 0.02906638 0.0024620923
000050 59 6e fe 3c a8 b9 ed bc 8f f0 3f bc 0b 02 5b bc
       0.031058477 -0.029019192 -0.0117150685 -0.013367186
000060 1e ba bc bc db 41 9d 3a 20 48 ca 38 d7 d7 12 bd
       -0.023037966 0.0011997776 9.645545e-05 -0.035850372
000070 01 9e 19 bc b2 6d d3 bb 73 a2 65 bc fc d6 c4 bc
       -0.00937605 -0.0064522857 -0.014015782 -0.024028294
000080 84 e5 a3 3b a4 a3 be bc cb d8 1e 3c 60 1b 8f bb
       0.0050017256 -0.02327139 0.009695242 -0.004367277
000090 8c 97 fc 3c ac 7a 06 3b bc ea 96 bb e4 d7 3d bc
       0.030833982 0.0020519895 -0.0046056192 -0.011587117
0000a0 ab 67 0f bd 0a b1 64 bc 35 55 5c ba 86 8d 2d 3b
       -0.035010975 -0.013958225 -0.0008405031 0.002648206
0000b0 39 30 d6 bc 4a b9 d7 3b 21 59 6d bc e1 7a 1c 3c
       -0.026146041 0.0065833675 -0.014486582 0.009550781
0000c0 8f ce 5b bc 7e f0 81 3b 56 b0 02 3d b2 52 ad bc
       -0.013415947 0.0039654365 0.03190645 -0.021157596
0000d0 6b fa 8b b9 b1 66 07 3c f3 f3 72 bc d4 8b c0 3b
       -0.00026698722 0.00826423 -0.01482867 0.005876044
0000e0 b6 d3 e4 3c 62 3e b5 3c cd 1e 1e bc 7f 0d d2 3c
       0.027932983 0.022124473 -0.009650898 0.025641201
0000f0 8b 57 12 3c 06 8c ba 3c 9d 04 96 bc 28 0f 20 3c
       0.008932005 0.022771847 -0.018312747 0.0097692385
000100 e5 84 c8 3c 86 fb ce 3b 11 8a 93 3c b3 df 92 3b
       0.024477432 0.006316605 0.018010171 0.0044822334
000110 12 2c 5a 3c 9a 3f 29 bd f1 ce 81 bc 2d 86 85 39
       0.013316171 -0.04132042 -0.015845748 0.00025467706
000120 63 eb 22 3c 54 b7 89 3c 46 f1 dd 3c 75 53 00 bc
       0.009943816 0.01681105 0.027092587 -0.007832398
000130 a3 19 95 bc 4e 3e 06 3d 2f fe 04 bc 75 ec 84 3c
       -0.018200701 0.032774262 -0.008117243 0.016226033
000140 0a 67 d6 bc 7b 77 86 bc f2 f6 fd 3c d2 f6 a3 3c
       -0.02617218 -0.016414395 0.031001542 0.020015154
000150 52 34 0b 3b fb a1 4f bc 15 39 44 3c 41 95 09 3d
       0.0021240902 -0.0126728965 0.0119765 0.033589605
000160 f5 3b c3 bc 27 7a cb 3c e0 72 01 bd e0 44 b3 3c
       -0.0238323 0.02483852 -0.031603694 0.021883428
000170 ee 3c f2 bc 21 f9 d8 3c dc 1c c9 bc 93 d5 4f 3a
       -0.02957007 0.026485981 -0.024549894 0.00079282484
000180 32 93 17 bd f8 b4 b1 bc 5e 89 fc bc 03 a9 1a 3c
       -0.03700561 -0.021692738 -0.03082722 0.00943971
000190 8e 01 33 bc 87 b8 10 bd 9e 4d bb 3c 3d 2d 07 bd
       -0.010925664 -0.03533223 0.02286416 -0.033002127
0001a0 08 19 3f bb 27 b7 f6 bc 83 26 5a bb 13 f6 dd bc
       -0.0029159207 -0.03011663 -0.0033287115 -0.027094876
0001b0 27 0b ea bc 45 a4 d3 3c 97 11 01 bd cd 7a 78 3c
       -0.028569771 0.025835166 -0.031510916 0.015165997
0001c0 16 c4 d3 3c 09 5b 04 bd e8 fa bb bb 88 6c 11 bd
       0.025850337 -0.03231338 -0.0057366975 -0.035503894
0001d0 c7 2e 0c 3c ed 7b 6f bc 48 b4 eb bc c0 34 98 3c
       0.008556074 -0.014616949 -0.028772488 0.01857984
0001e0 98 4d a6 bc 50 e0 38 3b c9 fa 74 3d 42 a5 02 3d
       -0.020300671 0.0028209873 0.05980948 0.031895883
0001f0 a4 b2 3d 3d 44 9e ab bc b5 9b 82 bb 6c ac 29 3c
       0.046312943 -0.02094949 -0.003985847 0.01035605
000200 6f 9c ce 3b 9d 28 3a 3d a3 47 9c bc 0d 16 bf bc
       0.0063052694 0.045448888 -0.019077128 -0.023325944
000210 22 5c da 3c 17 d8 52 3b 7a e5 fb bc 99 e0 88 bc
       0.02665526 0.0032172257 -0.030749071 -0.016708659
000220 21 99 16 3d 84 47 fd bc 21 22 d7 bb c8 f4 f7 bb
       0.03676713 -0.03091789 -0.006565348 -0.007567022
000230 0e 13 a7 bc b4 d1 f0 bc 33 6f c2 3c 27 a9 79 3c
       -0.020394828 -0.02939687 0.023734665 0.015238083
000240 eb 97 de bc d1 90 4f 3b 2a 1d ca bc 54 c4 f1 3c
       -0.02717205 0.003167201 -0.02467211 0.029512562
000250 74 cf ed bc 01 90 67 bb 7c 6b 1a 3c 44 1d 94 3d
       -0.029029585 -0.0035333636 0.00942504 0.072321445
000260 7e f0 9a 3c 24 9c 82 3c d9 c3 cd 3c 15 a1 ca bc
       0.018913504 0.015943594 0.025117802 -0.024735013
000270 7d 25 cd 3b 67 9a 1f 3d 34 79 40 bc 5e e4 26 bd
       0.0062605725 0.03896561 -0.011747647 -0.04074513
000280 14 7e 8b 3c 1d 84 44 bb 00 1c 12 bd a5 ca 9c 3c
       0.017027892 -0.0029985972 -0.035671234 0.019139597
000290 fc ca 03 3d 43 3d 9b 3c 2d 57 3c bc b8 0a be bc
       0.032176003 0.01895011 -0.011495394 -0.02319847
0002a0 0a d5 ec bc f6 58 a1 3b c8 7d 6f bc bb a6 e0 3c
       -0.028910179 0.004923935 -0.014617391 0.027423253
0002b0 46 3d e8 3c 4c 12 89 3c d3 48 e4 3c 75 a1 1e bc
       0.02834953 0.016732357 0.027866757 -0.009682049
0002c0 cb 8b 3f bb 48 e0 fa 3c 9d 73 03 bb d6 f1 7b 3d
       -0.002922761 0.030624524 -0.0020057925 0.06150993
0002d0 49 b1 11 3d 32 8f 82 bb 1a 53 af 3b d5 05 d0 3c
       0.035569463 -0.0039843554 0.0053504827 0.025393406
0002e0 90 dd 07 bb fe f8 10 3d 6f f5 a7 bc 31 fa 31 bd
       -0.0020731427 0.035393707 -0.020502774 -0.04345149
0002f0 49 98 18 bd 16 06 f8 bc 3f 63 34 bd 23 61 f4 bc
       -0.037254605 -0.03027634 -0.04403996 -0.029831475
000300 56 db fe 3b 8e 45 5f bc 7d be d2 3a 96 34 03 bd
       0.0077776117 -0.013627423 0.0016078498 -0.03203257
000310 ba 26 d2 bc cf d8 f1 3c f5 8b e1 bc 43 74 36 3c
       -0.025653232 0.029522328 -0.027532557 0.011136117
000320 d6 89 82 3c 01 d7 f8 3c ad 90 3f bd d2 a1 08 bc
       0.015934866 0.03037596 -0.046768833 -0.008339362
000330 5d 87 6a 3c 63 96 a1 bb 32 66 2c 3d f6 7c a1 3c
       0.0143145 -0.0049312576 0.04208965 0.019712906
000340 ea ae 85 3c a8 1b c7 bb c8 ee c8 3c 93 a9 16 3c
       0.016318757 -0.006076295 0.024527922 0.009195703
000350 c3 7a e7 3c d1 1a cd bc 22 8c 4c bb e7 7a 81 bd
       0.02825678 -0.025037201 -0.0031211455 -0.0632227
000360 9c b0 8d 3c 18 a3 97 3c 41 73 e2 bc 68 f9 72 3b
       0.017296128 0.018510386 -0.027642848 0.0037074927
000370 db 9c 65 bc 10 fd 47 3c c8 2d 29 bc 9a 65 e7 bc
       -0.014014448 0.012206331 -0.0103258565 -0.02824669
000380 0a 49 b6 3c 8a 7c 67 bb 4c e6 a0 3c 90 bb 2b bd
       0.022251625 -0.0035322034 0.019641064 -0.04192692
000390 66 56 4d bc fe 9b d7 bc 1e 89 e6 bb 97 d0 64 3d
       -0.012532806 -0.0263195 -0.0070353886 0.05586299
0003a0 1f 23 05 3d 00 fc 97 3d 5b 6a ff bb ec 63 c8 3c
       0.032504197 0.07421112 -0.007794661 0.024461709
0003b0 1e 3d f0 bb f4 da 36 3c dd 7b 0b 3c 11 13 83 bc
       -0.0073315045 0.011160601 0.008513418 -0.016000303
0003c0 ee 15 ae 39 14 ec 56 bd 54 64 61 3c 8e 0b e2 bb
       0.00033204205 -0.052471235 0.01375683 -0.00689835
0003d0 a5 f5 cc 3c 33 d8 5a 3b ad 2a 8f bc bc 26 cf 3c
       0.025019476 0.0033393025 -0.017476404 0.025287025
0003e0 66 e1 f2 bc ac 66 1d bb f8 c0 83 3c 1f 09 02 3d
       -0.029648494 -0.0024017496 0.016083226 0.03174698
0003f0 33 75 fa 3c 41 e3 ed 3c 70 a8 a8 3b 8b ab fc 3b
       0.030573463 0.029039027 0.0051470324 0.007710879

arr_1 f4 [10, 256]
000000 37 1f 37 be 4e 22 e1 bd ac 98 58 3d 03 49 7f 3d
       -0.17883001 -0.10992871 0.052879974 0.06232549
000010 94 a7 51 be 5d 90 bc bd 81 21 cf 3d 8d 2c 13 be
       -0.20474082 -0.092072226 0.10113812 -0.14372464
000020 e7 04 91 3e 17 44 98 3e 32 82 aa bd 15 8d 2b 3e
       0.28324053 0.29739448 -0.08325614 0.16753037
000030 6b c4 51 bd 35 f2 84 3d e5 09 f1 ba 36 69 4b be
       -0.05121271 0.0649151 -0.001838979 -0.19864354
000040 a4 93 28 be ba af 85 bd 08 b6 75 3e 19 84 40 bd
       -0.1646257 -0.06527658 0.2399522 -0.04700098
000050 94 a6 af bc 6e 44 57 bd ec ae 09 3e d0 f8 4d be
       -0.021441735 -0.052555494 0.13445634 -0.20114446
000060 77 8f 83 3c a5 3f c8 bc 3f 23 a0 3c 98 c0 2b 3d
       0.01605962 -0.02444441 0.019548057 0.04193172
000070 e9 e1 23 be ec 73 5b 3e 59 c1 b9 bd ef b9 86 3e
       -0.16004147 0.2143094 -0.09070081 0.2631373
000080 ba 5d 30 3d d5 15 92 bd 38 0a c0 3d 73 d0 15 bd
       0.043058135 -0.071330704 0.09376949 -0.036575746
000090 6b 82 2a 3e 4c f3 38 be f1 6d 21 be eb e0 25 be
       0.16651313 -0.1806156 -0.15764596 -0.1619908
0000a0 0e e9 df bd 30 a5 b2 3d 58 ef f0 bd 31 67 de bc
       -0.109331235 0.08722913 -0.11764401 -0.027148815
0000b0 e6 9d 2f 3e f3 d8 45 be 46 3b 40 be e8 c8 35 3e
       0.17150077 -0.19321041 -0.18772611 0.17752421
0000c0 03 80 dd 3d f5 1d 95 be d7 2d ef 3d be e1 64 3e
       0.10815432 -0.29124418 0.11678665 0.22351739
0000d0 c5 1d 2b bc 3d 26 ee bd 49 19 7d bc 73 8c 8b bd
       -0.010444109 -0.11628387 -0.015447923 -0.06813898
0000e0 88 a7 c0 be 25 8a 5a be 6b 0d 82 3d 5a 2a 42 3e
       -0.37627816 -0.2134176 0.063502155 0.18961468
0000f0 e6 70 1a 3d 63 86 0c 3c fe 57 3b be d2 e1 0e bc
       0.037705325 0.008576962 -0.18295285 -0.008720832
000100 51 4f 71 be 57 e7 46 3e 90 09 0f 3e 66 52 45 3d
       -0.23565413 0.19424187 0.13968492 0.048174284
000110 d1 fe 49 3e c6 2a 9a 3e bf f8 7d bc 48 2b c6 bc
       0.19726111 0.3011076 -0.0155012 -0.02419056
000120 17 3d 28 bd a8 95 1a be 26 47 95 39 ed 9d 2d 3e
       -0.041073885 -0.15096152 0.00028472504 0.16954775
000130 f6 9d 77 bd e4 7c 88 bb b0 b2 de bd 04 e6 8c bd
       -0.060453378 -0.0041652787 -0.10873926 -0.068798095
000140 ab da a0 3c 60 33 bb bc 6c 35 41 be 50 5b 20 be
       0.019635519 -0.022851646 -0.18868035 -0.15659833
000150 7d 3f 20 3e a2 98 d2 bd 30 3a 4f bd c1 6f bc 3c
       0.15649219 -0.10283019 -0.0505926 0.023002507
000160 f5 81 e9 3c 20 fe 1f bd cf 02 5a bd ef 42 b7 3d
       0.028504351 -0.03906071 -0.053225335 0.089483134
000170 14 4b 9a 3e b0 cd 37 3d ae af e2 3d ef 15 14 bd
       0.30135405 0.044873893 0.110686645 -0.03615373
000180 e9 6a 70 bd 22 f1 65 3e 3f 73 b8 bd 33 e2 e3 bc
       -0.058695707 0.22455266 -0.090063564 -0.027817821
000190 18 a8 ce bc 90 a6 54 3e 02 a6 1b be d8 d6 f7 bd
       -0.025226638 0.20766664 -0.15200046 -0.12101525
0001a0 07 da ad 3d b3 1a d4 3d 4d d8 34 bd 06 7f 0b 3e
       0.08488851 0.10356655 -0.044151593 0.13622674
0001b0 74 a2 ae bc 15 5f 9c bd 21 22 7e 3d 8f 01 b8 bd
       -0.021317698 -0.07635323 0.062044267 -0.08984672
0001c0 b5 c0 cb bd 1e 34 2a be 6c 43 5f 3e b9 47 07 be
       -0.09948865 -0.16621444 0.21803063 -0.13210954
0001d0 9f 74 a5 bd e2 5c 2c be be d3 fb bd 64 93 1a be
       -0.08078884 -0.16832307 -0.12296246 -0.15095288
0001e0 f0 fc 5a bd ff aa 8f 3c 02 a2 32 3d ef 2e fc bd
       -0.053463876 0.017537592 0.043611534 -0.123136394
0001f0 28 10 17 be 1d 6e ec bd 08 9b fe bd e1 c7 7e 3d
       -0.14752257 -0.1154444 -0.124319136 0.062202338
000200 ae 40 14 3e 87 f7 fc bc 8a de 8f 3d a9 64 e7 bc
       0.14477798 -0.030879749 0.07024868 -0.02824624
000210 c5 6e 62 bc 98 24 cb 3e c1 86 cf 3d 36 f8 90 3e
       -0.013820355 0.39676356 0.10133124 0.2831437
000220 77 cc 80 3d 21 0b 16 3d 67 3a d3 bd ab e6 e2 bc
       0.062889986 0.036631707 -0.10313874 -0.027697882
000230 64 5e e8 bc 53 0f b3 bd 48 7e 8b 3c 5d 61 a7 3e
       -0.028365321 -0.08743157 0.017027989 0.3269147
000240 63 b4 9a bd 8f e1 cc bd 4a b1 42 bd ef 3c 8c 3e
       -0.07553937 -0.100039594 -0.047532357 0.2739024
000250 29 33 8a 3c 41 13 99 3d 71 a5 0e bd 60 77 d6 bc
       0.016870098 0.074743755 -0.034825746 -0.02617997
000260 49 00 26 3e 18 5e ee bc 73 2f 39 3e 7f 8f 23 3e
       0.16211046 -0.029097602 0.18084507 0.15972708
000270 65 48 de bc 13 9d a3 be 15 51 8f bd 26 9c da 3d
       -0.02713413 -0.31955776 -0.06997887 0.10674314
000280 48 1e 7b bd cc 11 6d bd 93 54 1f be 3c c4 da 3b
       -0.061308175 -0.0578783 -0.15559606 0.006676225
000290 08 56 c9 3d 70 31 53 bd 8f 84 f1 bd 39 8d 0c be
       0.09830862 -0.05156082 -0.11792862 -0.13725747
0002a0 de a8 08 be 2c e1 b6 3d c0 6f 3a bd ce 19 d7 3c
       -0.13345668 0.08929667 -0.04551673 0.026257422
0002b0 b0 78 f0 bd 0e 3c 65 3e b4 a8 b6 bd 31 a9 2b bd
       -0.11741769 0.2238619 -0.08918896 -0.0419094
0002c0 6d 4b b7 bd b9 85 66 be 96 fd ba bd 36 e7 73 3e
       -0.08949933 -0.22511949 -0.09130399 0.23818669
0002d0 b9 22 bd bd 14 12 28 bd d5 cb 8e bc d8 1f 12 be
       -0.092351384 -0.041032866 -0.017431179 -0.1426996
0002e0 03 14 80 3c eb 8d a4 3b bc 36 01 3e 4e 59 9b 3e
       0.015634542 0.0050218008 0.12618536 0.30341572
0002f0 b8 1e a9 3d 1f 41 5a be 6f a5 b0 3d d7 b8 ff bc
       0.08257812 -0.21313904 0.08625304 -0.031216068
000300 20 69 3e 3e 95 70 47 bd f7 51 2d be 1e 7c 6b bc
       0.1859479 -0.04869135 -0.16925798 -0.014372854
000310 54 9f 40 bd f9 bc e0 bd 6c 69 57 bd b0 2e 25 be
       -0.047026947 -0.10973544 -0.052590773 -0.16131091
000320 c9 0c 6b 3d 45 e1 19 bd 28 9d 31 3e fa a2 cc bd
       0.05738524 -0.03756835 0.17345107 -0.09992023
000330 b1 f1 4d 3d 8f 0f 85 be a8 0d c1 bd 82 46 bf bd
       0.050279323 -0.25988433 -0.09426433 -0.0933962
000340 d7 69 57 3d 10 aa d0 3d 30 62 23 3e d2 70 15 be
       0.05259117 0.10188687 0.15955424 -0.14593819
000350 b4 2a e2 3c f5 d0 40 3d 64 16 87 3d c1 89 82 3d
       0.027608253 0.047074277 0.065960675 0.06373931
000360 25 21 62 3d 77 fb 3f be e8 ef a3 bd da 5e 45 be
       0.05520739 -0.1874827 -0.08004743 -0.19274464
000370 f8 5b d6 bd 18 a9 ce 3d a6 a1 41 3e 2b 2a 51 3e
       -0.104667604 0.10090846 0.1890932 0.20426242
000380 59 f7 94 3d 33 0d c6 3d 99 9f 10 3e bd 95 02 3e
       0.0727374 0.09670486 0.14123382 0.12752433
000390 a8 1d f1 bd 9d 8a 9c be 74 b5 95 3c b0 ac a2 be
       -0.117732346 -0.30574504 0.018275 -0.31772375
0003a0 21 e9 82 bd a8 e5 3d 3c d1 12 09 be d3 f0 18 be
       -0.06392122 0.011590399 -0.13386084 -0.14935617
0003b0 5f 8e 2a bd 17 b5 79 3d 6a 2f 38 3d f4 59 8e 3d
       -0.041639682 0.060963716 0.044967093 0.06950751
0003c0 08 04 1c 3e dc ce be bd fb 2e b2 bc c7 26 0e 3e
       0.15235913 -0.09316799 -0.021750918 0.1388198
0003d0 fd bf c7 bd 08 3c 25 be 39 28 20 3e 11 99 a6 bd
       -0.09753416 -0.16136181 0.15640344 -0.08134664
0003e0 7b 22 37 3e 78 7c 8b be 18 8e fc 3c d6 29 1b bd
       0.17884247 -0.272434 0.030829474 -0.037881695
0003f0 81 39 fa bd 8d 2f 6d bd bc bc d5 bd 61 f8 bb 3d
       -0.12217999 -0.057906676 -0.10436389 0.09178234
