examples/NN_crysx_microstructure_96_biases_cupy.npz (npz, 2522 bytes, 2 tensors)

arr_0 f4 [500]
0	0xbc9698ab	-0.018383345
1	0xbc1594bb	-0.009129698
2	0xbbfdd58e	-0.007746405
3	0xbb8ac680	-0.004235089
4	0xbc3a56f5	-0.011373271
5	0x3b842152	0.0040322924
6	0xb9e1a990	-0.00043041678
7	0xbae1ab70	-0.001721723
8	0x3b98cd4f	0.0046631466
9	0xbc4c681d	-0.012475994
10	0xbc486758	-0.01223167
11	0xbbb15e58	-0.005412858
12	0x3aff646b	0.0019484883
13	0xbc429d7f	-0.01187837
14	0x3b25b870	0.0025286935
15	0x3a89cfd5	0.0010514209
16	0x3b329f8e	0.0027255747
17	0xb6ee1d62	-7.0963733e-06
18	0xbc1753fa	-0.00923633
19	0xbc88422c	-0.016633116
20	0xbb2a2242	-0.002596036
21	0x3b5babb6	0.0033519096
22	0x3bad81bb	0.005295006
23	0xbb9d0229	-0.0047915173
24	0xbbf487fe	-0.0074625006
25	0x37386e38	1.0992917e-05
26	0x3ada6dfe	0.001666486
27	0x3b9aca2b	0.0047238073
28	0xbb63ba16	-0.0034748367
29	0xbbbc3c57	-0.0057444978
30	0xbadf4a20	-0.0017035641
31	0x3b9fcb0c	0.0048765
32	0x3ba734e8	0.0051027425
33	0x3b01d72e	0.0019812095
34	0x3b426752	0.0029663634
35	0xbb5b7c14	-0.0033490704
36	0x3b75fc6f	0.0037534495
37	0xbc8dbccf	-0.017301945
38	0x3baa5137	0.00519767
39	0xbc165626	-0.009175813
40	0x3b18e33f	0.0023328809
41	0xba91e5e9	-0.0011131141
42	0xbb91589c	-0.004435612
43	0xbc6509e6	-0.013979411
44	0x3a3a5931	0.00071086275
45	0xbaac9ed0	-0.0013169888
46	0x3b76b737	0.0037645826
47	0x3b9e43b3	0.0048298477
48	0x3bbd202d	0.005771658
49	0xba06384d	-0.0005120084
50	0xbb84cb12	-0.004052528
51	0xbc5fd3c9	-0.013661333
52	0xbc8f1b04	-0.017468937
53	0x3b873369	0.0041260016
54	0x3b9d3c77	0.0047984677
55	0xbcd5b15b	-0.026085546
56	0xbbf74579	-0.0075461236
57	0x3af06d52	0.0018343127
58	0xbb58b06a	-0.0033064135
59	0x3aaad40f	0.0013033169
60	0xb8e95dd3	-0.00011127782
61	0xbc45ac3c	-0.01206499
62	0x3b9f1dba	0.0048558386
63	0x3bab5336	0.0052284254
64	0x3abab6ff	0.0014245211
65	0x3ba7382d	0.005103132
66	0xbc33a7e2	-0.010965319
67	0xbc22fdcc	-0.009948205
68	0x3b5f12c5	0.0034038287
69	0x3a0b1817	0.0005306019
70	0x3b68e37a	0.0035535977
71	0xbc8b2efa	-0.016990174
72	0xbc8bf9d9	-0.01708691
73	0xbc17c77d	-0.00926387
74	0x3b2c9882	0.002633602
75	0xbb56e378	-0.003278939
76	0x3b97b2a1	0.0046294485
77	0x3ba61e67	0.005069542
78	0xba6d1023	-0.0009043237
79	0xbb76c28e	-0.0037652585
80	0x3ba36bc4	0.004987212
81	0x3b5d4dfa	0.0033768401
82	0x3af4de0f	0.0018681901
83	0xbc57df73	-0.013175833
84	0xbaed70de	-0.0018115302
85	0x3b88c5ce	0.004173971
86	0xbc8954c5	-0.016764054
87	0x3c043602	0.008069517
88	0x3b9ed744	0.004847439
89	0xbbba7a66	-0.0056908606
90	0x3b8e9889	0.0043516797
91	0xbaef4491	-0.0018254687
92	0x3b0fab6f	0.002192225
93	0x3b9ee01e	0.004848494
94	0x3b96f799	0.0046071527
95	0xbc89edb0	-0.016836971
96	0x3b2a0ac2	0.0025946354
97	0xb982ecd8	-0.00024971995
98	0x3b938d7e	0.004502951
99	0x3a7838ee	0.00094689324
100	0x3ab46d64	0.0013765511
101	0xbc897667	-0.016780091
102	0xbbf9bff4	-0.0076217595
103	0xbc72a466	-0.014809703
104	0xbbcc8c6d	-0.006242326
105	0x3b7ca3d8	0.0038549807
106	0xbb0a94cd	-0.002114582
107	0xbb17f062	-0.002318405
108	0xbc69a491	-0.014260427
109	0x3b9794f1	0.0046259095
110	0xbcb2225d	-0.021744901
111	0x3b8c6578	0.004284557
112	0x3bdbf943	0.006713064
113	0xbb8f5d6d	-0.004375151
114	0xbc5cf3bd	-0.013485846
115	0x3b247d18	0.0025098976
116	0xbaee2e96	-0.0018171843
117	0x3b6d3393	0.003619407
118	0xba894045	-0.0010471424
119	0xbc99280b	-0.018695852
120	0xb94f4bad	-0.0001976925
121	0xbca61031	-0.020271393
122	0x3b8cc17a	0.004295525
123	0x3a9f4d73	0.0012153819
124	0x3bb4d4aa	0.0055185156
125	0xbaae3f09	-0.0013293932
126	0x3b17c59a	0.0023158551
127	0x39fcf039	0.00048244165
128	0xb9ce388f	-0.0003933352
129	0x3a62d6ac	0.00086532044
130	0x3b9173c3	0.0044388487
131	0x3b09563d	0.0020955943
132	0x3b895c5a	0.0041919174
133	0x3b6f1115	0.0036478688
134	0x3a473354	0.0007598896
135	0xbb8289f5	-0.003983731
136	0x39aa2252	0.00032450497
137	0xbbbe8e66	-0.005815315
138	0x3aa5e538	0.0012656813
139	0x3ae074e7	0.0017124683
140	0x3b3fd235	0.002926958
141	0x3b9ee502	0.004849077
142	0xbc48dfd9	-0.012260401
143	0xbbf7c832	-0.007561707
144	0xbb9f853d	-0.004868178
145	0xb989ec63	-0.00026306798
146	0x3bc929d0	0.0061390176
147	0x3bda8d7a	0.0066696974
148	0x3ba62727	0.0050705853
149	0x3b40983b	0.0029387611
150	0x3b144617	0.0022624785
151	0xbace1aa4	-0.0015724492
152	0x3bcc2c3c	0.006230859
153	0xbb7735f8	-0.0037721377
154	0xb978a95e	-0.00023714217
155	0x3a303ee9	0.00067232415
156	0xbc44b78b	-0.012006651
157	0xbc6e8d8b	-0.014560114
158	0x3b75dff7	0.0037517527
159	0x3b90bf06	0.004417303
160	0x3bb9e1b6	0.005672659
161	0xbb0b26b3	-0.0021232783
162	0xbc5324e5	-0.012887214
163	0x3b6aa1cb	0.0035802003
164	0x3b8fc587	0.0043875608
165	0xbc97d690	-0.018534929
166	0x3bc15e30	0.0059011206
167	0xbc8ebceb	-0.017424067
168	0x3abe1bc3	0.0014504123
169	0xbc4116f2	-0.011785256
170	0x3b9be0a1	0.0047570025
171	0xbb9865ba	-0.0046507986
172	0xbb08d439	-0.0020878448
173	0xbc1e3485	-0.009656076
174	0xba8d4e26	-0.0010780736
175	0xba237103	-0.00062347966
176	0xbb95bfe2	-0.0045699934
177	0xbbb5a5cb	-0.0055434457
178	0x3b54be1e	0.0032461951
179	0x3a8b7c62	0.0010641927
180	0x3ba9e67c	0.0051849466
181	0x3baf201c	0.005344404
182	0xb8f1e928	-0.00011535204
183	0xbb0a738f	-0.0021126007
184	0x3a23d471	0.0006249613
185	0xb8ce21aa	-9.829116e-05
186	0x3b96679d	0.0045899884
187	0xbc4647d5	-0.012102087
188	0xbb1195f2	-0.0022214619
189	0x3b7efa66	0.0038906573
190	0xbb84a399	-0.0040478227
191	0xbbf1379e	-0.0073613664
192	0x39cc87fe	0.00039011234
193	0x39de2797	0.00042372636
194	0x3b9d3af2	0.0047982866
195	0xba52738a	-0.0008028081
196	0xbb3d7dd6	-0.0028914115
197	0xbb504363	-0.0031778447
198	0xbb999849	-0.0046873433
199	0xbb2aa0b8	-0.0026035737
200	0x3b9631d1	0.0045835753
201	0x3acc2b8e	0.0015576945
202	0x3b697ed3	0.0035628572
203	0x3a71a6ef	0.00092182955
204	0xbc0fbff9	-0.008773797
205	0xbbad3e21	-0.0052869474
206	0xbbfa89d0	-0.007645823
207	0x3b5511c5	0.0032511812
208	0xbb7cc371	-0.003856864
209	0x3a83a678	0.0010044118
210	0x3acd3acc	0.0015657782
211	0x387aacdd	5.9765636e-05
212	0x3bbdd7e0	0.0057935566
213	0x3b4e1860	0.0031447634
214	0x3b9f830a	0.004867916
215	0xbba76bd0	-0.005109288
216	0xbb9f5aa9	-0.0048631025
217	0x3b640f7a	0.0034799264
218	0x3b76aa03	0.0037637956
219	0x3b92ac4d	0.0044761063
220	0xbb0379c0	-0.0020061582
221	0x3b8c628d	0.004284209
222	0x3ba4c92c	0.0050288644
223	0xbb16c8e6	-0.0023007928
224	0x3a872177	0.0010309656
225	0x3aca5875	0.0015437739
226	0xbb46c81d	-0.003033168
227	0xbb51af20	-0.0031995252
228	0xbbed37de	-0.007239326
229	0x3b1c0995	0.0023809422
230	0x3b44bb0f	0.0030018722
231	0x3b597259	0.0033179729
232	0xbabe894a	-0.0014536765
233	0xba523b40	-0.0008019693
234	0x3b5ba954	0.0033517675
235	0xba44117c	-0.0007479412
236	0xba69c1a7	-0.0008917101
237	0x3b85b6a2	0.0040806094
238	0x3b4c23bd	0.0031149231
239	0xbc168b68	-0.0091885105
240	0x3b9fbb79	0.0048746434
241	0x39a8eb2b	0.0003221867
242	0xbc4d1f07	-0.0125196045
243	0x3aa12f54	0.001229743
244	0xbc33f2ac	-0.01098315
245	0xbb367aa3	-0.0027844093
246	0x399ab7e4	0.00029510178
247	0xba8b8e8c	-0.0010647341
248	0x3b035c67	0.002004409
249	0x3920a71d	0.00015321044
250	0xbb8eed03	-0.00436175
251	0x3b93ee3d	0.004514484
252	0x3a8364d5	0.0010024557
253	0x3b6792f6	0.0035335398
254	0xbbd9afa7	-0.006643254
255	0xbbf7f749	-0.0075673205

arr_1 f4 [4]
0	0x3da9f298	0.08298224
1	0xbe2bc7b4	-0.167754
2	0xbd2958a3	-0.041344296
3	0x3e012490	0.12611604
