examples/NN_crysx_mnist_98.11_weights.npz (npz, 813562 bytes, 2 tensors)

arr_0 f4 [256, 784]
000000 fd 2c c0 3c 73 09 1a bc ed a9 c5 bc b2 21 16 3d
       0.023458952 -0.009401667 -0.024128878 0.036653228
000010 83 bf d6 3c 53 b9 cf 3c 1d 7c 8b 3c 97 63 d0 3a
       0.026214367 0.025356924 0.017026955 0.0015898821
000020 e1 63 c8 bc f9 04 d8 3c d5 32 90 bc fb c4 e6 3c
       -0.024461688 0.026369559 -0.017602364 0.0281701
000030 ef da ec bc 55 b9 ea 3c 97 2e dc 3c 8f 23 0d 3c
       -0.02891299 0.028652826 0.026877685 0.008614435
000040 b5 49 8a bc db 4b d6 3c a3 40 b4 3c 1d aa f0 bc
       -0.01688085 0.026159218 0.022003477 -0.029377991
000050 2f 29 5c 3b e2 f1 a3 bb d5 c0 2e bc b2 d5 14 3d
       0.0033593883 -0.0050032 -0.010666092 0.03633661
000060 25 9d ce 3c 37 5d 3c 3b b5 c8 91 3c 11 ba ec bc
       0.025221417 0.0028742084 0.0177959 -0.028897317
000070 17 e0 9c bc ad f1 83 3c 95 4e 6c bc 91 23 45 bc
       -0.019149823 0.01610645 -0.014423032 -0.0120324055
000080 3a c5 a3 3b fe 8a a7 3b dd f0 1d 3d 97 2c 2e bc
       0.0049978765 0.0051130047 0.038559783 -0.010630748
000090 13 25 07 3d 4b 3a 4e 3b 8d 2d fc bb ed 2b 66 bc
       0.03299434 0.003146785 -0.0076958598 -0.014048559
0000a0 6f 7c d7 bc 23 70 20 3c b6 d6 42 bc a7 01 3e 3b
       -0.026304452 0.0097923605 -0.011892011 0.0028992684
0000b0 9f 75 8a 3c 44 a9 0b ba 11 fd 7e bc d5 21 0e 3c
       0.01690179 -0.0005327652 -0.015563265 0.008675058
0000c0 bb f1 94 bb d5 73 c5 bc 69 6f 75 3c ad 12 5f bc
       -0.004545418 -0.024103085 0.0149801755 -0.0136152925
0000d0 bf 93 20 3c 68 ea e0 3b b7 83 cb 3c 58 0a 7e 3c
       0.00980085 0.006863881 0.02484308 0.015505396
0000e0 f1 65 86 bc 55 cf 37 bb a9 11 4a bc e0 95 ac 3b
       -0.016406031 -0.0028047164 -0.012333312 0.00526689
0000f0 10 9a 96 3b 66 b9 f6 3c 10 d2 f4 bc fb d8 13 bc
       0.0045960024 0.030117702 -0.029885322 -0.0090239
000100 55 a3 fb 3a 3d 01 95 bb 82 77 91 3b 96 2c c7 bc
       0.0019198457 -0.0045472668 0.0044392953 -0.024313252
000110 38 25 e6 3c 67 d6 08 3d fc 9a ef 3c 24 f7 09 3d
       0.02809392 0.033407595 0.029248707 0.033682957
000120 11 45 8f 3c 46 e5 83 bb ae b8 4f bc a5 cf f4 bc
       0.017488988 -0.0040251343 -0.012678308 -0.029884169
000130 f9 9a 45 3c 9f c5 23 bc d5 1a 6f 3c 1b 5a df 3c
       0.012060874 -0.009995847 0.0145938 0.027264645
000140 bf b2 03 3d 8b d3 7e bc 96 98 c9 bb 5b f2 db bc
       0.032152887 -0.015553365 -0.006152223 -0.026848963
000150 43 6a a4 3c 0b c4 77 bc a1 5c 0b 3d 6e 8b 98 3b
       0.0200702 -0.015122424 0.034023885 0.004655293
000160 93 29 19 3d a7 8b 65 bc 88 31 8b 3c 77 9d 8b bb
       0.037393164 -0.0140103465 0.016991392 -0.0042607146
000170 08 14 46 3c f7 30 0b 3d cf 7c 31 3d 51 63 bc bb
       0.012089737 0.033982243 0.043331917 -0.005749144
000180 89 df 6f 3c d5 bb 80 3a a6 a9 d8 3c fa 4a 51 3c
       0.014640697 0.0009821603 0.026448082 0.012774223
000190 90 6b be bc 72 c2 43 bd 93 47 1b 3c 51 10 35 3c
       -0.02324465 -0.04779286 0.009477514 0.011051253
0001a0 50 7f 02 3d 31 c0 50 3d 43 aa 6f bc 55 c4 dc 3c
       0.031859696 0.050964538 -0.014627996 0.026949087
0001b0 f4 11 02 3d 31 b7 cc 3c 2a 08 ba bc 6b 92 66 bc
       0.031755403 0.024989696 -0.022708971 -0.014072995
0001c0 25 eb b8 3c b6 b3 c7 bb 8b e9 14 3d 3b 04 1a 3d
       0.022573063 -0.0060944213 0.036355536 0.03760169
0001d0 67 9a ec bc 5c ab b7 3c f3 c2 5d b9 1f 61 00 bd
       -0.028882219 0.022420578 -0.00021148827 -0.031342622
0001e0 94 21 da 3b 28 83 10 3d 99 d5 2b 3d 72 78 dd 3c
       0.006656835 0.03528133 0.04195175 0.027034972
0001f0 bd 59 b2 3a b5 57 c0 bc 13 2f 50 bb 63 41 0f bd
       0.0013607066 -0.023479322 -0.003176634 -0.034974467
000200 40 ce 3f bd c8 5d ab 3c 93 95 d1 3b bd 10 3b bc
       -0.046827555 0.020918742 0.0063960045 -0.011417565
000210 14 6a 30 3d bc 69 86 3d f6 27 75 3d 96 a0 26 3d
       0.043069914 0.06563136 0.059852563 0.04068049
000220 ff d2 c2 bb f7 ff 80 bc 74 19 b0 bc c3 e3 26 3c
       -0.005945563 -0.015747054 -0.021496512 0.010186139
000230 57 e2 11 bc 05 9a 2b 3c 54 15 b4 3c 2d 7c 46 3c
       -0.008904061 0.010473733 0.021982826 0.012114567
000240 04 7d 27 3c f5 da 24 3c a4 4a 00 3d a3 d9 7d bc
       0.010222677 0.010061969 0.031321183 -0.015493783
000250 04 e7 05 bc 80 6b 05 3b 09 70 a6 bc 1d ba 85 bc
       -0.008172754 0.0020358264 -0.020317094 -0.016324097
000260 a6 13 5c 3b 24 de 6d bb 44 56 87 bc e8 7b 4f bd
       0.0033581047 -0.0036295736 -0.016520627 -0.050655276
000270 df 5a 44 bd bc 8d 50 3c c9 1e 20 3d 94 6d 09 3c
       -0.047938224 0.012729105 0.03909186 0.008387942
000280 b4 76 fc 3c ea 52 62 3c f5 cf 12 3d bb 21 07 3c
       0.03081832 0.013813714 0.035842855 0.008247788
000290 7c d0 51 bc 48 27 ed 36 84 f0 1e bc b2 1d a0 bb
       -0.012806054 7.0677233e-06 -0.009700898 -0.0048863525
0002a0 41 de 83 bc c7 ad 69 3c a5 89 f2 3c cf 4c b0 bc
       -0.01609719 0.014262623 0.02960665 -0.021521
0002b0 c6 bf fb 3b 32 8b 18 3d 57 03 fd 3b 49 3b 02 3d
       0.0076827733 0.037242122 0.0077213454 0.03179482
0002c0 32 dd 8b bc e9 b2 14 bb d0 2d 3b bc 5d ef 2b 3d
       -0.017073248 -0.0022689647 -0.011424497 0.04197632
0002d0 66 20 e3 3c 18 9e 72 bd aa 44 66 bd 49 3b 59 bd
       0.02772541 -0.0592328 -0.056217827 -0.053035054
0002e0 4d 37 18 bd 02 da de bc 50 68 32 3d 42 90 0c 3d
       -0.037162114 -0.027203564 0.04355651 0.034317262
0002f0 f0 ec 56 3d 50 a3 8e bb dd 1c 4e 3d 8f 10 06 3d
       0.052472055 -0.0043529645 0.050320495 0.032730635
000300 bf 0f 81 bc 60 48 0b 3c b2 6e 9d 3c 78 30 b6 3c
       -0.015754579 0.008501142 0.019217823 0.022239909
000310 d1 96 b9 bc 9e b3 80 3c 2f 57 25 bc bb 36 0a bb
       -0.022654923 0.015710648 -0.010091587 -0.002108975
000320 28 38 2d 3c bc 93 58 3d 58 5d c2 3b d7 eb 66 3b
       0.010572471 0.052875265 0.0059315376 0.0035235786
000330 dd 58 ab bc 51 74 4e bb 24 39 03 3d de 20 8e bb
       -0.020916397 -0.0031502435 0.032036915 -0.004337414
000340 3f 55 6a bd 07 30 49 bd 03 e2 05 3d db d2 f3 3c
       -0.057210203 -0.049118068 0.032686245 0.02976363
000350 8f 2f 27 3c dc 62 34 3d 7b 4d a4 3d 86 a8 12 3d
       0.01020421 0.044039592 0.08022591 0.035805248
000360 57 b1 35 3d 5a 07 e3 3c f4 12 1d 3c d7 d7 04 3d
       0.044358578 0.027713466 0.009587038 0.032432403
000370 b9 3f ff bc 23 87 a4 3c 6e 63 a0 3c 01 dc 34 bc
       -0.031158315 0.02008397 0.019578662 -0.011038781
000380 e5 82 5f bc b0 ff b5 3c 26 2c 93 bc 56 a2 43 3d
       -0.0136420475 0.022216648 -0.017965388 0.047762237
000390 7a 41 1b 3d cd c2 03 3c 5b 72 22 3d 3a 96 29 3c
       0.03790424 0.00804205 0.03965984 0.010350758
0003a0 0d 34 fa bc 06 40 f4 bc 16 24 1c 3d 7d 4e d1 3c
       -0.030542398 -0.029815685 0.03812035 0.025550121
0003b0 78 07 17 bd ea 9e 7f bd 36 b1 5c bc 10 22 a5 bc
       -0.036872357 -0.06240741 -0.013469985 -0.020157844
0003c0 ee 28 0c bd 4f 32 56 bc 80 5f 0d 3d 9c e9 e2 bc
       -0.03421872 -0.013073518 0.034514904 -0.027699284
0003d0 84 72 c6 3b c1 6c 93 bc cc c5 f7 bc c6 4c 91 bb
       0.006056132 -0.017996194 -0.030245684 -0.004434201
0003e0 46 a0 20 3d d1 63 95 3c e8 7a f3 bc 88 ce cd bc
       0.03921535 0.018236073 -0.029721692 -0.025122896
0003f0 95 9b ec 3c db bf c0 bc 05 b4 8a 3c 73 00 99 bb
       0.028882781 -0.023528984 0.016931543 -0.004669243

arr_1 f4 [10, 256]
000000 3d 8b a7 bd fb 12 51 bc 71 39 7e be ee 7e 9e bd
       -0.081808545 -0.012760873 -0.248266 -0.07739054
000010 43 22 06 bd bb 8e e1 3d 94 92 af 3c 70 70 43 3e
       -0.03274752 0.11013552 0.021432199 0.1908586
000020 3d 26 8b 3d e9 c0 64 3d fc c1 b2 bd 6e 7b 7b 3d
       0.06794403 0.055848036 -0.08728406 0.06139701
000030 37 d5 40 3e 3c 3f 4b bd fd 55 f1 3d ee 2f d4 bd
       0.18831335 -0.049620852 0.11783979 -0.10360704
000040 5e be 44 3d 03 08 df bd 24 e5 69 3c 30 3b 62 be
       0.04803311 -0.108902 0.014275823 -0.2209289
000050 b0 80 54 bd da 29 02 3e a3 c4 83 3d 8c 6f 16 3c
       -0.05188054 0.12711278 0.0643399 0.009181868
000060 ed 85 8e 3e a5 c7 b6 bd 2a e3 8c bb 37 94 9e bd
       0.27836552 -0.08924798 -0.004299541 -0.077431135
000070 27 7c f4 bd 22 b7 95 bd e8 ea 76 bc b5 36 28 bd
       -0.11937743 -0.073103204 -0.015070654 -0.041067798
000080 82 4b c9 bd d7 e1 c6 3d 20 2c 1b bd 70 e4 d2 bc
       -0.09828855 0.09711044 -0.037883878 -0.025743693
000090 4d 27 5c bd eb dc 7d 3e 9a bf a6 3d fb 88 e8 bc
       -0.053748418 0.24791305 0.08142014 -0.02838563
0000a0 6a b0 93 bd b0 b2 51 bc 56 7d 30 be 94 ed 77 be
       -0.07211383 -0.01279895 -0.17235312 -0.24211723
0000b0 13 5b ff 3c 40 25 1b 3e 3a 84 29 3e 00 19 e2 bd
       0.031171357 0.15150928 0.16554347 -0.110399246
0000c0 80 26 0d bd 7e 10 9b bd d9 28 04 3e b0 e7 3b 3d
       -0.034460545 -0.07571505 0.12906207 0.04587525
0000d0 a5 5f 85 bd a0 c0 30 bd c7 e8 0e bc f3 e9 86 3e
       -0.06512383 -0.04315245 -0.008722491 0.26350364
0000e0 0a c6 91 bd 70 e1 12 be 51 76 d9 bd 10 c7 aa 3c
       -0.07117851 -0.1434381 -0.1061827 0.020846874
0000f0 84 b2 d2 3c 7b 8d 17 3e 61 c2 45 3e 10 f7 00 bb
       0.025719889 0.14800064 0.19312431 -0.001967851
000100 89 ee 16 3d e7 34 43 bb 0c 9c b8 bb 2f b2 3b 3e
       0.03684858 -0.002978617 -0.0056338366 0.1832969
000110 45 5e af be 08 ba f9 bd b7 53 11 3c ac 57 92 3d
       -0.3425161 -0.12193686 0.008870057 0.07145628
000120 9b b4 31 be 64 4d 42 be 2a e2 89 bd 9c 4c 33 bc
       -0.17354052 -0.18974835 -0.067325905 -0.010943558
000130 bb b8 55 3d a6 72 f1 3d 1d 71 7a bd ae 19 d8 bd
       0.052178126 0.117894456 -0.06114303 -0.10551773
000140 27 56 d2 3c 7c b2 5a be ae c3 a9 3e 0a 06 d1 3d
       0.025675846 -0.21357149 0.33157104 0.1020623
000150 d9 cf 8d 3e 76 71 89 3e 11 bf 49 be ad 5f 5f 3d
       0.27697638 0.26844376 -0.19701792 0.054534603
000160 2d 98 43 3d 63 f6 b1 bd d3 22 00 be a9 82 57 bd
       0.047752548 -0.08689573 -0.12513284 -0.05261484
000170 4d dc 37 be 8c fd 4d be 5c 81 40 bc 52 ad b5 bd
       -0.17955132 -0.20116252 -0.011749592 -0.08870949
000180 41 1d c5 3c 2e e8 2b 3e a5 0b 1c be 35 95 0b 3d
       0.0240618 0.16787788 -0.15238817 0.03407784
000190 53 5b 05 bc 0c 6b 2a be 24 f1 39 be 80 42 1f 3e
       -0.008139449 -0.16642398 -0.18158394 0.15552711
0001a0 73 cd f0 3d 6f cc e5 3c 78 48 f4 3d bd e3 e9 3d
       0.11757936 0.028051583 0.11927885 0.11420391
0001b0 23 b4 45 bd e2 ae 42 3d 9a ac e9 bd 4c 06 8a 3c
       -0.048267495 0.047530062 -0.11409874 0.016848706
0001c0 81 ac 11 bc 2d 07 75 be 82 40 6e bd 87 71 82 3e
       -0.008891226 -0.23928519 -0.05816699 0.2547724
0001d0 01 64 d6 bd 86 11 8b be 83 74 84 bd 99 78 49 be
       -0.10468293 -0.27161807 -0.06467535 -0.1967491
0001e0 6b 0d 27 be df fe 05 3e 06 b0 22 3e 20 f3 08 bd
       -0.16313712 0.13085507 0.1588746 -0.033434987
0001f0 d1 c2 32 be f9 b9 63 bc 50 aa 01 3d 8b 39 07 3e
       -0.17457129 -0.01389932 0.031656563 0.13205545
000200 a6 2e 13 bd 28 6a 62 3e f4 a4 3d be 3b 5f cc 3c
       -0.03593316 0.22110808 -0.18519956 0.024947753
000210 91 e0 68 be 6d 6c fe bc 9f d9 00 3e f1 19 d8 3d
       -0.22741915 -0.03105756 0.12583016 0.10551823
000220 4a 40 21 bd c8 20 9f bc 15 0c 22 be 92 24 7f bc
       -0.03936795 -0.019424811 -0.15824921 -0.015572684
000230 8b 23 52 3e ff de fa 3c 50 b5 84 3d 2c 00 45 be
       0.20521371 0.030623911 0.06479895 -0.19238347
000240 94 5d f0 3c b3 5e f3 bd 73 16 22 ba 48 09 a2 bd
       0.029341497 -0.11883297 -0.0006183155 -0.079119265
000250 9c f0 32 3e 2c 28 a6 be 4f 03 3d 3e d2 bf 84 bd
       0.17474598 -0.32452524 0.18458293 -0.06481899
000260 43 d7 93 bd 2e 01 83 be 17 0f 66 3e 08 96 04 bc
       -0.07218792 -0.25586838 0.22466694 -0.008092411
000270 07 a3 0c be fd 70 b1 be 92 ef 14 be 7f 62 96 3c
       -0.13734065 -0.34656516 -0.14544514 0.018357513
000280 a3 b4 24 3e 36 67 22 be d4 67 88 bd 1b 71 ba bd
       0.16084532 -0.15859684 -0.06660429 -0.091036044
000290 4a af 56 ba 0c 14 74 3d 80 1d 42 bd 2a 27 6e 3e
       -0.0008189572 0.05958943 -0.047391415 0.23257127
0002a0 fa c0 0f bd be 49 b4 be 80 99 53 bd 78 ca fe bd
       -0.035096146 -0.3521251 -0.05166006 -0.124409616
0002b0 b1 e2 9c 3d b3 53 68 3e 5e b5 de 3d dc f3 95 3d
       0.076604255 0.22688179 0.10874437 0.07321903
0002c0 20 d5 84 3d f4 ed 21 be 3e 22 2a 3d 57 db 0c be
       0.06485963 -0.15813428 0.041536562 -0.13755547
0002d0 84 97 2e 3e 16 5c 5b bc b5 59 bd bb 37 f3 42 3e
       0.17049986 -0.013388654 -0.005778516 0.19038092
0002e0 c3 87 5b 3d bb ea 49 be a2 c5 48 bd aa a0 96 3d
       0.05359627 -0.19718449 -0.049016602 0.07354863
0002f0 8f 4d c9 bd af 3b bc 3b 9d b1 06 be 23 b8 ab bd
       -0.09829246 0.0057444195 -0.13153692 -0.08384731
000300 9d fc 28 3e 4e c2 2d 3d 35 bb d1 bd fa 04 43 3e
       0.16502614 0.04242163 -0.10240785 0.19044867
000310 92 65 67 bc 7b f0 5a 3c a5 a6 20 3e 3e 85 5a 3e
       -0.014123337 0.013362999 0.1568857 0.2133989
000320 88 37 11 be 00 61 29 3e c1 10 a9 3d 6f 68 1a 3e
       -0.1418134 0.16540909 0.08255149 0.15078901
000330 ce 85 a8 bd 5a f6 dc 3c 85 b5 27 bd 32 7a 4e be
       -0.08228646 0.026972938 -0.040944595 -0.20163801
000340 5a a3 c9 3d fd ce de 3b d5 2f 07 3e 73 6c c0 3d
       0.0984561 0.0067995773 0.1320184 0.09395685
000350 e8 19 44 3d bd 4d e1 3c 33 3f 5b be 81 ff 55 3e
       0.04787627 0.027502889 -0.21410827 0.20898248
000360 81 1c d9 bc a5 de 20 be 80 4f 8b be 6e 37 69 3e
       -0.02650285 -0.15709932 -0.2720909 0.22775051
000370 bb 0a 2b be 61 36 86 be 85 ab 59 bd a5 7e 63 be
       -0.16703312 -0.26213363 -0.05314209 -0.2221628
000380 46 2b d4 3d 1e 51 c7 3d 9b 35 0e 3e e1 fe 87 bd
       0.10359816 0.09732269 0.13887636 -0.06640411
000390 d8 9b 92 bc ac 01 58 3d b2 75 28 3d 18 5e 7e bd
       -0.017896578 0.05273597 0.041127868 -0.062101454
0003a0 82 21 c5 bd 51 62 dc 3d 7b 02 91 3e bc 40 49 3d
       -0.09625532 0.1076094 0.28322205 0.049134
0003b0 84 e3 32 3d d6 df 39 3e 3f 4e e0 bd e2 27 dd bd
       0.043674007 0.18151793 -0.10952424 -0.10798623
0003c0 ad a9 3f 3d 7c 74 70 be 02 69 6b bd 77 b2 82 3d
       0.046792675 -0.23481935 -0.05747319 0.06381696
0003d0 52 10 06 3d 27 f3 8b ba 9a af 42 be 4b 27 da bd
       0.032730408 -0.0010677323 -0.19012299 -0.10652026
0003e0 37 5e 3c bc 8c 39 9b 3d 53 b3 f0 3d da 69 db 3d
       -0.011497072 0.075793356 0.117529534 0.10713549
0003f0 65 51 cf 3d ca 0c 17 3e 7c 06 03 be e2 a3 5f 3c
       0.10122947 0.14750972 -0.12795442 0.013649913
