examples/NN_crysx_mnist_98.11_biases.npz (npz, 1570 bytes, 2 tensors)

arr_0 f4 [256]
000000 a0 3f 09 3c 47 33 a7 b8 0c 76 26 bc b1 87 ba 3b
       0.008376986 -7.972732e-05 -0.0101599805 0.005692445
000010 2b 2a 23 3c dd 0b 56 3b 33 48 fc ba f3 ce f1 bb
       0.009958784 0.003266088 -0.0019247591 -0.0073794066
000020 e5 0f a7 bb 91 3f 2d 3c c4 fd 83 3a 73 e8 84 3b
       -0.0050983303 0.010574237 0.0010070135 0.0040560304
000030 9f 81 08 bb ff 19 1f bb 25 51 89 bc 6f c4 2d 3c
       -0.0020829213 -0.002427697 -0.016762326 0.010605915
000040 81 21 9e bc b4 f2 86 bc 12 43 b0 ba 26 96 42 bc
       -0.019303085 -0.016473152 -0.0013447723 -0.0118766185
000050 a4 91 57 3b 3e c7 90 bb 16 97 ae bc e4 02 61 bb
       0.0032893205 -0.004418283 -0.021312278 -0.0034333998
000060 17 a0 e9 3b 8b c7 7f bc 29 a1 dd bb 1b b5 12 bc
       0.00712968 -0.01561154 -0.0067635966 -0.008954312
000070 c6 68 c5 bb 7e cc c7 3b 53 4e 4b 3b d8 5e 2e ba
       -0.006024453 0.0060973754 0.0031022027 -0.0006651706
000080 1b 2b a1 ba cc 16 04 bc 97 25 f7 3a d1 5c c2 3a
       -0.0012296172 -0.008062076 0.0018855807 0.0014828687
000090 45 a8 9d bc ed d6 76 3c 55 5d f9 39 2f 39 be bb
       -0.019245276 0.015065891 0.0004756252 -0.0058051567
0000a0 0d cd f4 3b 8c c3 0e ba 90 02 19 3c 74 d6 04 3c
       0.007470733 -0.0005446009 0.00933899 0.00810777
0000b0 b0 24 27 bc 9f 3a 4f 3b ff 38 c4 bb ee ac cd ba
       -0.010201618 0.0031620634 -0.00598824 -0.0015691796
0000c0 7c 09 81 3b e4 c8 04 3c 12 ce 5e 3b 5a 98 b7 3b
       0.003937898 0.008104537 0.003399734 0.0056028785
0000d0 6b c9 19 3b 35 0c e1 3a 56 e3 1f 3b 50 1b 52 3c
       0.0023466002 0.0017169776 0.0024396977 0.012823895
0000e0 f8 5d 30 3b 4c 24 81 3c b5 7b ed 3a a7 3e 13 3c
       0.0026911478 0.015764378 0.0018118533 0.008987105
0000f0 ba 0a 0d bc a9 a4 43 3c c3 54 cb 3b 88 ac 51 bb
       -0.008608514 0.0119411135 0.0062051727 -0.0031993706
000100 36 e2 02 bb ff 7a 60 bc 73 0e 97 3b a8 95 52 bb
       -0.0019971258 -0.0137012 0.004609877 -0.003213266
000110 75 bd 0f 3c f4 d0 94 3a a2 eb 3b 3b 5e 43 49 bc
       0.008773197 0.0011353777 0.0028674384 -0.012284128
000120 73 09 ce 3b 7d 62 3c bc 58 e9 53 3b 84 4e 03 3b
       0.0062877475 -0.011498091 0.0032335129 0.0020035813
000130 a0 f9 4a bc 41 5f e4 3b f4 90 33 39 5f e0 dc bb
       -0.012388617 0.006969363 0.0001712477 -0.0067406143
000140 56 9b 45 b8 e8 54 0b b7 af 8c 9e bc 10 d0 e4 3b
       -4.7113128e-05 -8.304814e-06 -0.019354193 0.006982811
000150 1d 70 af 3b b1 29 3d bc 28 46 0a bb 65 93 95 3b
       0.005353941 -0.011545585 -0.0021098945 0.00456469
000160 35 40 ab bb a6 21 27 3b 4c 8b 9f 3b 4c c7 31 3b
       -0.00522616 0.0025502234 0.0048689004 0.0027126847
000170 24 35 4b 3a 1a de 11 3b 94 3a 4e bc 86 f3 4e 3c
       0.0007751754 0.0022257627 -0.012587208 0.012631303
000180 26 f6 99 3b 73 ac e8 bb 11 5f cb bb 69 0e fc 3b
       0.0046985326 -0.0071006357 -0.006206401 0.0076921475
000190 67 0d eb ba cc 30 f5 b9 a4 86 35 39 97 96 da bb
       -0.0017933071 -0.00046766398 0.00017311663 -0.0066707837
0001a0 cc b5 83 3b 5f 0d 8b ba e9 6a 89 bb 3c 1f d1 bb
       0.0040194746 -0.0010608843 -0.004193653 -0.0063818973
0001b0 2e ac 92 b8 ca ad 34 bc 2a 41 56 3a f9 eb 6a b9
       -6.9938935e-05 -0.011027763 0.00081731624 -0.00022403886
0001c0 43 31 d3 3b 53 51 dd 3b 79 95 15 bb b2 2e 95 bb
       0.0064450814 0.0067540794 -0.0022824688 -0.0045526857
0001d0 c7 c6 f8 3a 4e 45 98 3a fa 9c fd 3b 1d cd 31 bc
       0.0018980139 0.0011617334 0.0077396603 -0.0108521255
0001e0 c3 99 a1 3b d4 6f 11 bc 0d 1d 0c 3c e3 55 3e bc
       0.00493166 -0.00887676 0.008551848 -0.011617157
0001f0 5a 0c 96 3a b7 ba bc ba 4a d6 79 3b 7b 38 22 3c
       0.0011447773 -0.0014398907 0.003812211 0.009901161
000200 8e 99 13 3b 9a 8b b6 b9 15 ca 77 3c 61 f4 a7 ba
       0.0022521946 -0.00034817756 0.015123864 -0.001281392
000210 b1 17 e8 3b 9c af d9 3b 76 a9 93 3b ee 31 ff 3b
       0.0070829024 0.0066432487 0.0045062853 0.0077879345
000220 93 6b b8 bc 10 d5 a4 3b b1 44 a8 3b 60 36 86 bc
       -0.022512233 0.005030282 0.005135142 -0.01638335
000230 ab 38 13 3b 13 3c 47 bc 2a 0d 72 bc 35 42 6d bb
       0.0022464197 -0.012160319 -0.014773646 -0.0036202793
000240 7b 73 98 ba 13 a9 ad 3b 8c ef 4a 3a 6d 90 80 3a
       -0.0011631096 0.0052996962 0.0007741384 0.0009808667
000250 c4 1e 1c bc 3b 12 4c 3b a0 76 2a 3b 41 23 aa bc
       -0.0095288195 0.0031138796 0.0026010647 -0.020768763
000260 57 de d3 bc b5 d6 33 bb 90 33 0f bc d3 8e d8 3b
       -0.025862856 -0.0027441208 -0.008740321 0.006608823
000270 8d 85 40 ba f4 49 8e bb 74 f6 ba 3b c4 26 ea 3b
       -0.00073441194 -0.004342312 0.005705649 0.0071457345
000280 ba dd 18 39 7d 8b bb 3b b4 25 b1 3b 62 6b 5a bc
       0.00014578449 0.0057234154 0.005406106 -0.013331266
000290 be 59 0d 3b ce 2d 29 bc d5 78 4f 3c 06 69 b2 bc
       0.0021568383 -0.010325862 0.012663086 -0.021778595
0002a0 ba f3 0f bc 12 c0 13 3c 84 fb b9 bb d9 d8 96 bc
       -0.008786136 0.009017961 -0.005675735 -0.018413948
0002b0 cb 59 7a 3b 1c c3 90 bb ff a7 0a 3c 4f ce 83 bc
       0.0038200493 -0.00441779 0.008462905 -0.016089587
0002c0 03 02 71 bc bc a9 c2 bb 4c 03 10 bc 04 a6 a4 3b
       -0.014709952 -0.005940644 -0.008789849 0.0050246734
0002d0 aa 3c 50 3a 2b 21 8d 3b 59 7f ae bb 20 23 14 bd
       0.000794361 0.0043069324 -0.0053252396 -0.03616631
0002e0 62 b9 73 b9 6d 1b 72 bc b4 15 29 bc 64 cd b3 3b
       -0.00023243346 -0.014777047 -0.010320116 0.005487131
0002f0 b3 5e 27 bc 62 47 e8 bb b0 f0 d6 bb 47 69 52 3b
       -0.010215449 -0.0070885876 -0.006559454 0.0032106207
000300 6e 80 7b 39 4b 32 53 bc 7a ee 7b bb 9a b0 a3 bb
       0.00023985069 -0.012890409 -0.0038441704 -0.004995418
000310 c5 10 00 3c 68 38 01 bc dc 88 89 39 cf 19 bf bc
       0.007816498 -0.007886983 0.00026232644 -0.023327736
000320 a3 79 93 3a b6 55 b5 3b 8a c3 06 ba 29 fc 4a bc
       0.001125146 0.005533899 -0.0005140832 -0.012389221
000330 f0 2a 35 bc 24 68 2c bc f8 f2 ce bc 0b 16 0e bc
       -0.0110576 -0.010522876 -0.02526234 -0.008672248
000340 91 17 a2 ba e3 08 9a bb 40 27 f6 bb 71 c0 de bb
       -0.0012366642 -0.0047007664 -0.007512003 -0.006797843
000350 5a 4f 09 3c 63 7a 76 bc 5e 0d bc 3a ee 53 5e 3c
       0.008380735 -0.015043828 0.0014347245 0.013569815
000360 75 17 c1 3b ce f7 24 3c 1d e7 df 3a d5 a3 1f b9
       0.005892689 0.010068847 0.0017082427 -0.00015224454
000370 b2 57 ce 3b 36 a8 89 3b 58 8f 1e bc ec 2b 84 3a
       0.006297075 0.0042009605 -0.0096777305 0.001008389
000380 6e 2b c0 3b 30 ca 0c bc 35 e9 81 3a 17 9a a1 bb
       0.005864552 -0.008593127 0.000991142 -0.004931699
000390 d5 56 16 bc 01 eb 9c bb b8 e7 df bb 10 55 5c bb
       -0.009175976 -0.004788757 -0.006833043 -0.0033620037
0003a0 32 b1 bb bb 21 ab 25 3b 8f 6a 35 3c 14 75 3b bb
       -0.0057279104 0.0025279003 0.011072769 -0.002860372
0003b0 24 19 54 bc 72 e1 59 bb 52 17 2e bc e9 b1 03 3c
       -0.012945447 -0.0033245948 -0.010625677 0.008038023
0003c0 41 b6 08 3c d1 1e 78 38 30 02 c9 3b 7f 21 37 bc
       0.008344234 5.9156508e-05 0.006134294 -0.01117742
0003d0 a8 8b 50 3b 24 1d 27 bc 18 e2 82 3b 61 14 2b bc
       0.0031821523 -0.010199819 0.0039942376 -0.01044187
0003e0 61 99 30 3b 8c 74 a2 3b 7b 18 89 3a 5e 86 f1 bb
       0.002694689 0.004957741 0.0010459566 -0.007370754
0003f0 91 1c 66 3b 32 df 06 3c 2f 4b bd 3b 7e b1 6c 3b
       0.0035112242 0.008231925 0.005776785 0.0036116536

arr_1 f4 [10]
000000 5e bc 68 bd df 65 41 bd fc 66 55 bd 5c 49 94 bc
       -0.056820266 -0.047216292 -0.052100167 -0.018101387
000010 81 4f 95 3d 7b a8 1f bd 2a 54 1a bd c0 e6 c3 bd
       0.07290555 -0.038979035 -0.03767792 -0.095654964
000020 96 3b 7c 3e 22 c3 df 3c
       0.24632105 0.027314726
