examples/NN_crysx_mnist_plus_98.11_weights.npz (npz, 813562 bytes, 2 tensors)

arr_0 f4 [256, 784]
000000 20 ed 04 bd a9 00 c6 bc 0a b9 07 3d 69 3f de bc
       -0.032452703 -0.024170237 0.03313545 -0.027129846
000010 5d 59 b6 bc 9c 82 19 3c f6 d2 1b bb 60 22 06 3d
       -0.022259409 0.009369519 -0.0023776866 0.032747626
000020 f7 cd d8 3c 74 92 69 3c 35 03 e9 3c 3b 04 ea bc
       0.0264654 0.014256109 0.028443912 -0.02856647
000030 bc b4 1c bc 50 06 cf 3c c0 b0 0e 3d 23 7e fa bc
       -0.009564575 0.025271565 0.03483653 -0.030577725
000040 59 7c 88 3c 86 0f 06 bd f8 76 7b bc 0c 48 0d 3d
       0.016660856 -0.032729648 -0.015348189 0.034492537
000050 6e f6 09 bd 10 d3 0b 3d 3b b1 94 3c 5d 20 e0 3c
       -0.03368228 0.03413683 0.018150916 0.027359182
000060 73 33 a1 bc 7a c7 02 bd 37 e7 cb bc 5a b5 53 bc
       -0.019677853 -0.031928517 -0.024890525 -0.012921656
000070 13 e4 94 bc 8b e1 e5 3c 46 38 04 3d d0 b8 0c 3d
       -0.01817516 0.028061649 0.03228023 0.03435594
000080 49 58 ea 3c 99 b0 8e bc e0 a6 a5 3b 26 49 09 3d
       0.02860655 -0.017418193 0.0050552934 0.033517025
000090 6e 90 0f 3c 77 f0 c9 bc fb 0a db bb da c3 10 3d
       0.008762462 -0.024650795 -0.0066846586 0.03534303
0000a0 18 42 63 bc ee 2f 9b 3b 56 7a 7d 3c 8f cd 0f bd
       -0.013870738 0.0047359383 0.015471062 -0.035108145
0000b0 92 02 27 bc 69 60 aa 3c 9b c8 d7 bc 61 a8 f0 3c
       -0.010193484 0.020797925 -0.026340773 0.029377164
0000c0 65 c0 4a ba ce e2 0a 3d ee e1 0e bb 78 7b 07 bd
       -0.00077343575 0.033907704 -0.0021802145 -0.033076733
0000d0 99 68 cf 3c df 42 f1 3c 34 4d db 3b 85 f0 bf bc
       0.02531843 0.029450832 0.006692553 -0.023430118
0000e0 9d c6 86 bc 64 5f 17 bc 0c fc 79 bc 10 6f a7 3b
       -0.016452128 -0.0092390515 -0.015257847 0.005109675
0000f0 82 19 17 bc 0c 7d b9 3b d0 99 10 3c f4 fe 32 3c
       -0.00922239 0.0056606587 0.008825734 0.010925043
000100 a7 c0 e0 3b 25 a4 10 bd 30 e0 76 3a f9 4c 0f bd
       0.0068589034 -0.03531279 0.0009417562 -0.034985516
000110 53 f4 a7 bb 43 22 9c bb 26 8f b2 bc 56 58 ba 3c
       -0.0051255613 -0.0047648265 -0.021796774 0.0227472
000120 bc 6b e2 3b af 98 c0 bc 45 63 87 bc 70 bd 04 3c
       0.0069098156 -0.023510305 -0.016526828 0.008101806
000130 88 a9 73 bc 7c 66 e0 bb 01 48 0a bd 24 ef e2 bc
       -0.014871962 -0.0068481546 -0.033760075 -0.027701922
000140 f0 e8 42 bc 9d ee d9 3c 2e 8a 77 bc a3 55 9b 3c
       -0.011896357 0.026603037 -0.015108628 0.018961733
000150 80 69 01 bd 73 af a8 3c b4 84 23 3c bf bb 99 bc
       -0.031594753 0.020591473 0.009980369 -0.018766282
000160 40 e6 97 bb 3b 37 2e 3c 2b 02 c4 bc 1b 7f 50 bc
       -0.0046356022 0.010633285 -0.023926815 -0.012725617
000170 18 77 0a bd 3d 9d 00 3c 96 4f c3 bc 46 3f 75 3c
       -0.033804983 0.0078499885 -0.02384166 0.014968699
000180 12 10 ad bc 04 ca 09 3b d0 98 76 bc 19 f5 e1 3b
       -0.021125827 0.0021024952 -0.015051082 0.006895673
000190 98 04 cd ba 81 f3 a2 39 ee a5 c9 bc 64 97 0d bd
       -0.0015641628 0.00031080472 -0.024615254 -0.034568205
0001a0 1e 7c a1 3a c9 2b 21 3d ca ad 00 3d 82 5c b6 3b
       0.0012320315 0.039348397 0.03141574 0.005565227
0001b0 cc 54 6c 3c 45 02 06 bd ba d1 2d bb 24 8f 08 bd
       0.014424514 -0.03271701 -0.0026522712 -0.033339635
0001c0 23 08 8f 3c bd bd 93 bc 30 fb 92 bc 98 17 0e 3c
       0.017459935 -0.01803481 -0.017942041 0.008672617
0001d0 81 5f d4 bc 2b 62 4f bc d2 74 75 bc 28 7f 07 b9
       -0.025924446 -0.012657682 -0.014981465 -0.00012921973
0001e0 12 85 ac bc 17 19 b1 bc c2 4b 70 bc d3 fa 4f bb
       -0.021059547 -0.02161841 -0.0146665 -0.0031735196
0001f0 91 da f6 bc 17 f0 50 3c 07 87 bb 3c db 88 6b bc
       -0.030133517 0.012752554 0.022891534 -0.014375891
000200 f9 a5 33 bc 2c a3 df bc cc 17 5b bd cc 01 4d bd
       -0.010964864 -0.027299486 -0.05348949 -0.05005054
000210 02 8b 4b bd a3 b3 34 bd 6f 52 c8 bb c2 8a 0f bd
       -0.049693115 -0.044116627 -0.0061133425 -0.03504444
000220 e8 1a ef 3b 71 79 e7 3c 59 37 5f bc 39 84 b3 bc
       0.0072969086 0.02825615 -0.013624036 -0.021913635
000230 ce 48 61 ba 1c fc 15 3c fb ef b2 bc a0 7e b3 bc
       -0.00085939176 0.009154346 -0.021842947 -0.021910965
000240 6c 4d 08 3d b7 ba 0b bd f7 04 44 bd 20 39 32 bd
       0.03327696 -0.034113612 -0.047856297 -0.04351151
000250 c6 6a 40 bd e3 30 65 bc 91 79 76 bd 53 38 fa 3c
       -0.046976827 -0.013988706 -0.06017453 0.030544436
000260 97 93 82 3c e8 6f ab 3b a0 6e 6e 3d 3f e3 72 bc
       0.015939517 0.005231846 0.05821097 -0.0148246875
000270 ee 53 6a bc 6c c4 1d bb 95 96 cd bb d1 59 8e bd
       -0.014302237 -0.0024073375 -0.0062740543 -0.06950725
000280 93 19 80 bc a8 a5 95 bb a8 75 96 3b 2e 71 b0 bc
       -0.015637195 -0.004566867 0.0045916624 -0.021538343
000290 6c d6 44 bb a1 f6 58 3c 3a 07 d7 bc af 39 bf bc
       -0.0030035032 0.013242395 -0.026248563 -0.023342935
0002a0 9e 3a 33 bc 66 a0 70 bc b7 ea 89 3c 1a 8c 07 3d
       -0.010939268 -0.0146866795 0.016835554 0.033092596
0002b0 94 55 02 bd 4d b1 3b bc b0 52 a6 3c b4 e4 39 bd
       -0.031819895 -0.011455846 0.0203031 -0.045384124
0002c0 66 5f 38 bd 3d 83 03 3a 0e 60 8d bc 7c 2e a4 3c
       -0.045012854 0.00050168094 -0.017257717 0.020041697
0002d0 d8 05 79 3d a1 c2 b0 3d 83 70 5e 3d e0 0e cf bc
       0.06079659 0.086308725 0.05430652 -0.025275648
0002e0 1f 8c 50 bd 34 96 3a bc 9f 88 ce bb ea fa de bc
       -0.05091488 -0.01138835 -0.0063029076 -0.027219255
0002f0 cc 1c 5a bc fa 26 fa 3c a8 36 4d 3d 60 3a 5d 3d
       -0.01331253 0.030536164 0.050100952 0.05401075
000300 0c 32 f8 3c 44 ae c7 3c 82 77 7f bc 56 3d 92 3c
       0.030297302 0.024375089 -0.015592458 0.017851513
000310 d3 b4 94 3c a5 f4 b8 3c a3 13 a6 bc 15 9e d8 bb
       0.01815263 0.022577593 -0.020273035 -0.0066106417
000320 52 f5 4b 3c 2b 51 61 3c fe de bb bb 48 fd 1f bd
       0.012448626 0.013752262 -0.00573337 -0.039059907
000330 7e a6 94 bb 63 5c 46 bd 21 27 c1 3c c8 21 58 3c
       -0.004536449 -0.04842795 0.023578228 0.013191648
000340 92 e1 dd 3c 12 25 48 3d 87 0f de bc fc a3 df bc
       0.0270851 0.048863478 -0.027107013 -0.027299874
000350 14 81 a1 3b 19 a4 f5 3c a3 c2 fc 3b a1 33 3d bd
       0.0049287174 0.029985474 0.007713632 -0.046191815
000360 50 e7 90 bc 02 d2 cb bc a3 bc 2d 3c ad 3f d1 bb
       -0.017688423 -0.024880413 0.0106040565 -0.0063857646
000370 a0 df 7a bc ff 3e 29 bc 30 ec a0 3c ac 36 47 3c
       -0.015312105 -0.010329961 0.019643873 0.012159031
000380 5c 5c 08 bb 49 73 da bb ba c7 a5 bc 3b 5a 88 3c
       -0.0020807004 -0.006666575 -0.020236839 0.016644588
000390 b6 4a b9 bc 71 b2 92 3b c1 ad 86 3b 85 5b bf bb
       -0.022618633 0.0044768383 0.0041100685 -0.0058397674
0003a0 9c bd 01 bd aa 9d 82 bd fe 2e f4 bc d8 d5 a8 bc
       -0.031674966 -0.06377728 -0.029807564 -0.020609781
0003b0 8f ce 3e 3d d3 3a a3 bc 84 ca 0e bd e7 31 45 3c
       0.04658371 -0.01992551 -0.034861103 0.012035823
0003c0 8b 4d 4b 3d 09 cb aa 3d ff e8 33 3d 0d d1 30 bd
       0.049634498 0.08339507 0.043923374 -0.043168116
0003d0 e4 4f bb bb 23 82 a0 bb c3 6b aa bc 96 e3 9b 3d
       -0.005716311 -0.004898326 -0.020803338 0.07611768
0003e0 a7 c5 5d 3d a1 43 6c 3c e4 91 a2 3c 72 21 04 bd
       0.054143574 0.014420421 0.019844957 -0.03225846
0003f0 14 ea 07 bd d5 12 91 3c 91 2b e8 bc b1 7d eb 3c
       -0.03318222 0.017709175 -0.028341087 0.028746458

arr_1 f4 [10, 256]
000000 18 6b 3b 3e 81 19 3b 3e 9d 79 ea 3d e4 b5 e2 3d
       0.18302572 0.18271448 0.11448977 0.11069849
000010 ec 58 dc bd 93 05 b9 3d 45 f6 02 3e ac d5 01 3e
       -0.10759148 0.09034266 0.12789257 0.12679166
000020 6e ca fe bc 6a 4c 08 bd ab c7 33 be a5 aa 34 bc
       -0.031102385 -0.033276 -0.17556636 -0.011027013
000030 d2 c8 5f be 6b c0 6b 3d 71 4d b5 3c d9 f2 af 3d
       -0.2185395 0.05755655 0.022131654 0.085912414
000040 67 aa ea 3d b5 fe ee 3c e5 b1 93 3e 9a 0f 8d 3d
       0.11458283 0.029174188 0.2884666 0.068877414
000050 aa d1 82 3e d5 9c 60 be bb eb f5 bd 79 e3 03 bc
       0.25550586 -0.21934827 -0.12007853 -0.008049839
000060 72 e7 30 3e e7 d8 b3 3c 04 aa d2 37 a7 76 6c 3e
       0.1727579 0.021954013 2.511312e-05 0.23092137
000070 97 93 81 bd 0f 70 61 bd 4b f0 1e be 02 6c 0f be
       -0.06326979 -0.055038508 -0.15521352 -0.14006045
000080 b6 d0 06 be 6e 5a 09 bd b5 79 89 bd db f9 e7 bd
       -0.13165554 -0.033533506 -0.06712667 -0.11326953
000090 d7 ad de 3d a5 f3 4d 3c cf 0c 21 3e 9c 67 10 bd
       0.10873001 0.012570296 0.15727542 -0.03525506
0000a0 fe b5 22 3e 50 70 3f 3d 34 64 b5 bd 8b ea 8e 3d
       0.15889737 0.04673797 -0.08857003 0.06978329
0000b0 b9 6e da 3d 0f 56 c8 bd c1 3f f2 bc fe cb b0 be
       0.1066565 -0.097820394 -0.029571416 -0.34530634
0000c0 e9 2c ec bb 54 19 82 3e a9 9e 9d bd 06 6e 60 be
       -0.007207502 0.2540995 -0.07696278 -0.2191697
0000d0 4a 9f 0e bd d5 35 70 be 3e e1 a0 3d ea 7b 34 be
       -0.03481988 -0.23458035 0.078554615 -0.17625394
0000e0 23 7b 8d bd 43 c1 e5 bd 86 22 00 be d8 c7 e4 bd
       -0.06908252 -0.11218502 -0.1251317 -0.1117093
0000f0 4e ed 31 be 2a ac 6c 3d 01 7e 34 3e 49 2c 6c 3e
       -0.17375681 0.057781376 0.17626192 0.23063768
000100 08 52 9b bd ed 67 3c 3e 5c 3f 39 be b8 89 c9 bd
       -0.075840056 0.1839902 -0.18090576 -0.09840721
000110 12 6e 5f be 37 11 0a 3c e3 c0 f2 bc 0b 73 fe bd
       -0.21819332 0.008426956 -0.029632991 -0.124242865
000120 b4 fb a9 bc bf ee 28 be 99 95 e9 3c 44 66 c7 bd
       -0.020749904 -0.16497324 0.028513717 -0.097363025
000130 9c 39 91 bd d4 6e d4 3d ca a7 dd bd 24 51 2e 3d
       -0.07091066 0.10372701 -0.10823019 0.04255785
000140 38 0d 41 bb 9c 14 1e 3e 7c f4 19 be e7 f0 5a 3e
       -0.0029457342 0.1543755 -0.1503467 0.2138096
000150 b7 c8 34 ba 10 af 2b be 17 57 02 be 7c 76 96 3c
       -0.0006896364 -0.16766 -0.12728535 0.018367045
000160 0b a6 73 3e 5c 63 b0 bc 44 50 64 3e a3 0a 8a bc
       0.23793809 -0.021531753 0.22296244 -0.016850775
000170 cf 04 2f bd db 07 2b bd 13 c6 09 3e db b7 72 be
       -0.042729195 -0.04175554 0.13454466 -0.23702948
000180 de 22 d7 3c 8f e0 a4 be 1d 7b 8b be ef 44 9f bd
       0.026261743 -0.32202575 -0.27242365 -0.0777682
000190 78 04 0e be f9 00 f8 bc 85 1a ef 3d 6b 2e 2b be
       -0.13868892 -0.030273901 0.1167498 -0.16716926
0001a0 84 21 c8 bd da e7 86 bd f7 af 1c 3d 48 f3 66 be
       -0.097720176 -0.06587191 0.03825375 -0.22553742
0001b0 73 cf 8e 3d 6f 64 d5 bd 1f 20 84 bd 62 81 d9 3c
       0.069731615 -0.10419547 -0.06451439 0.026550952
0001c0 be e2 7c bd 45 fd 05 3e 41 71 e3 bd 55 4a 15 3e
       -0.061739676 0.13084896 -0.11105586 0.14579137
0001d0 e4 b9 23 3e 02 b7 da 3d c7 5b 47 bd e8 40 21 be
       0.1598888 0.10679437 -0.04867151 -0.15747416
0001e0 6f 8c 50 3d da 5d 19 3e 70 ac 8b 3d c5 57 e4 3d
       0.050915178 0.14977208 0.06819999 0.11149553
0001f0 96 08 3f be a4 87 c7 3d 66 0b 25 3e ef b8 90 3e
       -0.18655619 0.09742668 0.1611763 0.28266093
000200 3d 13 d7 bc 39 23 b0 3e 5d 8f cf 3b 84 51 4e 3d
       -0.02625429 0.34401873 0.006334229 0.050370708
000210 02 84 bf 3b f5 a8 77 be e2 ce fd 3d 53 62 ca 3d
       0.005844594 -0.24185546 0.123929754 0.09882035
000220 f8 53 d6 bd fe 29 f6 3d 74 ca 9c bd a7 d6 6f 3e
       -0.104652345 0.12019728 -0.07655802 0.23421727
000230 46 10 ce bd 54 ba c5 bc 82 b4 ac bd f4 20 5e 3c
       -0.10061698 -0.0241367 -0.08432867 0.013557661
000240 74 3e 75 bd 4d dd 8f 3c 05 33 dd 3a f5 55 35 3e
       -0.059874013 0.01756158 0.0016876167 0.17708571
000250 3f bf 03 be fa ed 36 bd f9 a5 b5 3d 8d 81 32 3e
       -0.12865923 -0.044660546 0.088695474 0.17432232
000260 fc 43 81 be 67 98 33 bd 4b d4 84 3d 2f 3f f8 3c
       -0.2524718 -0.043846514 0.06485804 0.030303566
000270 c4 e1 34 bd 23 2a 68 be 52 ad 38 bd f9 67 3b be
       -0.04416062 -0.22672324 -0.045087166 -0.18301381
000280 95 df 87 be ee ed 3d be 5e 91 47 bc d7 95 46 39
       -0.26537767 -0.18547794 -0.012180654 0.00018938571
000290 ba a8 57 be d6 68 5c bc 0a e6 9f 3e 20 ff 6e 3d
       -0.21060458 -0.013452729 0.31230193 0.058348775
0002a0 18 61 35 3e 46 76 e6 bb 8d 27 b8 3d cd 7c 1a be
       0.1771282 -0.0070331423 0.08991919 -0.1508667
0002b0 02 21 03 be 54 07 75 bd c6 b9 d2 be 33 75 c4 3c
       -0.1280556 -0.05982144 -0.4115736 0.023981666
0002c0 ca 67 60 bd ce 1e 46 bd b7 45 6d 3c 2b a6 9f 3e
       -0.05478648 -0.04836922 0.014481953 0.31181464
0002d0 71 99 fc 3d 30 9a b0 bd bf 5b 76 3d c9 c2 b5 bd
       0.12333954 -0.08623159 0.06014609 -0.08875043
0002e0 0a bd fc 3d a0 1c ec bc f9 ce e1 bc df a6 b3 bd
       0.12340744 -0.028822243 -0.027564513 -0.087720625
0002f0 7b 1e 01 3e a6 ae 31 3e 27 c3 53 bd 6e 60 24 be
       0.12609284 0.1735178 -0.051699784 -0.1605241
000300 ea f4 df bc 9f f3 ee 3c ef d2 a4 bd 8e 1b 1e be
       -0.027338464 0.029168902 -0.08048045 -0.15440199
000310 8f 2c c5 3d a2 30 bb bd 02 86 59 3d 7a bb 90 3c
       0.096276395 -0.09140135 0.053106315 0.01766752
000320 e3 4c 80 bd 1a 77 d1 bd 74 e8 94 3e 70 20 10 be
       -0.06264665 -0.10227795 0.29083598 -0.14074874
000330 86 0c 6c be e8 3f 88 3e 90 8a cd bd ea 03 63 3d
       -0.23051652 0.26611257 -0.10036194 0.055423655
000340 0e d2 b8 bc d4 5e 3a 3d 8b 4d 6a 3e 47 a3 37 bd
       -0.0225611 0.04550059 0.22881143 -0.044833448
000350 f2 3f 0e 3d 2d 6c 17 3e e4 c4 1c 3e ca e8 53 bd
       0.03472895 0.1478736 0.15309483 -0.051735677
000360 93 8f ce bd bd 0d 2d be 2a ca 84 bd a7 3f 9b bd
       -0.10085978 -0.16899772 -0.06483872 -0.075805
000370 8a d2 47 3e 39 b4 40 3e a8 52 45 bd ad d8 86 bd
       0.19513908 0.1881875 -0.04817453 -0.065842964
000380 ef 98 a7 bd b8 bf 9b bd bf bd 3b bd 69 df 43 bb
       -0.08183467 -0.07604927 -0.045835253 -0.0029887802
000390 2a 42 b9 bd 18 ec 85 bc 63 b6 13 be 03 91 4a 3e
       -0.09045823 -0.01634793 -0.14425044 0.1978188
0003a0 8c 1c d3 bd 71 83 c5 3d b1 ec 2e be 5e b8 04 be
       -0.10308179 0.09644211 -0.17082478 -0.12960956
0003b0 76 c3 05 be 7e 59 a3 be 97 7b 57 3d 7c 84 9a 3e
       -0.13062844 -0.31904215 0.0526081 0.30179203
0003c0 0e 3c 3e 3e 41 06 51 3c e8 10 a3 bd 9c e8 61 3c
       0.18577597 0.012757839 -0.07962209 0.013788369
0003d0 68 9a 54 be 27 26 3e 3e 84 15 84 3d 15 3d e8 3c
       -0.20762026 0.18569241 0.06449416 0.028349439
0003e0 35 52 e5 3d 4b b6 35 be 1e 89 83 3d 09 4c ba 3c
       0.1119732 -0.1774532 0.064226374 0.022741335
0003f0 df 7e 06 be ad 5a 89 bd ad 36 9b be 75 f0 99 3d
       -0.13134335 -0.06706748 -0.30315152 0.07516567
