examples/NN_crysx_microstructure_96_biases_cupy.npz (npz, 2522 bytes, 2 tensors)

arr_0 f4 [500]
000000 2a 80 8c bc 14 cf cf 3a 0a c1 e9 bc 30 e5 1a 3b
       -0.017150957 0.0015854561 -0.028534431 0.0023635142
000010 0e 10 d9 3a b5 ac 88 bb e8 96 ec ba 56 cc 87 39
       0.0016560571 -0.004170979 -0.0018050345 0.0002590145
000020 cc d5 ef bb 98 5b 8e bb c6 22 82 ba da d0 65 3a
       -0.0073191877 -0.004344415 -0.0009928576 0.0008766778
000030 95 3b fa bc da bc 1a 3a 10 8a e6 bc dd 04 59 bc
       -0.030545989 0.0005902775 -0.028142005 -0.013245788
000040 10 df f1 38 ef 18 65 bb e3 3e 5e bc 08 16 1f 3a
       0.00011533324 -0.0034957489 -0.013564798 0.00060686516
000050 84 97 b5 3a 5f f8 dd bc 70 83 05 3a f3 61 ff bc
       0.0013854359 -0.027095972 0.0005093133 -0.031174636
000060 f7 1c a5 ba 6f c7 d9 39 d7 b7 b1 b9 5b 70 6c bb
       -0.0012597133 0.00041538055 -0.00033897042 -0.0036077711
000070 f3 cf 1f bc 79 7c 13 ba 73 dc 14 3a 68 da f4 bc
       -0.009754169 -0.0005626153 0.00056786014 -0.0298893
000080 07 65 6b bc 9f a3 79 ba f8 0c 39 3a d2 48 36 bc
       -0.0143673485 -0.00095229776 0.00070591224 -0.01112576
000090 7d 1f c6 39 72 be 40 3a 74 54 43 3b c6 68 8d bc
       0.00037788964 0.00073525973 0.0029804977 -0.017261874
0000a0 c4 d1 e0 bc c5 ad 17 3b d8 34 19 3a 06 3c ef bb
       -0.027443774 0.0023144346 0.0005844361 -0.0073008565
0000b0 cb 59 02 bd f4 5e 6a bc c5 94 d6 bc f9 7c f8 b9
       -0.031823914 -0.014304865 -0.026193986 -0.00047395358
0000c0 1d f4 45 bc 27 33 01 3b 03 9f 6a bb 0b 3d 1a 3b
       -0.012082127 0.0019714327 -0.0035800345 0.002353492
0000d0 b0 01 3e 3b 8c 57 3e ba 0b 5f 1b bb 2c 9a 0a bd
       0.0028992705 -0.00072609703 -0.0023707773 -0.033838436
0000e0 ed 00 62 bc 47 d9 18 bc 1e df 1f bb 21 b2 12 bd
       -0.013794166 -0.009329147 -0.0024394463 -0.03581441
0000f0 af 84 a7 ba f1 f6 dd ba f7 dc c1 bb 41 3b 52 bb
       -0.0012780632 -0.0016934556 -0.0059162336 -0.0032078775
000100 fe 34 e3 3a 56 8f 46 bb 13 b1 97 bc f4 41 69 39
       0.0017334518 -0.0030297837 -0.018517053 0.00022245181
000110 35 0d 8b bb 89 72 ed bb 88 de 46 ba 33 b9 d7 bb
       -0.0042435178 -0.0072463197 -0.00075862603 -0.0065833568
000120 25 3b 92 3a 7d 26 c4 bc 0d 69 40 bc 84 d5 01 3a
       0.0011156542 -0.023944134 -0.011743796 0.0004952776
000130 a6 c6 1d bb d6 c8 d8 bc df 0b 4d 3b 9c c6 d7 bb
       -0.0024074703 -0.026462954 0.0031287593 -0.0065849554
000140 c4 8b ba 3a 54 a2 7a bb 4a f4 6c bc da 05 14 bb
       0.0014232327 -0.0038243728 -0.01446254 -0.0022586496
000150 cc 39 3c bb b3 10 13 bc 88 5b 47 bc 7a d8 70 ba
       -0.0028720973 -0.008976149 -0.012167819 -0.0009187531
000160 b5 43 ce 39 e7 70 3b bb 58 45 cb b9 99 9c ff b8
       0.00039341828 -0.002860123 -0.00038770842 -0.00012188516
000170 36 50 c6 bc 57 65 cb bc de 3a 59 3a 43 a4 11 3a
       -0.02420817 -0.024828596 0.0008286665 0.0005555788
000180 c4 57 89 bb 85 5e c7 3a d9 0b 51 bb 3d 20 a0 bc
       -0.0041913707 0.0015210664 -0.003189793 -0.019546622
000190 a0 89 1a 3b cb 04 0b bb 0f 2a 04 bb aa e8 64 b9
       0.0023580566 -0.0021212574 -0.002016667 -0.00021830449
0001a0 a2 cd 04 bd 55 98 44 ba ee e6 98 3a 37 16 6c 3a
       -0.03242267 -0.0007499506 0.0011665502 0.0009005996
0001b0 ff 6b e5 39 b1 52 53 bc c0 03 13 bd 76 95 92 39
       0.00043758747 -0.012898133 -0.03589225 0.00027958647
0001c0 47 15 12 3b 7e 4c 11 b7 6a 27 cc b9 75 37 7a 39
       0.0022290514 -8.660483e-06 -0.00038939278 0.00023862517
0001d0 3b bf 15 bb 70 e9 66 bb 21 88 da bb 1a 4d fa bb
       -0.0022849578 -0.0035234354 -0.00666906 -0.0076385858
0001e0 d0 94 90 bb 98 c8 35 bc 9f 3c 2d ba 81 42 cb 3a
       -0.004412271 -0.011095189 -0.00066084595 0.0015507491
0001f0 4a 39 1e bd 13 0a 67 bc 97 29 0b bb 70 b7 f9 b7
       -0.038628854 -0.014101523 -0.0021234506 -2.9768533e-05
000200 d2 62 a5 bc dd f8 d8 39 16 1a 59 39 60 7a 72 3a
       -0.020188723 0.00041384148 0.0002070445 0.00092498027
000210 d4 fd 47 38 84 0f 30 bc f0 f7 1b bd e9 58 14 ba
       4.7681693e-05 -0.010745887 -0.03807825 -0.00056590006
000220 b6 be 85 bc 77 1c 36 bc ec ca 13 bb c7 f7 a8 3a
       -0.01632629 -0.011115185 -0.002255137 0.0012891226
000230 f6 c0 6f 3a d0 55 1c bb 35 d7 8b bb da f8 a3 3a
       0.000914588 -0.002385486 -0.004267598 0.0012510077
000240 f1 3f 40 b9 e3 36 29 bd 26 56 df 38 a5 1b b2 ba
       -0.00018334367 -0.04131211 0.00010649515 -0.0013588561
000250 50 ff b2 bc cf 01 a4 bc b0 ee ee bb 5f 02 a4 38
       -0.021850258 -0.020020394 -0.0072916374 7.820571e-05
000260 11 05 64 39 e5 bc 06 bb d6 72 32 39 c0 0d b7 3a
       0.00021745662 -0.0020559367 0.00017018183 0.001396589
000270 38 b1 2c bd ed 3a 18 ba 89 ad 2e ba 5f 88 1c ba
       -0.042161196 -0.00058071205 -0.0006663432 -0.00059712486
000280 91 7c 47 bc e1 16 b2 3a f6 89 7e bc 39 64 30 b9
       -0.012175695 0.0013587141 -0.015535822 -0.00016822004
000290 ba 10 c1 b9 20 95 2c ba b7 5d c4 3a 8b c9 31 bc
       -0.0003682429 -0.00065835007 0.0014981542 -0.010851274
0002a0 58 2c 31 bb fb af 4c 3a 07 fd 93 3b a1 b6 76 bb
       -0.0027034488 0.00078082056 0.004516247 -0.0037645476
0002b0 7b 6f b3 3a f1 30 52 ba b8 0b bc bc ef 4e 9d 3a
       0.001368984 -0.0008018157 -0.022954807 0.0012001673
0002c0 0b fa e8 3a b6 9a 81 ba 91 f6 3c 38 06 bb a6 bc
       0.0017774714 -0.0009888026 4.5052326e-05 -0.020352852
0002d0 49 10 24 bb bb 42 be bc b6 4f b5 bb a0 e2 cd 3a
       -0.002503412 -0.023225179 -0.005533184 0.0015707798
0002e0 a9 6e f5 ba f1 6b 91 bb a3 ef 30 bc 7a d8 0a bb
       -0.0018724996 -0.0044379164 -0.010799321 -0.002118616
0002f0 64 60 b6 bc de d2 b5 ba 80 a2 e9 bb ba 6b aa 39
       -0.02226276 -0.0013872047 -0.007129967 0.0003250519
000300 e3 7a 4c bb 18 a3 ff bb 9f c8 3d bb 59 83 b1 bc
       -0.0031201176 -0.0078014247 -0.002895869 -0.021669077
000310 17 39 7b bb 2f 1f ef bb e0 f0 2d bd 5f 72 cd 3a
       -0.0038333589 -0.0072974185 -0.042466044 0.0015674344
000320 94 f2 20 bd 26 75 ad bb b1 60 19 3b 06 5f 17 39
       -0.03929384 -0.005293506 0.002340358 0.00014435881
000330 0f af 72 39 6f bb dc bc 39 3c e1 bc 1c f7 8f bb
       0.00023144133 -0.026944844 -0.027494537 -0.0043934714
000340 83 f6 5b bb e8 10 3e bd eb e8 28 ba 8d 7c 99 bc
       -0.003356368 -0.04640284 -0.0006443399 -0.018736148
000350 df 83 d3 bc c1 52 f5 ba 2e a7 23 3b d1 fa 25 bb
       -0.025819717 -0.0018716679 0.0024971473 -0.00253265
000360 13 d7 78 b9 7d 48 8c bc 32 2b e5 3a 9c 0c c1 bb
       -0.00023731244 -0.017124409 0.0017484187 -0.0058913957
000370 b4 b0 fc ba fb ec 3e b9 e1 86 8d bb d7 76 2e bb
       -0.0019278736 -0.00018208094 -0.0043190573 -0.0026621127
000380 7f 61 e3 bc 2a 9d dd ba 1e ba 09 bd a7 12 f0 3a
       -0.02775645 -0.00169078 -0.03362476 0.0018316106
000390 4a 45 e8 bc 59 cd f5 ba 24 c6 da bc b6 9b 1c 39
       -0.028353352 -0.0018753215 -0.026705809 0.00014935326
0003a0 eb ca 47 bc 78 95 d0 ba 2c f0 bf bb 33 69 47 bc
       -0.0121943755 -0.0015913686 -0.005857488 -0.012171078
0003b0 6a 42 70 bc 27 ea 00 bd f2 52 46 bc 7b ce 33 bd
       -0.014664272 -0.031473305 -0.012104737 -0.043898087
0003c0 e8 df 35 3b 44 c0 d7 bb f4 fe 42 b8 0d a9 99 bc
       0.0027751867 -0.006584199 -4.6490648e-05 -0.018757368
0003d0 10 66 db 3a e3 0f fb 3a 1e cc 27 bc 2d 19 10 3a
       0.0016738791 0.0019154515 -0.010241536 0.00054969155
0003e0 83 9a cf bb 54 7c 29 bb 6b 9b 53 bb 26 72 1d 3a
       -0.006335558 -0.002586146 -0.0032288681 0.0006006084
0003f0 09 89 03 bc b6 8c 78 ba ee b7 60 bc b7 e4 ad bc
       -0.008028277 -0.0009481417 -0.013715727 -0.021227224

arr_1 f4 [4]
000000 08 76 e2 3d 1b c1 90 be 40 69 a4 bd f2 3d 81 3e
       0.11057669 -0.28272328 -0.08027887 0.25242573
